dataset_test/TimesNet-for-Time-Series-Prediction/model_saved/nonsentiment_25.pt (torch, 192807 bytes, 10 tensors)

conv_layers.0.weight f4 [64, 3, 3]
0.1656618 0.7493898 0.006132361 -0.5062544 -0.08877961 -0.4757948 -0.19848377 0.021482289
-0.24526577 -0.09709672 0.14742705 0.482679 0.51114774 0.037961986 -0.25352958 0.39799768
1.116284 -0.78232723 0.1296887 0.40607804 -0.084234215 -0.17825818 -0.12622651 -0.06471189
-0.4204182 0.1435373 -0.022804467 -0.03308567 0.14098817 0.21539506 -0.57197195 -0.1979306
-0.48718137 -0.62734747 -0.6800744 -0.55464476 -0.740989 -0.10161765 0.004763062 0.06840369
0.21611448 0.072738595 0.23939706 -0.30823976 0.21297367 -1.359697 -0.12813145 0.48802742
-1.7777926 -0.25998402 -0.03835095 -1.6835592 -0.012589785 -0.097453594 -0.46697152 -0.39345267
0.044807717 0.1451642 0.018787274 -0.26087913 0.19438158 -0.9091082 -1.3733765 -0.67744815
-0.65682495 -0.121497974 -0.46646947 0.068471625 -0.016231209 -0.52719045 -0.44981366 -0.75887716
0.24961865 -0.29323062 0.06704998 -0.31280285 0.011961937 -0.25878477 -0.05315312 -0.21132135
-0.32172006 0.2583292 0.026635498 0.15136652 -0.32038862 0.13361545 -0.43640956 -0.026751697
0.3113301 0.038239043 -0.017479075 -0.23546582 -0.42372903 0.015302661 -0.28435114 -0.08221189
-0.11789658 -0.24264893 0.32915875 -0.45615658 -0.0015673614 -0.11656311 0.04388694 0.13587321
0.036302242 -0.095084354 -0.003995909 0.2251378 0.19662574 -0.102690764 0.1444013 -1.4772923
-0.8348068 -1.0500578 -1.1082658 -1.6354746 -1.6381173 0.19227949 0.050526142 -0.17162934
0.11432761 -0.01947683 0.12650721 0.053711213 -0.34047818 0.21491367 -0.115482405 0.22234893
-0.05106088 -0.01250953 -0.05997812 -0.598367 -0.21901436 -0.74485964 -1.7063453 -0.14216454
-0.713032 -0.7596622 -0.25803825 -0.85792917 -0.272597 -0.46594545 -0.74311095 -0.44996467
-0.045736074 -0.13412708 0.47710586 0.35024914 0.021569869 -0.060026277 -0.036853526 -0.5011926
-0.81893325 -0.78142524 -0.7982423 -0.27865362 0.0009612248 0.20746726 -0.23713046 0.14103514
0.10399428 -0.30265492 -0.48765168 -0.02027652 -0.13644978 0.3101621 0.38134366 -0.73273134
0.08848795 1.1075 -0.85955966 0.10021853 -0.34799966 -0.33228508 -0.035543703 0.22623385
-0.22911894 -0.44739488 -0.033329397 -0.2624555 0.20333564 -0.1338875 0.37651023 -0.009554028
0.22792603 -0.32845214 -0.036453065 -0.39157706 -0.08565178 -0.7475988 -0.8511167 0.22088133
-0.42854238 0.12268565 -0.06060587 -0.50270337 0.315636 -0.030508991 -1.0894343 -1.8686066
0.13159744 0.08751697 0.14623854 -0.43740907 0.061342184 0.3308213 -0.50723404 -0.29763323
-1.0256424 -0.3867141 -0.3865368 -0.1602758 0.11029519 -0.25010112 0.22791907 0.042164102
-0.3604093 -0.97303385 0.6489277 0.02605092 -0.22286575 -0.2169211 -0.37110686 -0.24041103
-0.03352772 0.011193219 0.016967371 -0.26405066 -0.15537153 -0.2537706 -0.2506594 -0.71768475
-0.0065970584 -0.86465156 -0.3544955 -0.60951847 -0.48993823 -0.08672285 -0.06597182 -0.17640305
0.22351079 -0.030846776 0.05992315 -0.07924643 0.07854283 -0.049304906 0.33265045 0.63408756
0.5950773 -0.08259276 -1.15638 1.60688 0.17508957 -0.116003394 -0.05540105 -0.2901271
00000000: 3fa3 293e 03d8 3f3f f9f1 c83b e399 01bf
00000010: 16d2 b5bd 609b f3be 543f 4bbe a0fb af3c
00000020: f326 7bbe a5da c6bd 1ef7 163e b421 f73e
00000030: 94da 023f 077e 1b3d a1ce 81be 5ac6 cb3e
00000040: 65e2 8e3f 9946 48bf 1dcd 043e 76e9 cf3e
00000050: fd82 acbd 5089 36be 8641 01be ab87 84bd
00000060: 0e41 d7be 71fb 123e 6fd0 babc d784 07bd
00000070: 345f 103e 8690 5c3e c16c 12bf 52ae 4abe
00000080: d66f f9be d899 20bf 5b19 2ebf 33fd 0dbf
00000090: 75b1 3dbf ea1c d0bd 7613 9c3b 3c17 8c3d
000000a0: 1d4d 5d3e f9f7 943d 8124 753e 9ad1 9dbe
000000b0: c515 5a3e 8d0a aebf e434 03be bbde f93e
000000c0: b58e e3bf a01c 85be e315 1dbd de7e d7bf
000000d0: 6345 4ebc c095 c7bd e416 efbe a172 c9be
000000e0: 4c88 373d eda5 143e c5e7 993c f391 85be
000000f0: f70b 473e 51bb 68bf cdca afbf 3e6d 2dbf
00000100: ae25 28bf eed3 f8bd 16d5 eebe da3a 8c3d
00000110: 50f7 84bc f4f5 06bf fa4d e6be c645 42bf
00000120: 089c 7f3e 5322 96be 8051 893d b227 a0be
00000130: 00fc 433c 707f 84be 16b7 59bd a064 58be
00000140: 7eb8 a4be ba43 843e b032 da3c d3ff 1a3e
00000150: fa09 a4be 7dd2 083e 1371 dfbe 6026 dbbc
00000160: a966 9f3e 8ba0 1c3d 4730 8fbc f41d 71be
00000170: 03f3 d8be 03b8 7a3c 7996 91be b55e a8bd
00000180: c373 f1bd f678 78be 7f87 a83e 5b8d e9be
00000190: ec6f cdba a4b8 eebd cbc2 333d 5922 0b3e
000001a0: a9b1 143d 96bb c2bd 1df0 82bb 868a 663e
000001b0: 4258 493e 894f d2bd efdd 133e ea17 bdbf
000001c0: e6b5 55bf 4b68 86bf a7db 8dbf 3b57 d1bf
000001d0: d4ad d1bf eae4 443e 80f4 4e3d 9abf 2fbe
000001e0: 9824 ea3d df8d 9fbc 1b8b 013e 4a00 5c3d
000001f0: 2853 aebe 5412 5c3e 0a82 ecbd 70af 633e
00000200: 3725 51bd c6f4 4cbc 9eab 75bd 942e 19bf
00000210: 4d45 60be 1faf 3ebf 8669 dabf 9593 11be
00000220: 4489 36bf 3979 42bf 971d 84be 3fa1 5bbf
00000230: d591 8bbe 6790 eebe 853c 3ebf c561 e6be
00000240: c055 3bbd 9c58 09be 3847 f43e db53 b33e
00000250: 4bb3 b03c 1dde 75bd b9f3 16bd 294e 00bf
00000260: 9ca5 51bf 7c0b 48bf 9b59 4cbf b0ab 8ebe
00000270: b4fa 7b3a 4c72 543e 54d2 72be 846b 103e
00000280: f4fa d43d 96f5 9abe 7bad f9be f21a a6bc
00000290: 7eb9 0bbe 91cd 9e3e 7a3f c33e 4894 3bbf
000002a0: 2c39 b53d 8fc2 8d3f 1a0c 5cbf 5f3f cd3d
000002b0: 032d b2be 4521 aabe 4696 11bd d9a9 673e
000002c0: 289e 6abe f110 e5be 6884 08bd 9160 86be
000002d0: 3837 503e ce19 09be f3c5 c03e 7f88 1cbc
000002e0: 7165 693e e12a a8be cf4f 15bd ca7c c8be
000002f0: 336a afbd a362 3fbf c9e2 59bf b72e 623e
00000300: e869 dbbe 9d42 fb3d dc3d 78bd 2bb1 00bf
00000310: 0b9b a13e feed f9bc 9572 8bbf 802e efbf
00000320: 7bc1 063e 193c b33d 8ebf 153e 15f4 dfbe
00000330: f141 7b3d 6961 a93e 17da 01bf 6263 98be
00000340: 4048 83bf 64ff c5be 27e8 c5be 571f 24be
00000350: 72e2 e13d 410d 80be 9e63 693e 44b4 2c3d
00000360: 9187 b8be bf18 79bf 2020 263f bd68 d53c
00000370: eb36 64be 9120 5ebe b801 bebe 4f2e 76be
00000380: 5d54 09bd c363 373c 28ff 8a3c a631 87be
00000390: b719 1fbe 38ee 81be 6e56 80be 30ba 37bf
000003a0: 232c d8bb ce59 5dbf 6f80 b5be 6709 1cbf
000003b0: 2fd9 fabe c09b b1bd 3c1c 87bd 00a3 34be
000003c0: 03e0 643e 61b2 fcbc fa71 753d f44b a2bd
000003d0: 10db a03d f1f3 49bd 2951 aa3e 9053 223f
000003e0: fc56 183f 6526 a9bd 4304 94bf 3eae cd3f
000003f0: ae4a 333e 3093 edbd 36ec 62bd 8a8b 94be

conv_layers.0.bias f4 [64]
-0.79929304 -1.0189692 -0.44239852 -0.23464075 -0.49527687 -0.48719084 0.71868 0.0017008848
-0.32635662 -0.40215763 -0.033032585 -0.45485473 -0.13075566 -0.3156229 0.88840353 0.0069594146
-0.35878974 -0.44358143 -0.983771 -0.07486408 -0.3747652 -0.33654433 -0.5206611 -0.21568264
-0.47605187 0.47955593 -0.047935918 0.18950893 -0.21295509 -0.002444726 -0.3176128 -0.7571309
0.0007990244 -0.41770586 -0.033368446 -0.27122787 0.0032745865 -0.05606039 1.0391177 -0.9091856
-0.18186656 -0.52653694 -0.013727074 -0.24445474 0.96897876 0.9941748 -0.35619953 -0.48493195
-0.11657377 0.039718237 -0.036012493 -0.4658274 -0.81373066 0.8569061 -1.0141075 -0.07191676
-0.0031564913 0.6141223 -0.1360029 -0.27128983 0.035610154 -0.17376012 -0.050715 -0.71972233
00000000: 789e 4cbf 956d 82bf 0f82 e2be aa45 70be
00000010: ee94 fdbe 1471 f9be 6afb 373f 39f0 de3a
00000020: 3718 a7be 9be7 cdbe 2d4d 07bd b8e2 e8be
00000030: d0e4 05be 5399 a1be 6a6e 633f cd0b e43b
00000040: 4ab3 b7be 1b1d e3be 6bd8 7bbf 5752 99bd
00000050: 39e1 bfbe 8a4f acbe 0c4a 05bf e9db 5cbe
00000060: 12bd f3be 5b88 f53e 7458 44bd a10e 423e
00000070: e610 5abe b237 20bb 259e a2be 55d3 41bf
00000080: 9f75 513a 8bdd d5be 5aad 08bd 61de 8abe
00000090: 729a 563b 949f 65bd cf01 853f 63c0 68bf
000000a0: 3a3b 3abe 20cb 06bf 85e7 60bc 5852 7abe
000000b0: fe0e 783f 3d82 7e3f c95f b6be 0049 f8be
000000c0: 3bbe eebd 97af 223d d681 13bd ee80 eebe
000000d0: a750 50bf 335e 5b3f 46ce 81bf 1849 93bd
000000e0: 23dd 4ebb 1e37 1d3f 5844 0bbe 80e6 8abe
000000f0: f4db 113d 2cee 31be 88ba 4fbd b93f 38bf

conv_layers.1.weight f4 [64, 64, 3]
0.26467106 -0.32108614 0.16826183 0.016753055 -0.32065094 0.052819844 0.024525128 0.18956527
-0.44133982 -0.46400857 -0.18973474 0.22450961 0.078060865 0.0835801 -0.14002107 -0.4232918
-0.6538291 0.1966702 -0.92852247 -0.80820125 -0.10160834 -0.6381094 0.63107544 -0.33434656
0.04518153 -0.021972071 -0.0040577715 -0.012640823 0.009184682 -0.5530557 -0.12563525 -0.22145268
-0.16119637 -0.29555896 -0.16350481 -0.04488143 -0.5270879 0.27624133 -0.12761998 0.07243181
0.03365978 0.05901557 -0.22653364 0.80230206 0.60214776 0.016432341 -0.16685918 -0.09973585
-0.16998667 -0.2644119 -0.32835135 -0.009539841 -0.033056114 -0.015579654 0.060294002 -0.0864119
-1.1239941 0.01429121 0.048322115 -0.055779435 0.43647245 0.16396424 0.20541991 -0.65980524
0.11951822 0.0001043199 -0.5478491 -0.23201822 -0.42074722 0.04708364 -0.038636997 -0.050195344
0.28818268 -0.20902094 -0.38959944 -0.7305911 -0.772624 -0.46732166 -0.22537005 -0.1735612
-0.19527853 -1.3769116 -1.2073077 -0.06383553 -0.053810358 0.006779915 0.01862822 -0.12163291
-0.1471515 -0.11861144 -0.1989838 0.022336114 -1.3307041 0.2644772 -0.56332195 0.011721953
-0.0676057 -0.10930049 -0.058472056 -0.20175256 0.26546177 0.22455351 -0.057629287 -0.09225538
-0.0035476543 -0.09377019 -0.22386332 0.015490013 0.08330906 0.041657325 0.17249598 -0.099228345
-0.16323687 -0.21370395 -0.6257042 0.1982085 0.58534193 0.14847822 -0.19680147 -0.112366974
-0.11013662 -0.049561843 -0.026414746 0.022334896 -0.05577473 -0.19983782 -0.12938593 -0.20149976
-0.08962808 -0.5535811 -0.2892221 -0.13657944 -0.31412438 0.2675252 0.5653358 0.5142796
0.86594903 0.7425974 0.027604971 0.06874074 0.07530112 -0.23707399 -0.31690544 -0.08243629
-0.8499939 0.45922443 0.83955395 -0.53908527 0.8742051 0.45627785 0.040873088 0.038753737
0.04755445 0.04831457 -0.033355676 0.037174013 -0.10917462 -0.024128469 -0.33642995 -1.3824847
-1.0751306 -1.0509827 1.0427014 0.28837547 -0.74896026 0.032594264 0.17725126 0.044935364
-0.25898644 0.09573774 -0.11977509 -0.44399643 -0.25279927 0.22094873 0.027281616 0.17975467
0.26655355 0.050666485 -0.06503644 -0.07401063 -0.26581615 0.4848927 0.017185781 0.35124582
0.61967224 0.17952006 -0.10829652 -0.087929234 0.012632438 -1.1215335 0.23490843 0.6223024
0.07601688 0.02326821 -0.07204572 -0.16048001 0.026886499 0.017459169 0.064828515 0.027466582
0.044828337 -0.011231751 0.030773176 -0.09754403 -0.008462718 0.0029920598 -0.023862127 -0.021289483
-0.036074787 0.014508037 -0.06774615 0.009352123 -0.035310972 -0.097848035 -0.07848297 -0.064154364
-0.034345943 -0.010748308 -0.018597549 -0.07823024 0.021265281 -0.05243388 -0.084123746 -0.05283316
-0.03890772 -0.059670817 0.010853157 -0.0009616695 -0.0064746933 0.05582307 0.007472627 0.044346094
-0.020340607 -0.008443288 -0.18159807 -0.071197666 -0.007511126 0.029706292 0.005004894 -0.03176085
-0.025713326 0.017594306 -0.056775305 0.023268566 0.017300772 -0.021074457 -0.22307 0.018152235
-0.013341776 0.041877676 -0.08023108 0.042416792 -0.031089267 -0.03232261 0.03387393 0.024151495
00000000: f782 873e 6765 a4be d44c 2c3e b43d 893c
00000010: 5c2c a4be 9f59 583d ece8 c83c 661d 423e
00000020: 4bf7 e1be 8892 edbe d349 42be d9e5 653e
00000030: 60de 9f3d 0b2c ab3d af61 0fbe b4b9 d8be
00000040: 5861 27bf ea63 493e a6b3 6dbf 47e6 4ebf
00000050: 0918 d0bd 235b 23bf 298e 213f 792f abbe
00000060: 4510 393d c6fe b3bc 0ef7 84bb 741b 4fbc
00000070: 597b 163c 0f95 0dbf 87a6 00be 7ec4 62be
00000080: a910 25be 8153 97be ce6d 27be 97d5 37bd
00000090: 3cef 06bf 816f 8d3e d0ae 02be 2157 943d
000000a0: d6de 093d 4fba 713d 6ff8 67be ab63 4d3f
000000b0: 5b26 1a3f 1e9d 863c 22dd 2abe 4f42 ccbd
000000c0: fc10 2ebe ff60 87be ab1d a8be fe4c 1cbc
000000d0: d965 07bd ce41 7fbc d8f6 763d b9f8 b0bd
000000e0: 0adf 8fbf ae25 6a3c 69ed 453d fa78 64bd
000000f0: 5179 df3e 3ee6 273e 9959 523e ffe8 28bf
00000100: f8c5 f43d 52c6 da38 d73f 0cbf 2f96 6dbe
00000110: 2e6c d7be c6da 403d d441 1ebd a299 4dbd
00000120: ae8c 933e 9609 56be 9479 c7be 0508 3bbf
00000130: b0ca 45bf c944 efbe 68c7 66be 07ba 31be
00000140: 18f7 47be a43e b0bf 0f89 9abf 34bc 82bd
00000150: 4068 5cbd 0d2a de3b 359a 983c ad1a f9bd
00000160: e2ae 16be 8eea f2bd 69c2 4bbe 3afa b63c
00000170: 8354 aabf 8e69 873e de35 10bf 6f0d 403c
00000180: db74 8abd efd8 dfbd 6580 6fbd 3998 4ebe
00000190: 9bea 873e 5bf1 653e b00c 6cbd 63f0 bcbd
000001a0: c37f 68bb 960a c0bd 6d3c 65be d3c9 7d3c
000001b0: f19d aa3d dfa0 2a3d c9a2 303e 3b38 cbbd
000001c0: 9127 27be 35d5 5abe 272e 20bf 2bf7 4a3e
000001d0: f8d8 153f ad0a 183e 5386 49be a820 e6bd
000001e0: 4f8f e1bd 5c01 4bbd bd63 d8bc acf7 b63c
000001f0: 0b74 64bd 49a2 4cbe bf7d 04be f455 4ebe
00000200: ed8e b7bd 7eb7 0dbf eb14 94be 7bdb 0bbe
00000210: e9d4 a0be 10f9 883e d9b9 103f d4a7 033f
00000220: d6ae 5d3f dd1a 3e3f d223 e23c f2c7 8c3d
00000230: 7937 9a3d 86c3 72be 6e41 a2be 5cd4 a8bd
00000240: 3399 59bf 771f eb3e 02ed 563f 7e01 0abf
00000250: e8cb 5f3f 409d e93e 8a6a 273d 3dbc 1e3d
00000260: 74c8 423d 80e5 453d f69f 08bd c743 183d
00000270: f196 dfbd 11a9 c5bc 8c40 acbe 42f5 b0bf
00000280: e19d 89bf 9a86 86bf 3d77 853f f3a5 933e
00000290: dcbb 3fbf 9081 053d 5b81 353e 250e 383d
000002a0: df99 84be 2612 c43d a44c f5bd 8053 e3be
000002b0: e86e 81be 6240 623e b27d df3c 9c11 383e
000002c0: b579 883e a987 4f3d d331 85bd e392 97bd
000002d0: 0e19 88be db43 f83e 32c9 8c3c 7ed6 b33e
000002e0: d7a2 1e3f 1bd4 373e 91ca ddbd 3e14 b4bd
000002f0: 49f8 4e3c 698e 8fbf d68b 703e 364f 1f3f
00000300: bdae 9b3d f99c be3c b58c 93bd df54 24be
00000310: 1341 dc3c 8806 8f3c d0c4 843d 9901 e13c
00000320: eb9d 373d 6105 38bc 0718 fc3c 2ac5 c7bd
00000330: 36a7 0abc 6f16 443b 827a c3bc 4867 aebc
00000340: 28c3 13bd 1eb3 6d3c 7ebe 8abd a639 193c
00000350: 3da2 10bd 8d64 c8bd aebb a0bd 5d63 83bd
00000360: 55ae 0cbd ac19 30bc e359 98bc 2d37 a0bd
00000370: 8734 ae3c e8c4 56bd 1249 acbd 9567 58bd
00000380: b45d 1fbd 6369 74bd 71d1 313c 8c18 7cba
00000390: aa29 d4bb bba6 643d f0dc f43b 40a4 353d
000003a0: 58a1 a6bc b755 0abc d8f4 39be 15d0 91bd
000003b0: e41f f6bb 9c5a f33c 1800 a43b aa17 02bd
000003c0: c1a4 d2bc ef21 903c 398d 68bd b89d be3c
000003d0: 59ba 8d3c 57a4 acbc 766c 64be ffb3 943c
000003e0: 7797 5abc ed87 2b3d 3150 a4bd 3bbd 2d3d
000003f0: ebae febc b764 04bd 64bf 0a3d 5bd9 c53c

conv_layers.1.bias f4 [64]
-0.35454807 -0.028157024 -0.08979898 -0.27926862 -0.10048311 -0.6085523 -0.117573135 -0.092080176
-0.33562368 -0.21219057 -0.035551537 -0.31253484 -0.035163816 -0.29287753 -0.107002586 -0.19964798
-0.18750674 -0.14431034 -0.14823872 -0.3340246 -0.303864 -0.17701747 -0.13197394 -0.051205326
-0.1591294 -0.06850457 -0.0035217653 0.12675178 -0.26812387 -0.37774822 -0.01949752 -0.09732745
-0.032530747 -0.16478582 -0.06274587 -0.02280377 -0.1882607 0.23931092 -0.15550376 -0.18600574
-0.05342691 -0.14042044 -0.065968804 -0.16781771 -0.096160546 -0.19152945 -0.12303273 -0.04565462
-0.22329023 -0.11423338 -0.092911676 -0.031828236 -0.071425974 0.37101477 -0.0823728 -0.23857883
-0.23301993 -0.2533512 -0.06785571 -0.19539842 -0.1269383 -0.0907265 -0.4648134 -0.10207421
00000000: 5387 b5be 8fa9 e6bc 87e8 b7bd 4cfc 8ebe
00000010: 17ca cdbd 15ca 1bbf 2fca f0bd 8894 bcbd
00000020: ded6 abbe 7c48 59be 7d9e 11bd 9104 a0be
00000030: ef07 10bd 0bf4 95be 2c24 dbbd 8570 4cbe
00000040: c401 40be 17c6 13be e4cb 17be 4605 abbe
00000050: 1094 9bbe 1144 35be 2d24 07be adbc 51bd
00000060: d1f2 22be 204c 8cbd 6bcd 66bb 38cb 013e
00000070: 8847 89be 3768 c1be 43b9 9fbc 9d53 c7bd
00000080: f63e 05bd 9dbd 28be e880 80bd f9ce babc
00000090: 6ac7 40be ec0d 753e 613c 1fbe 4a78 3ebe
000000a0: 2dd6 5abd 60ca 0fbe a71a 87bd 68d8 2bbe
000000b0: d2ef c4bd 4c20 44be 95f8 fbbd 5700 3bbd
000000c0: 32a6 64be 31f3 e9bd 7a48 bebd 535e 02bd
000000d0: c847 92bd a6f5 bd3e 12b3 a8bd 024e 74be
000000e0: c79c 6ebe 40b7 81be eff7 8abd 8616 48be
000000f0: 1dfc 01be d1ce b9bd 06fc edbe 490c d1bd

conv_layers.2.weight f4 [64, 64, 3]
-0.027657056 -0.10771196 0.07030104 -0.05624566 0.051284667 -0.0644303 -0.019809505 -0.01866904
-0.0406325 0.34972557 -0.32447848 0.07233769 -0.021532798 -0.03636101 -0.0016740919 -0.20179677
-0.14918257 -0.120972514 0.009752953 0.07565093 -0.08121176 -0.012635427 -0.0050960905 -0.024390997
-0.022530679 -0.11546129 -0.034245968 -0.0013070989 0.04383548 0.009554157 -0.06577509 -0.04976128
0.060645327 0.24168259 -0.094473064 -0.13448577 -0.00023279813 0.054502737 -0.029134091 0.028182967
0.012476448 -0.07272776 -0.016908554 -0.0052780793 0.04825447 -0.04857209 -0.011803091 0.06319922
0.014584647 0.02077806 -0.007257233 -0.05123308 -0.02137015 -0.0039576064 -0.0062374463 0.0024428973
-0.026474541 -0.005935534 0.050981224 -0.024268406 0.1100504 -0.010871438 0.046762727 -0.045194853
-0.083250664 0.034881737 -0.0084303375 -0.081987016 0.004695519 0.042586047 -0.064411335 -0.049184285
-0.23255564 -0.40509894 -0.10146599 0.09332693 0.015627423 0.018314444 0.05483609 0.07772795
0.029134141 -0.15005453 -0.098821506 -0.05528199 0.04078335 0.04118073 -0.022961205 -0.23004028
-0.33259037 -0.1400769 -0.24844119 -0.083449975 0.10637882 -0.19379078 -0.32692042 -0.014812663
0.026610944 0.06468778 0.050900575 -0.047571823 0.024937546 0.01955737 0.028333325 -0.0420379
-0.009453911 -0.08306306 0.03970569 -0.0327419 0.0038696686 -0.012089403 -0.03313023 -0.0811254
-0.17346074 -0.13754137 0.15586045 0.09380969 -0.046797648 0.124518245 0.08102831 -0.044395138
-0.034357917 0.014306884 -0.08844354 -0.008382558 0.043889765 0.04546612 0.013736507 -0.060948003
0.027924614 -0.01025638 -0.026754549 -0.0723362 -0.016792916 0.03629305 -0.021497486 0.038277607
0.055912744 -0.012174644 0.071473725 0.035826053 -0.024365176 -0.03558317 0.06332033 -0.0042779953
-0.086115144 -0.17176773 0.0626884 0.046113543 -0.027055537 -0.001259228 -0.04316474 0.05408505
-0.0295731 0.02592133 0.048713572 -0.10008914 0.035415564 -0.040097095 -0.022273388 -0.13909662
-0.25315434 -0.03566886 -0.023156095 -0.05784218 -0.038362395 -0.038449038 -0.10237255 -0.08468457
-0.06350804 -0.084818296 -0.026216978 0.057408083 -0.05815509 -0.00976046 0.04828145 0.043030493
-0.022713257 0.03162447 0.043070644 -0.033367798 -0.014285139 -0.012799044 0.014750277 0.023540983
0.058859605 -0.021307893 0.33185273 -0.05398019 -0.21090437 -0.043550815 -0.056731492 -0.02275042
0.002122304 -0.050414033 -0.07764295 8.89674e-05 0.008155225 0.02013513 -0.011256696 0.06513255
0.037803065 -0.04696559 -0.013914617 -0.058851708 -0.06897872 0.03622126 0.05315871 -0.06967708
-0.11309276 -0.105713405 -0.025452282 -0.019874536 -0.043610394 -0.028879255 -0.009653475 -0.0705978
0.03032583 0.04025545 0.00033269025 -0.03419561 -0.0044825017 -0.06384891 -0.011402869 -0.007800471
0.046887908 -0.07479472 -0.0383691 -0.10618544 -0.079572886 -0.025936555 -0.02171703 -0.027365863
-0.045470685 -0.07356892 -0.07200057 -0.06734551 -0.057395775 0.018768242 -0.008093409 0.048415285
-0.0783285 0.1497709 -0.0025086075 0.17202537 0.20150821 0.020346126 -0.08041608 -0.028352728
-0.021991227 -0.012452242 -0.09456194 0.07340427 -0.010678211 0.01228006 0.0013311425 0.056765854
00000000: 0d91 e2bc 1798 dcbd fef9 8f3d d961 66bd
00000010: df0f 523d 08f4 83bd 8b47 a2bc d1ef 98bc
00000020: 446e 26bd 3b0f b33e 0b22 a6be c825 943d
00000030: 8d65 b0bc 48ef 14bd 346d dbba d0a3 4ebe
00000040: 51c3 18be 70c0 f7bd daca 1f3c e0ee 9a3d
00000050: 5a52 a6bd d204 4fbc 1bfd a6bb a1cf c7bc
00000060: 4292 b8bc f876 ecbd 8045 0cbd f652 abba
00000070: d58c 333d 0a89 1c3c 17b5 86bd 7cd2 4bbd
00000080: 3c67 783d a47b 773e 187b c1bd a3b6 09be
00000090: 461b 74b9 433e 5f3d 9eaa eebc f7df e63c
000000a0: 046a 4c3c 4bf2 94bd cf83 8abc bdf3 acbb
000000b0: 7ba6 453d 87f3 46bd c061 41bc 986e 813d
000000c0: 71f4 6e3c c036 aa3c 15ce edbb c7d9 51bd
000000d0: 7410 afbc cfae 81bb 7e63 ccbb 0419 203b
000000e0: 23e1 d8bc de7e c2bb b0d1 503d 89ce c6bc
000000f0: 1b62 e13d 1e1e 32bc 468a 3f3d 3d1e 39bd
00000100: 537f aabd 27e0 0e3d 661f 0abc cfe8 a7bd
00000110: dedc 993b b56e 2e3d 17ea 83bd 7675 49bd
00000120: 1123 6ebe 2169 cfbe 67cd cfbd 3122 bf3d
00000130: 1505 803c 2c08 963c cf9b 603d d52f 9f3d
00000140: b9aa ee3c e5a7 19be ee62 cabd 5e6f 62bd
00000150: 710c 273d 20ad 283d 2319 bcbc ae8f 6bbe
00000160: 4949 aabe 5270 0fbe 5e67 7ebe d2e7 aabd
00000170: 24dd d93d 1771 46be 1d62 a7be d0b0 72bc
00000180: 32ff d93c 077b 843d 1f7d 503d acda 42bd
00000190: d349 cc3c c736 a03c 4a1b e83c ef2f 2cbd
000001a0: 94e4 1abc f71c aabd 6fa2 223d 5f1c 06bd
000001b0: 449a 7d3b a212 46bc 90b3 07bd 1325 a6bd
000001c0: b19f 31be a5d7 0cbe e299 1f3e 4b1f c03d
000001d0: e4ae 3fbd 6c03 ff3d 2cf2 a53d add7 35bd
000001e0: e3ba 0cbd 6c67 6a3c e321 b5bd ff56 09bc
000001f0: c1c5 333d af3a 3a3d 160f 613c 9da4 79bd
00000200: 29c2 e43c 600a 28bc 5b2c dbbc 0025 94bd
00000210: 4c91 89bc 05a8 143d 7f1b b0bc fbc8 1c3d
00000220: c304 653d 2878 47bc d160 923d 57be 123d
00000230: 7a99 c7bc a8bf 11bd 17ae 813d 6d2e 8cbb
00000240: 235d b0bd e1e3 2fbe c762 803d 8ee1 3c3d
00000250: 93a3 ddbc ae0c a5ba 83cd 30bd 4988 5d3d
00000260: 4943 f2bc f858 d43c e287 473d 89fb ccbd
00000270: e90f 113d da3c 24bd ae76 b6bc 586f 0ebe
00000280: 729d 81be 8319 12bd dab1 bdbc eceb 6cbd
00000290: e321 1dbd bd7c 1dbd b3a8 d1bd 1b6f adbd
000002a0: 8110 82bd 37b5 adbd fdc4 d6bc bd24 6b3d
000002b0: 0834 6ebd 56ea 1fbc c5c2 453d be40 303d
000002c0: 2711 babc a988 013d d86a 303d acac 08bd
000002d0: 370c 6abc 15b3 51bc 25ab 713c 05d9 c03c
000002e0: c516 713d e48d aebc 9ae8 a93e 551a 5dbd
000002f0: 51f7 57be 5762 32bd 485f 68bd 175f babc
00000300: 5a16 0b3b f27e 4ebd 4403 9fbd 0294 ba38
00000310: 7e9d 053c 6ef2 a43c 016e 38bc 3764 853d
00000320: 63d7 1a3d fe5e 40bd 22fa 63bc 7d0e 71bd
00000330: b744 8dbd be5c 143d f3bc 593d dbb2 8ebd
00000340: 2d9d e7bd 4580 d8bd 4e81 d0bc eccf a2bc
00000350: d0a0 32bd 3094 ecbc 9c29 1ebc 9495 90bd
00000360: e06d f83c e6e2 243d ee6c ae39 b210 0cbd
00000370: f3e1 92bb 38c3 82bd 19d3 3abc 189b ffbb
00000380: 890d 403d f92d 99bd eb28 1dbd c177 d9bd
00000390: 1cf7 a2bd e678 d4bc eae7 b1bc 602e e0bc
000003a0: 783f 3abd 4dab 96bd 0975 93bd 71ec 89bd
000003b0: d517 6bbd dbbf 993c 389a 04bc 1b4f 463d
000003c0: b16a a0bd 8b5d 193e 7367 24bb 6b27 303e
000003d0: 2b58 4e3e ebac a63c 30b1 a4bd fb43 e8bc
000003e0: f226 b4bc 7d04 4cbc b1a9 c1bd fa54 963d
000003f0: aaf3 2ebc 4e32 493c bb79 ae3a 5083 683d

conv_layers.2.bias f4 [64]
-0.18135737 -0.20143095 -0.08719716 -0.18775019 -0.052168198 -0.08612293 -0.12837633 -0.34782994
-0.24233653 -0.20842794 -0.10013052 -0.064146645 -0.24603356 -0.117447585 -0.11811758 -0.09605642
-0.13281816 -0.08375118 -0.0876477 -0.15049954 -0.113350324 -0.1366384 -0.119088456 -0.16454174
-0.12024119 -0.21277668 -0.109715745 -0.04159836 -0.084779486 -0.14396556 -0.2073296 -0.062099174
0.8440852 -0.13881841 -0.3266097 -0.09532193 -0.07000284 -0.38949388 -0.24253535 -0.12835003
-0.50455666 -0.15824582 -0.09283692 -0.25876367 -0.054627195 -0.10798069 -0.23168959 -0.0061755055
-0.2032926 -0.33507532 -0.2707214 -0.49528697 -0.07493395 -0.07795634 -0.58270824 -0.09081395
-0.43637553 -0.10963493 -0.35639623 -0.35564765 -0.1179972 0.2479398 -0.17036726 -0.12114142
00000000: bfb5 39be ea43 4ebe 6d94 b2bd 9641 40be
00000010: 52ae 55bd 3861 b0bd 1675 03be c416 b2be
00000020: 1127 78be 226e 55be 3b11 cdbd 515f 83bd
00000030: 39f0 7bbe 5c88 f0bd a1e7 f1bd 3ab9 c4bd
00000040: 7c01 08be bd85 abbd a380 b3bd 8d1c 1abe
00000050: 3724 e8bd f0ea 0bbe a6e4 f3bd a17d 28be
00000060: 0341 f6bd 21e2 59be a6b2 e0bd 0b63 2abd
00000070: dea0 adbd b56b 13be 364e 54be b45b 7ebd
00000080: f815 583f 6a26 0ebe 6339 a7be 2538 c3bd
00000090: a65d 8fbd be6b c7be 305b 78be 316e 03be
000000a0: a02a 01bf 310b 22be 4821 bebd ac7c 84be
000000b0: c4c0 5fbd fb24 ddbd 0940 6dbe e55b cabb
000000c0: ef2b 50be fe8e abbe ff9b 8abe 4196 fdbe
000000d0: f976 99bd 93a7 9fbd 5e2c 15bf aafc b9bd
000000e0: 9d6c dfbe 4788 e0bd 9179 b6be 7317 b6be
000000f0: 84a8 f1bd eee3 7d3e c174 2ebe fe18 f8bd

conv_layers.3.weight f4 [64, 64, 3]
-0.072417885 0.053160053 0.0031821183 -0.080820665 -0.04137642 -0.002542695 0.10980154 -0.066147126
-0.04554273 -0.10072851 -0.14608192 -0.070678696 -0.075311385 -0.11407619 -0.032478143 0.054288834
-0.014499684 -0.077945 -0.04472113 -0.0067194775 0.024121268 -0.10440801 -0.074974954 -0.06945655
-0.123854056 -0.075130135 -0.039161284 -0.010097984 0.0104830535 -0.021624075 -0.08393374 -0.066614754
0.057457704 -0.19674699 -0.026761258 -0.04610575 0.016181787 -0.0228054 0.016331047 -0.0049039912
-0.07095935 0.0735126 0.037905086 0.0062092026 0.011867519 -0.03779636 -0.049024537 -0.022549067
-0.03573008 -0.12449229 -0.113373555 0.03418551 0.051080376 -0.06596025 0.02059053 0.021109097
-0.037054528 -0.052851897 -0.079432525 0.048373368 -0.10816655 -0.090460844 -0.09904215 -0.009018084
-0.019530203 0.032140143 -0.054050993 0.041822884 -0.09250523 -0.015385599 -0.08786785 -0.02479942
-0.03531496 0.06356888 -0.04129277 -0.0040523573 -0.019475747 0.007278879 -0.010914868 -0.018821454
-0.16500117 -0.06643115 -0.0005307363 -0.054674704 -0.035290293 -0.06559099 -0.06266618 -0.037371002
-0.29689568 0.0012668627 0.008841858 -0.18776692 -0.11464342 -0.046422455 -0.012180091 -0.08099328
-0.14223616 -0.43350616 -0.31221747 0.006658662 -0.09747618 0.031747468 -0.068271734 -0.08191635
-0.13245417 -0.015107041 0.035181113 -0.07267296 0.006402352 -0.024663502 -0.11763421 0.18965298
0.012204766 -0.013033702 -0.054934572 -0.015548256 -0.037899446 0.038036972 -0.023429314 0.04975879
-0.017698782 0.020915907 -0.04765728 0.039741203 0.026480071 0.033763785 0.00013421082 -0.017132562
-0.030107198 0.0046448316 -0.05101905 0.0050708205 -0.012352605 -0.1041402 -0.15188757 -0.1256696
-0.055337608 -0.023457509 -0.009458127 -0.018985964 0.16911267 -0.22388828 0.082498476 0.056169942
-0.028607523 -0.10264468 -0.020202039 -0.09678654 0.041739047 -0.07493609 0.0023134819 0.020082513
-0.059079032 -0.24843204 0.0014237892 0.016264519 -0.07608631 -0.049193755 0.078233615 -0.047458105
-0.0079696765 -0.067533486 -0.07415366 -0.034633487 0.01757278 0.035500836 -0.019900944 0.04587668
0.10367963 -0.09380155 -0.031679124 -0.006102099 0.023660889 -0.097285725 -0.20053355 -0.010946969
0.012957834 0.03799505 -0.035083685 0.090241075 0.010649625 0.08673217 0.10105673 -0.26339495
-0.050386544 0.0047517475 -0.008566151 -0.051061537 0.014187128 0.0048821443 -0.05927995 0.0065394356
0.05705926 0.008045887 0.05601779 -0.0033066175 -0.011507955 -0.05019931 -0.059893433 0.016536806
0.010335544 -0.065178126 -0.010999225 0.080695085 -0.122856 -0.03254943 0.008563167 -0.062275123
0.011776968 0.0754898 0.083467774 -0.02196659 0.005211728 0.07505893 0.011777464 0.12074396
-0.077481054 0.065040685 -0.0035712565 -0.04380525 -0.040245615 0.04120966 0.04084036 0.0052465186
-0.030140277 -0.11576895 -0.07507732 -0.0670515 -0.070494846 0.011181166 0.07078329 0.015564352
-0.0391495 0.053088546 -0.03805995 0.043840956 0.066932 -0.07639502 -0.027351921 -0.018663365
-0.11383113 -0.05833855 0.0882209 0.0072480575 -0.07513638 0.03857625 0.0034696683 -0.06978562
-0.00039523246 -0.15790477 -0.17241214 -0.09737297 -0.0041528353 -0.116937794 -0.07877132 0.04868434
00000000: d44f 94bd 5bbe 593d 168b 503b 4e85 a5bd
00000010: 527a 29bd 58a3 26bb a1df e03d 2578 87bd
00000020: 038b 3abd c04a cebd 8096 15be febf 90bd
00000030: db3c 9abd c7a0 e9bd cd07 05bd f85d 5e3d
00000040: 1590 6dbc a1a1 9fbd 812d 37bd 102f dcbb
00000050: f799 c53c ded3 d5bd 788c 99bd 3c3f 8ebd
00000060: 32a7 fdbd d4dd 99bd 9567 20bd 0472 25bc
00000070: 1dc1 2b3c f924 b1bc 74e5 abbd 516d 88bd
00000080: c558 6b3d 0b78 49be 6d3a dbbc 62d9 3cbd
00000090: ab8f 843c 64d2 babc b0c8 853c a9b1 a0bb
000000a0: 2353 91bd c68d 963d 5d42 1b3d 9176 cb3b
000000b0: fb6f 423c 5bd0 1abd f4cd 48bd d2b8 b8bc
000000c0: b459 12bd d0f5 febd 6530 e8bd 1b06 0c3d
000000d0: a839 513d 2b16 87bd 79ad a83c fcec ac3c
000000e0: 7dc6 17bd 3b7b 58bd 85ad a2bd 2723 463d
000000f0: 6d86 ddbd 8943 b9bd 9cd6 cabd 96c0 13bc
00000100: cefd 9fbc 62a5 033d 9364 5dbd 794e 2b3d
00000110: 6273 bdbd e113 7cbc 0ff4 b3bd 2728 cbbc
00000120: 6ba6 10bd 6730 823d 9c22 29bd a3c9 84bb
00000130: 9a8b 9fbc aa83 ee3b 46d4 32bc 732f 9abc
00000140: 11f6 28be 0e0d 88bd 1c21 0bba 95f2 5fbd
00000150: 8e8c 10bd 9254 86bd 2057 80bd 5612 19bd
00000160: b602 98be dc0c a63a 71dd 103c f945 40be
00000170: 2bca eabd 7925 3ebd 018f 47bc cedf a5bd
00000180: 5ba6 11be 85f4 ddbe f8da 9fbe e830 da3b
00000190: 97a1 c7bd a209 023d 0dd2 8bbd c2c3 a7bd
000001a0: 11a2 07be 8683 77bc 121a 103d 90d5 94bd
000001b0: d2ca d13b 1d0b cabc 34ea f0bd 6434 423e
000001c0: 80f6 473c 4f8b 55bc 1303 61bd 1dbe 7ebc
000001d0: 733c 1bbd a8cc 1b3d d5ee bfbc dfcf 4b3d
000001e0: 09fd 90bc d657 ab3c 4834 43bd acc7 223d
000001f0: bcec d83c e54b 0a3d f1ba 0c39 9659 8cbc
00000200: 5fa3 f6bc ac33 983b 5af9 50bd 2029 a63b
00000210: 9562 4abc 7547 d5bd 6a88 1bbe 88af 00be
00000220: b0a9 62bd f629 c0bc 43f6 1abc 7488 9bbc
00000230: df2b 2d3e f842 65be f6f4 a83d 7412 663d
00000240: 535a eabc 6037 d2bd bf7e a5bc 0538 c6bd
00000250: 90f6 2a3d 1878 99bd c99d 173b 1584 a43c
00000260: dbfc 71bd f864 7ebe 709e ba3a 2b3d 853c
00000270: 24d3 9bbd 647f 49bd f238 a03d 6e63 42bd
00000280: 3f93 02bc ff4e 8abd e0dd 97bd d8db 0dbd
00000290: caf4 8f3c 5369 113d 4e07 a3bc 30e9 3b3d
000002a0: fc55 d43d 071b c0bd f8c1 01bd 1ef4 c7bb
000002b0: 7bd4 c13c bd3d c7bd ab58 4dbe ea5a 33bc
000002c0: 184d 543c b3a0 1b3d e9b3 0fbd 50d0 b83d
000002d0: c47b 2e3c a3a0 b13d d5f6 ce3d b4db 86be
000002e0: 1f62 4ebd 8cb4 9b3b 0b59 0cbc e725 51bd
000002f0: 2171 683c 65fa 9f3b 88cf 72bd c348 d63b
00000300: f8b6 693d e5d2 033c e972 653d d6b3 58bb
00000310: dd8b 3cbc cb9d 4dbd d152 75bd 3278 873c
00000320: 6a56 293c 1c7c 85bd 1836 34bc 7743 a53d
00000330: ed9b fbbd 8d52 05bd 874c 0c3c 3314 7fbd
00000340: 2ff4 403c 659a 9a3d 27f1 aa3d 47f3 b3bc
00000350: 25c7 aa3b 7fb8 993d 44f6 403c 9c48 f73d
00000360: 63ae 9ebd 0d34 853d be0b 6abb 226d 33bd
00000370: 96d8 24bd 76cb 283d 3948 273d fdea ab3b
00000380: bee8 f6bc 4518 edbd 23c2 99bd 4c52 89bd
00000390: 9a5f 90bd 3631 373c d4f6 903d a001 7f3c
000003a0: 3a5b 20bd 6073 593d c0e4 1bbd 9392 333d
000003b0: a513 893d fe74 9cbd 2311 e0bc eae3 98bc
000003c0: 4c20 e9bd 67f4 6ebd 29ad b43d 1d81 ed3b
000003d0: 1ae1 99bd 2102 1e3d 6063 633b c3eb 8ebd
000003e0: 3437 cfb9 cab1 21be cf8c 30be 7b6b c7bd
000003f0: 8214 88bb 157d efbd dc52 a1bd 3b69 473d

conv_layers.3.bias f4 [64]
-0.19015747 0.0447178 -0.1335923 -0.06037524 -0.119716235 -0.10314589 -0.49201405 -0.1875438
-0.14172646 -0.23521395 0.018495737 0.56063867 -0.068102255 -0.02894337 -0.09329191 -0.16172041
-0.19090915 -0.07227044 -0.16643116 -0.25073949 -0.109473 -0.039550807 -0.08731591 -0.053704303
-0.120760694 -0.17064478 -0.07499484 -0.11737791 -0.09991926 -0.09988965 -0.11864217 0.055818036
-0.07256636 -0.3349068 -0.057115704 -0.14855373 -0.026914043 -0.13060479 -0.14758304 -0.056456853
-0.0022008421 -0.17188379 -0.1151517 0.056815226 -0.09595296 -0.27205434 -0.31793508 -0.052053683
-0.14377715 -0.093010865 -0.050424367 -0.0832256 0.032743104 -0.41414613 -0.09446484 0.31885165
-0.2264871 -0.20538265 -0.12098598 -0.15077715 -0.14185396 0.11896622 -0.103925645 -0.15792288
00000000: a4b8 42be 032a 373d 6bcc 08be 074c 77bd
00000010: c92d f5bd 273e d3bd 44e9 fbbe 7b0b 40be
00000020: be20 11be eddb 70be 5f84 973c 0486 0f3f
00000030: 3279 8bbd a51a edbc d40f bfbd 099a 25be
00000040: b07d 43be 8602 94bd ee6c 2abe ed60 80be
00000050: 6133 e0bd 0700 22bd afd2 b2bd 0bf9 5bbd
00000060: 6251 f7bd 81bd 2ebe e596 99bd d463 f0bd
00000070: 78a2 ccbd f292 ccbd abfa f2bd 74a1 643d
00000080: ac9d 94bd e778 abbe 28f2 69bd 781e 18be
00000090: d77a dcbc 43bd 05be 0220 17be 4d3f 67bd
000000a0: 013c 10bb 4e02 30be a8d4 ebbd 15b7 683d
000000b0: fc82 c4bd b54a 8bbe 63c8 a2be 3e36 55bd
000000c0: 513a 13be 7b7c bebd c889 4ebd 2f72 aabd
000000d0: a21d 063d f60a d4be c876 c1bd 8640 a33e
000000e0: 3cec 67be d44f 52be 7fc7 f7bd 5365 1abe
000000f0: 2a42 11be 90a4 f33d f8d6 d4bd 89b6 21be

dense.weight f4 [3, 3200]
-0.03392968 -0.14916195 -0.051510356 -0.09155767 -0.038464256 -0.027930588 0.047242533 0.014769081
-0.008154104 0.0032012635 -0.03786051 -0.085887805 0.0129188895 -0.10305008 -0.075357124 -0.1003781
-0.09339457 -0.05666076 0.04590326 0.08311939 -0.014850019 0.03009607 0.008431104 -0.0053101294
-0.15330537 0.06740473 -0.10084374 0.058870215 -0.015182536 0.13242088 -0.018772466 -0.052277457
-0.04856206 -0.01374501 -0.12853783 0.023309268 -0.056570474 0.048468694 -0.037464835 -0.04647952
-0.02424491 0.034379818 0.032088716 0.0033753084 0.04896633 0.021259118 0.048684377 0.10761218
0.06004937 0.09065448 -0.038433634 -0.0044801696 0.03387506 0.018825898 0.020541107 0.010223065
-0.06628312 0.052077807 0.0057781124 0.0019124293 -0.00849736 0.010750225 -0.038113285 -0.014569213
-0.006632111 -0.067664094 0.022100763 -0.0017949424 -0.05016398 -0.04298655 -0.046892766 -0.0012178359
-0.0011365124 0.029009685 -0.041369896 -0.033861496 -0.022761745 0.016104123 0.0073537747 -0.03071595
0.031261027 -0.030547317 -0.03610087 -0.037540223 -0.01751939 -0.012318925 -0.013858508 -0.05276169
0.02491656 -0.002944901 0.012176452 -0.023306767 -0.01567418 -0.0024453981 -0.054042365 0.0028370628
0.16613306 -0.106763326 -0.1027671 -0.10818661 -0.09308016 0.059081268 -0.037326913 0.004661975
-0.11049967 -0.04060777 0.022953002 -0.042677373 -0.06789593 0.0037333062 0.08171351 -0.041780554
-0.021811921 -0.015785526 0.0949126 -0.09027395 -0.07737533 0.05263937 0.053621978 -0.07311693
-0.042081572 -0.15328762 -0.0027889046 -0.007634033 -0.057270866 0.051260546 0.0018536982 -0.118292324
-0.05101059 -0.003964318 -0.08418303 -0.12966861 0.062371988 -0.05006166 -0.06567009 0.017774185
-0.04826992 -0.0394427 -0.055370957 0.067983605 -0.018000638 -0.1345239 0.0011747961 0.04542925
-0.01794983 -0.0643107 -0.08778044 -0.066679165 0.0132009955 0.00017885906 -0.018020717 -0.03797952
-0.013065806 -0.039724447 -0.027014045 -0.015827242 0.0032756755 -0.03500896 -0.011523636 -0.029280014
-0.031100009 -0.05623384 -0.0505087 -0.079728015 -0.071761124 -0.043737598 -0.02908947 0.01201239
0.029113173 0.04242361 0.0006765037 -0.037137233 -0.030132536 -0.026365899 0.0009262936 0.023169592
0.02644132 0.03316254 0.06711382 0.059537012 0.027989492 0.00881627 -0.034072313 -0.030847697
-0.004708045 -0.006626855 -0.01599069 -0.028382 -0.0006591497 0.026194448 0.057385396 0.040478267
0.023278512 -0.0071452567 0.003986571 -0.0398338 -0.041349247 -0.10367612 -0.1360765 0.03359477
-0.016466754 0.0019008425 -0.03416946 -0.013113365 -0.018477842 -0.015354593 -0.011874671 0.001154105
-0.023908425 -0.040639475 -0.018141482 -0.018931469 -0.02178473 -0.041294508 -0.028108979 -0.014811649
-0.019243676 -0.00080977124 -0.028128937 -0.03224776 -0.026888173 -0.026610047 -0.034454126 -0.018271532
-0.0013713961 -0.010129958 -0.005375669 -0.032792907 -0.011808045 0.0036634514 -0.02869492 -0.014600407
-0.010837994 -0.0011317894 -0.01464185 -0.028189147 -0.0032419667 -0.017258752 -0.0048393332 -0.005811655
-0.017959207 -0.028637925 -0.016417028 -0.023844609 -0.027412824 -0.046373673 -0.0012841634 0.016640559
-0.0050925 0.012708492 -0.03845478 0.04337035 0.043245964 0.0015693892 -0.040830854 -0.022267379
00000000: d9f9 0abd e9bd 18be 86fc 52bd 9682 bbbd
00000010: b28c 1dbd b0ce e4bc 6381 413d 04fa 713c
00000020: cb98 05bc 4acc 513b 9f13 1bbd f2e5 afbd
00000030: c0a9 533c ec0b d3bd d654 9abd 0993 cdbd
00000040: a745 bfbd 1d15 68bd 0f05 3c3d 803a aa3d
00000050: 7e4d 73bc 098c f63c 9d22 0a3c 9800 aebb
00000060: 15fc 1cbe 7e0b 8a3d 2a87 cebd e521 713d
00000070: 2cc0 78bc 5799 073e b7c8 99bc e320 56bd
00000080: 03e9 46bd c032 61bc 6c9f 03be 14f3 be3c
00000090: 71b6 67bd 1c87 463d ba74 19bd 4f61 3ebd
000000a0: 439d c6bc dad1 0c3d 756f 033d 4734 5d3b
000000b0: eb90 483d 9a27 ae3c 4569 473d c663 dc3d
000000c0: 54f6 753d 0ea9 b93d 966c 1dbd 63ce 92bb
000000d0: 93c0 0a3d c538 9a3c d345 a83c a47e 273c
000000e0: 72bf 87bd 8a4f 553d 5256 bd3b 7baa fa3a
000000f0: 8338 0bbc b621 303c ad1c 1cbd b5b3 6ebc
00000100: 2e52 d9bb 7993 8abd a90c b53c 4644 ebba
00000110: bf78 4dbd aa12 30bd a112 40bd cb9f 9fba
00000120: 07f7 94ba b8a5 ed3c 7b73 29bd 5ab2 0abd
00000130: d776 babc cbec 833c eff7 f03b 04a0 fbbc
00000140: 900b 003d 5e3e fabc 82de 13bd c7c3 19bd
00000150: d384 8fbc 51d5 49bc cc0e 63bc a41c 58bd
00000160: d01d cc3c 3dff 40bb be7f 473c d5ed bebc
00000170: 2367 80bc f942 20bb 875b 5dbd 04ee 393b
00000180: c91e 2a3e bba6 dabd 8f77 d2bd f190 ddbd
00000190: d0a0 bebd 33ff 713d 1be4 18bd 7bc3 983b
000001a0: a74d e2bd 5554 26bd ef07 bc3c 78ce 2ebd
000001b0: 050d 8bbd 7caa 743b 6a59 a73d 1622 2bbd
000001c0: eaae b2bc a650 81bc 8a61 c23d 8ce1 b8bd
000001d0: f576 9ebd 619c 573d b8a2 5b3d 54be 95bd
000001e0: ba5d 2cbd 6ef7 1cbe 0ec6 36bb e926 fabb
000001f0: db94 6abd 94f6 513d caf7 f23a 3f43 f2bd
00000200: 7bf0 50bd 1ce7 81bb 2768 acbd d9c7 04be
00000210: c579 7f3d 750d 4dbd 0a7e 86bd 2b9b 913c
00000220: aeb6 45bd ab8e 21bd a8cc 62bd fd3a 8b3d
00000230: 1376 93bc a2c0 09be 9efb 993a 0514 3a3d
00000240: 860b 93bc 54b5 83bd 3bc6 b3bd 168f 88bd
00000250: fd48 583c 1d8c 3b39 2fa0 93bc 6a90 1bbd
00000260: f611 56bc 1ab6 22bd 8f4c ddbc 22a8 81bc
00000270: b7ac 563b 8e65 0fbd a2cd 3cbc a4dc efbc
00000280: 72c5 febc 7455 66bd 36e2 4ebd 7148 a3bd
00000290: 7ff7 92bd 3226 33bd 0a4d eebc 9ecf 443c
000002a0: c07e ee3c 61c4 2d3d 6557 313a 361d 18bd
000002b0: 82d8 f6bc 4cfd d7bc 83d2 723a 28ce bd3c
000002c0: 789b d83c 72d5 073d f872 893d 15dd 733d
000002d0: 384a e53c 1e72 103c 698f 0bbd 4fb4 fcbc
000002e0: f245 9abb 1726 d9bb e8fe 82bc 5e81 e8bc
000002f0: caca 2cba bd95 d63c f30c 6b3d 8acc 253d
00000300: 94b2 be3c c222 eabb c8a1 823b c428 23bd
00000310: d45d 29bd 2554 d4bd a357 0bbe ab9a 093d
00000320: 49e5 86bc b125 f93a 47f5 0bbd 70d9 56bc
00000330: d85e 97bc d591 7bbc fb8d 42bc 5645 973a
00000340: 9adb c3bc 9475 26bd 729d 94bc 2b16 9bbc
00000350: e475 b2bc 6e24 29bd cd44 e6bc 8fac 72bc
00000360: eaa4 9dbc d446 54ba a86e e6bc 3a16 04bd
00000370: 9644 dcbc 50fd d9bc c51f 0dbd 2eae 95bc
00000380: 6bc0 b3ba 20f8 25bc 6126 b0bb db51 06bd
00000390: 8876 41bc 8416 703b 9c11 ebbc 8c36 6fbc
000003a0: d791 31bc 8d58 94ba 5fe4 6fbc edec e6bc
000003b0: 2d77 54bb 3a62 8dbc 4593 9ebb b26f bebb
000003c0: 301f 93bc 159a eabc 017d 86bc c555 c3bc
000003d0: dc90 e0bc 52f2 3dbd 6051 a8ba c851 883c
000003e0: fcde a6bb 4737 503c c282 1dbd 1ca5 313d
000003f0: ae22 313d f7b3 cd3a 413e 27bd 146a b6bc

dense.bias f4 [3]
0.57469046 0.5739945 0.57401913
00000000: ea1e 133f 4ef1 123f ebf2 123f
