dataset_test/TimesNet-for-Time-Series-Prediction/model_saved/nonsentiment_50.pt (torch, 192807 bytes, 10 tensors)

conv_layers.0.weight f4 [64, 3, 3]
00000000: b9f9 f33c 306e 3ebd 3fba 0ebe dc9d a23e
00000010: b6ef 88be f5f4 40be ed86 883c d891 b1be
00000020: fe50 563e c43c ba3d 0c46 703e 5030 eebc
00000030: 4a87 98be 7423 15bf bf69 87be 9383 1fbf
00000040: 8063 cbbe 03ce e8be b397 4abf bf5b e43d
00000050: 6520 fabe dfda 9a3d 7e3a 29bf 71e6 27be
00000060: 52d2 76be 4b11 a6be 3821 e53d 2cce 09be
00000070: df45 38be e5f6 57be e769 f4bd 6394 afbe
00000080: 8075 4f3d f83e a2be 7ed8 90be e397 303e
00000090: afaa 7a3f baf8 0f3f ee51 c8be 36dd 6bbe
000000a0: c22d ddbe c0d4 20bf bb13 a13d 8b73 8abf
000000b0: 51a2 38be b8bf 683e 5bd8 553d 83a7 3fbf
000000c0: fc7f adbe 3f96 2abe 33fd 7abf f96a 543e
000000d0: bb7c a6bf e8d4 11c0 b953 10be 55f9 25bd
000000e0: b4c5 6a3e 816a 88be b4af c2be b480 ffbd
000000f0: 8e13 f6bc f682 b73e 17df c8be 3e29 cabe
00000100: 2b0c bfbe ac99 0b3e 412a 94be 10f4 823e
00000110: 2471 fb3b 1a13 e93d 707c c63e 3b9d 19bf
00000120: 765b 79bf 5b96 3fbd 481b 5a3e 3ea6 3cbf
00000130: 57e5 f4be a65b 083e a2c8 c2be f43e 923e
00000140: 8b31 dfbe 0f07 cfbe de88 e5be d9ef c0be
00000150: c781 18bf 61b1 74bf 0c02 82be 4bfc 56bf
00000160: e673 6cbf bb2b 243c 6d55 dbbe ee44 b83e
00000170: 60dc 92be 21c6 1b3d d0c0 373d 9e67 55bf
00000180: a3cf 993e 679a 62bf cdfa c5be 40c9 06bd
00000190: 005c 6f3c 3b21 56be b42b a2be f846 25be
000001a0: aa4c 8cbe f6c7 a23e 70cf be3d ab3b a33d
000001b0: 2d20 ca3d b819 f7be 34d2 dcbe 1cb5 81be
000001c0: 76bc 73be 59dd aa3d 271d cbbb 88a6 1d3d
000001d0: 791c 283e 071f 5fbe f7df 19bf 9f0b 91be
000001e0: c9a1 49be 7f3e 38be a100 b43d 310f 6dbe
000001f0: fa8b d5be 8502 82be 091f 803e a2c6 a8be
00000200: b516 cd3d 6027 fabe d6e1 69bf 057b 01bf
00000210: 848a 1ebf c1b9 58bf 1571 cdbe 5bed 3abe
00000220: 7345 1ebf a176 3a3c 010a 243e dc23 2b3d
00000230: 494d 30be 22bf aabe b571 683e b5f1 32bd
00000240: edf2 fabe 5d20 3abf 3c02 b53d cb4a 2a3c
00000250: b39b e93d b2f5 85be c655 21be 28d7 313e
00000260: c812 d4be 2c9a af3c a839 82bc ef21 8cbe
00000270: a2db 90be d49e aabe 9657 ccbf b721 cebc
00000280: 0e3a 70bf 5d16 1fc0 064f f2be 9f4c c8bd
00000290: f168 f0bd 1a17 61bd 8ab4 35be 42f7 843e
000002a0: b4ae ab3d acc5 2bbe e561 ae3b ab4a 18be
000002b0: ed64 52be a8d4 b0be 82fc 513e aa4c 183e
000002c0: d5de 073e 1cd4 b3be acdd fdbd 62a3 debd
000002d0: 7898 02be eeca 7dbe 4b5d 6bbd 0661 bd3d
000002e0: 2b91 25be ae0a 4b3e 200b 65bd eba4 89bd
000002f0: 8022 be3d ef1b 463c eaec 19be 4bf8 fd3e
00000300: 7ac5 35be c2b1 ef3c 17df d13c 7803 2ebf
00000310: 5b23 843b 6791 a1be 5dda 3cbf 574c 32bf
00000320: 2c73 fdbd 64f5 033e 5dff e53d b51b 203b
00000330: c455 c7be 2552 07bf 1775 a9be 2943 0c3e
00000340: 92f9 633e bf93 36be c71d 513e 00c6 40be
00000350: 5306 8dbe 1389 59be 978c 313e 5c1f b33d
00000360: 5120 cf3d a20d e9be 5f4a 3bbe c214 ccbe
00000370: 36fb efbe 28b6 143f 0cbb 40bf 5a2b d7be
00000380: 2480 2e3e 804c 2d3a a5fd ec3d c2f7 18bf
00000390: 9433 723c 1242 a0be bec9 40be a9cb 313f
000003a0: c017 dcbf 4c0c 22be 287b 70be 2efc 05be
000003b0: ce77 543d 64d5 68be 8ce9 9abe 0f0e 213e
000003c0: c814 20bc d32f a3be d596 1dbe eadb ba3d
000003d0: 777d 893d 7dbd 43be 6d62 a2bf d32b 0fbf
000003e0: fd75 423d c0ee 18bf 043a 78bf e4f0 ebbe
000003f0: 3071 163d eeaf 90be a66a 0bbc bda4 64be
0.029782163 -0.0464918 -0.13938235 0.31761062 -0.26745385 -0.18843444 0.0166659 -0.34681582
0.20929334 0.090936214 0.23464221 -0.029075772 -0.29790717 -0.5825722 -0.26447865 -0.6231014
-0.3972435 -0.45469674 -0.79137725 0.11150312 -0.4885284 0.075612776 -0.66104877 -0.163965
-0.24103668 -0.32435068 0.111879766 -0.13457555 -0.17995404 -0.21090277 -0.11934262 -0.34292898
0.050649166 -0.31688666 -0.2829017 0.1724544 0.9791669 0.562389 -0.39125007 -0.23033604
-0.43198973 -0.6282463 0.078650914 -1.0816511 -0.18030669 0.22729385 0.052208286 -0.7486498
-0.33886707 -0.16658877 -0.980426 0.20743932 -1.3006815 -2.2786198 -0.14094438 -0.040520985
0.2292698 -0.26643756 -0.38024676 -0.1247572 -0.030038621 0.35842103 -0.39232704 -0.3948459
-0.3731397 0.1363284 -0.28938487 0.2557683 0.0076733995 0.113805965 0.38766813 -0.6000554
-0.97405183 -0.04677425 0.2129947 -0.73691165 -0.47831222 0.13316211 -0.38043696 0.28563654
-0.43592486 -0.40435073 -0.44830984 -0.3768299 -0.59573025 -0.9558316 -0.25392187 -0.8397872
-0.92364347 0.010020192 -0.42838612 0.3599009 -0.28683758 0.038030747 0.044861615 -0.8336123
0.30041227 -0.8851685 -0.38667908 -0.03290677 0.014609337 -0.20911114 -0.31673968 -0.16140354
-0.2740224 0.31793183 0.09316909 0.07970365 0.09869418 -0.4826181 -0.43129122 -0.25333488
-0.23802361 0.08343 -0.0061985436 0.038488895 0.16417111 -0.2178918 -0.6010737 -0.2832918
-0.19690622 -0.1799259 0.087891825 -0.23150326 -0.41708356 -0.25392547 0.25023678 -0.32964045
0.10014097 -0.48858166 -0.91360223 -0.5057834 -0.6193011 -0.8465844 -0.40125337 -0.18254606
-0.6182472 0.011380822 0.16019441 0.041782245 -0.17216982 -0.33348948 0.22699626 -0.04368754
-0.49013463 -0.7270563 0.08838317 0.010393809 0.114066504 -0.26164013 -0.15755376 0.17367232
-0.4142058 0.02143582 -0.015896633 -0.2736964 -0.28292567 -0.333243 -1.5964229 -0.02516256
-0.93838584 -2.48574 -0.47325915 -0.09780239 -0.11738766 -0.054953672 -0.17744651 0.25969893
0.08382931 -0.16774625 0.0053217285 -0.14872234 -0.20546313 -0.34537244 0.2050648 0.14872995
0.13268597 -0.35122764 -0.12395796 -0.108710065 -0.12753475 -0.24784443 -0.057462018 0.092470214
-0.16168658 0.19828293 -0.055918813 -0.06720909 0.09283924 0.012091621 -0.15031782 0.49603495
-0.17751113 0.029259566 0.025619073 -0.6797404 0.004032535 -0.31556246 -0.73770696 -0.69647735
-0.12375483 0.12886578 0.11230347 0.0024430577 -0.3893262 -0.5285972 -0.33097145 0.13697495
0.22263172 -0.17829798 0.20421515 -0.18825531 -0.27543887 -0.21243696 0.17338787 0.08746216
0.10113586 -0.45518214 -0.18290089 -0.39859587 -0.46871346 0.5809045 -0.7528541 -0.42025262
0.1704107 0.00066108257 0.11571816 -0.5975305 0.014782805 -0.31300408 -0.18826959 0.69451386
-1.7194748 -0.15825003 -0.2348448 -0.1308448 0.051872067 -0.22737652 -0.30256307 0.15728019
-0.00977058 -0.31872424 -0.15389569 0.091239765 0.06713384 -0.19115253 -1.2686287 -0.55926245
0.047475804 -0.59739304 -0.96963525 -0.46082222 0.036729038 -0.28259224 -0.008509314 -0.22328468

conv_layers.0.bias f4 [64]
00000000: f6d2 14be 0364 9ebe 8b12 7abc 76c2 c43e
00000010: 2a74 26bf 929b 8c3f b9b6 86be 2971 02bf
00000020: f549 4dbe 499d 953b fb27 8bbe cb8f 71bd
00000030: 27c7 95bd 374a b03a 3ec6 05be 4b3e 15be
00000040: c315 32be d97d 303f 04ea babb fcdb a7bd
00000050: 2076 73be 436a f6be 1296 5bbc be2b afbe
00000060: 6bd1 e33e f683 2f3f 5425 25bd 2f96 04be
00000070: 23d4 02bc c733 15be 9afa 01bc ce55 1bbf
00000080: bf11 80bd da8a d9be 9615 563f ed83 1dbc
00000090: 92d3 b13c 2fe7 a9be 659e d3be cdf0 9dbf
000000a0: 4a6e 2cbf 38f5 3eb9 4a66 e03e 34f4 b43e
000000b0: 8657 09be 77f8 6abe ff5c 26bf 373d 96bf
000000c0: 0987 d9bb 2fe8 113e 5ea9 84be 7c21 c43f
000000d0: 0d65 fcbd 1bd5 8dbe cfee c63f 40cb afbe
000000e0: 842a 80bf 9ed4 9dbe e164 03bf ef21 05be
000000f0: 16ad a2be 25ab 44be df52 25bf 242f 2bbe
-0.145336 -0.30935678 -0.01526321 0.38429612 -0.65021 1.0984976 -0.2631128 -0.5095392
-0.20047744 0.004565869 -0.2717894 -0.058975022 -0.07313376 0.0013449852 -0.13063905 -0.14574544
-0.17391114 0.6894203 -0.0057041664 -0.081962556 -0.2377553 -0.48127946 -0.013402479 -0.3421306
0.4449571 0.6856073 -0.040318802 -0.12947915 -0.007985148 -0.14570533 -0.007933283 -0.606778
-0.06253385 -0.42488748 0.8362669 -0.009613973 0.02170733 -0.33184192 -0.41331783 -1.2339112
-0.6735579 -0.00018211163 0.4382804 0.35342562 -0.13412294 -0.22946344 -0.6498565 -1.1737431
-0.006638412 0.14248727 -0.25910467 1.5322719 -0.123239614 -0.2770165 1.5541629 -0.34334755
-1.0012975 -0.30826277 -0.51325804 -0.13001226 -0.3177268 -0.19205911 -0.64579576 -0.16717201

conv_layers.1.weight f4 [64, 64, 3]
00000000: 612a 99be ae70 89be d222 4fbe 17fd cbbd
00000010: c840 54be 9c8e af3d fb94 b8bd f949 abbd
00000020: 0a7e 313d 1ffb 24bf 1312 81be f722 30be
00000030: a336 f13e 4b79 493e 2b50 ddbe 0cf9 a2bf
00000040: 0b40 c0bf f3d3 833c 4f87 25bf 6750 d23d
00000050: 5cfc b13b b3cb 5a3e 7da9 9bbd 4296 9ebe
00000060: e940 233d d78f e7bd 2b12 053e 5280 ebbe
00000070: e15e 7b3d 3734 a93e 0b85 95bc 726c c93e
00000080: 0b45 6dbf b215 8cbd 09b7 af3c e757 333c
00000090: c443 84bc bef0 8dbd 02b2 a6bd 18cc 0ebe
000000a0: 8a04 9ebc f2c1 c23c bcc4 0dbc e21a 28bd
000000b0: 15be be3d 9c43 07be cd6a e23c 43eb 86bc
000000c0: dbef 7abe e29e 843c 8910 913e e605 07bf
000000d0: 1beb 133f 8433 20bf e26c 6fba d895 a6bd
000000e0: 47e8 3f3c 4f52 91bd 0b9f 0fbd aeab ffbd
000000f0: a9b5 50bd 9114 613c 2af8 01bd 688f 0abe
00000100: bb0d fe3d 8ad2 5fbe 25e1 33be 74a2 4f3c
00000110: ec9c 133e 6905 3c3b 17a3 303b 1a86 48bd
00000120: 9756 ce3e 9e8e 4cbf cce8 bd3e e023 443f
00000130: 1302 b6bc 2c2d 4dbe f2dd ebbc 4ce1 623c
00000140: fa45 223d c1b8 a7bd 74f5 27be f411 6bbe
00000150: 3d77 0abc 1515 da3d d891 fc3d 1bfc 4f3d
00000160: 573a d53c 768a edba c18a b1bd 510e b2bc
00000170: fd2f 3e3e fd5a fcbe 5cb7 773c d601 8cbc
00000180: f49d cfbd 38bd 4a3c 35b3 1c3d 0c79 c1be
00000190: 78f5 3cbe 3f99 973e ecf1 19be dcd1 0bbf
000001a0: 4208 e0bf 063c eabd 7caa 0bbe 026d 413c
000001b0: a826 273e 0435 013e d815 d13d 09aa 3d3d
000001c0: d502 d43d 03dc 26be cdfb 17be 37f7 cbbd
000001d0: 24cf 72bd 57af 51bf f47e 3dbf 16fb 13bf
000001e0: 24bb ec3e 4dbf c33d 34c0 23be f5f8 3e3e
000001f0: a840 05bd 0b43 193e edd1 37be 9ebb a73e
00000200: edf8 883d b728 dcbe 7f07 06ba 2b7a 2e3f
00000210: 5575 673d 837f 083c f8c4 9cbc 2fd9 79be
00000220: a87a 24be 8e3b 2c3e 6fb9 eabd 3f0b b73e
00000230: 2880 c9be 9737 a3be 4073 95be 89cb 4cbf
00000240: 2847 94bd aef0 743d 2e4c a03d 8de3 de3d
00000250: b57f babd aef2 1cbf cec6 963e f744 353e
00000260: 3a92 2cbe b365 e1bf 3b38 0dc0 8c9e 183f
00000270: 617b c73d 98c4 333e 61d9 5c3d d1e9 ccbc
00000280: bb56 c03d e5e5 58bc 7e34 96bf 90e9 5abf
00000290: 2bf0 9d3e be7e ecbd 112d 10be 52a6 debd
000002a0: 076c 49be dadb 52be 0037 543f 0e47 8b3d
000002b0: 762a bcbc fd49 f9bb edc9 a73e 1354 4ebe
000002c0: 0008 93bd b6bb 113e 35e0 9abd 12a3 4a3d
000002d0: 8a67 8ebe d3cd 83bf ac0c a23e 2a76 61bd
000002e0: 97f2 eebd bd64 e43c b90d 39bf b4e7 25bf
000002f0: e3ed 3ebf bf72 d1bd 5ab6 93bc 96a0 b63e
00000300: 67d6 6c3b 6d77 6bbd 2731 2fbe 5411 76bd
00000310: a304 8dbd 189a 84be a239 b43c e400 ef3c
00000320: c384 133d b1b0 8d3d b77b 06be d490 27be
00000330: 0a66 cebc eaad 88be 4255 6abd 0ea6 5e3d
00000340: 9103 ca3d 5e87 13be 6757 21bf 89f8 cebe
00000350: 2854 24be a5ee 85be 5541 6dbd d6d2 8c3d
00000360: eccc 25be 5c07 32be 0fdc 0dbe 4434 28bc
00000370: 448f f5bd dde1 153d 07db 333d 6c22 6abd
00000380: 460b 0a3d c68e 79bd c4bc 493d 82a1 a7bb
00000390: 7ee9 a8bd 7fe5 643d fe6c 1e3b b786 70bd
000003a0: 402d b6bd 197b 27bd 66e1 a8bd 46bb efbd
000003b0: 0fd1 1cbc cf12 0d3d 452b 19bd f1aa a5bd
000003c0: 1f91 d3bd 70ae 6dbd f6b7 d0bd ae11 23be
000003d0: db21 c7bc b904 d8bd e7fb 61bd 25db c03d
000003e0: 3fc8 813d 135f 963b e809 1ebc 6f21 72bc
000003f0: c198 6fbd 24a1 86bb 98d4 1b3c 2d47 43bd
-0.29915145 -0.2684378 -0.20228127 -0.099603824 -0.20727837 0.085721225 -0.09012791 -0.083637185
0.04333309 -0.6444568 -0.25209102 -0.17200838 0.47111997 0.19675176 -0.43225226 -1.2732253
-1.5019544 0.016092276 -0.6465959 0.10269242 0.005431695 0.21366768 -0.07600687 -0.30974013
0.039856825 -0.11306732 0.12995212 -0.45996338 0.06136978 0.3304765 -0.018251916 0.3934055
-0.92683476 -0.068400756 0.021449583 0.0109462505 -0.016145594 -0.069306836 -0.08139421 -0.13945043
-0.019289274 0.023774121 -0.008652862 -0.041041262 0.09313599 -0.13209385 0.027638817 -0.016469603
-0.2450556 0.016189042 0.28332928 -0.52743375 0.5778062 -0.62578607 -0.0009133351 -0.08134049
0.011713094 -0.07095777 -0.035063785 -0.12483917 -0.050954495 0.013737814 -0.03173081 -0.13531268
0.12404963 -0.21857658 -0.17566355 0.012673009 0.1441533 0.0028689748 0.0026952678 -0.048956014
0.40300438 -0.79905117 0.37091672 0.7661724 -0.022217786 -0.20036763 -0.028792355 0.01384766
0.039617516 -0.08189536 -0.16402227 -0.22956067 -0.00845128 0.10648552 0.12332505 0.050777536
0.026028795 -0.001812293 -0.08669043 -0.021735342 0.18572994 -0.4928817 0.0151194 -0.01709072
-0.10137549 0.012374215 0.038256843 -0.37787664 -0.18453014 0.29609105 -0.15033692 -0.54617095
-1.750252 -0.1143723 -0.13639253 0.011805775 0.1632334 0.1261788 0.102092445 0.046304736
0.10352103 -0.16294865 -0.14842148 -0.09959262 -0.059279576 -0.8190817 -0.7402184 -0.57805
0.46236527 0.09557972 -0.15991288 0.18649657 -0.032532364 0.14966981 -0.17951174 0.32760328
0.06688104 -0.42999813 -0.00051128113 0.68155164 0.05650838 0.008331182 -0.01913689 -0.24399255
-0.16062415 0.16819593 -0.1146115 0.35750768 -0.39355588 -0.3187835 -0.2918949 -0.7999807
-0.072401345 0.059799843 0.0782703 0.108832456 -0.091063894 -0.613078 0.2944855 0.17702089
-0.16852656 -1.7609161 -2.206557 0.59616923 0.097403295 0.17555463 0.053918246 -0.025013836
0.093915425 -0.013238405 -1.1734769 -0.8551264 0.30847296 -0.11547612 -0.14079691 -0.10871567
-0.19670115 -0.20591679 0.82896423 0.06800662 -0.022969466 -0.007607697 0.32771245 -0.2014926
-0.0717926 0.14231762 -0.07562295 0.049471922 -0.2781337 -1.0297188 0.31650293 -0.05504433
-0.11667364 0.027880067 -0.72286564 -0.64806676 -0.74581736 -0.10226964 -0.018031288 0.35669392
0.0036138536 -0.05748694 -0.17108594 -0.06007512 -0.0688565 -0.25898814 0.022000138 0.02917523
0.036015283 0.06918467 -0.13133131 -0.16363841 -0.02519514 -0.26695186 -0.057210214 0.05435758
0.098639615 -0.14407107 -0.6302399 -0.40423992 -0.16047728 -0.26158634 -0.057923634 0.06876151
-0.16191453 -0.1738562 -0.13853477 -0.010266367 -0.119902164 0.036592353 0.043910053 -0.057161734
0.033702157 -0.060927175 0.049252287 -0.005115689 -0.0824766 0.055882927 0.002417385 -0.058722224
-0.088953495 -0.04088888 -0.08246116 -0.117056414 -0.009571328 0.034441765 -0.03739478 -0.08089245
-0.10330414 -0.058027685 -0.10191338 -0.15924713 -0.024308136 -0.10547776 -0.055171873 0.094167985
0.06337022 0.0045889704 -0.0096459165 -0.014778479 -0.058495287 -0.004108565 0.0095111355 -0.0476753

conv_layers.1.bias f4 [64]
00000000: 7e10 96be c83a 29be 6bf6 08be b1cd 86bd
00000010: d861 bdbd bab7 b2bd 0463 9bbe a454 c4bd
00000020: 572c d5bd cd37 2dbe cd02 6fbd 4c25 95bd
00000030: a92d 9abe 4a1e 66be 639c f8bd 27ba e0be
00000040: 8683 edbe d37c c0bd 0898 20be d0f3 02be
00000050: caad 9cbd ed4d 0abe f9de 8abe 55f8 babe
00000060: 76b1 76be e25d 663d 1a4a 1abd 37e5 8ebd
00000070: b119 afbe 492c 17be 7d0e c1bd eec6 43bc
00000080: 89de 81be 405e 8abd ba95 33be e33a a4be
00000090: a103 febe 31b9 a1bd b134 72be 5db5 59be
000000a0: fdb8 03be 5955 26be a183 f3bd cb05 1cbe
000000b0: ee7d c4bd 8764 9fbe c039 babe 0cff c6be
000000c0: 3386 7abe e285 5fbd 220b a4bd 83cb 50be
000000d0: 59da 27be d8f9 a5be 5510 bbbe 26d3 a1be
000000e0: 86f7 7dbd a432 d9be 4430 9dbd 5b6b dabd
000000f0: b228 a4bd b95b 6dbd 1afb 37be 2ff3 06be
-0.29309458 -0.1652633 -0.13375251 -0.06582201 -0.09247178 -0.08726449 -0.3034898 -0.095864564
-0.10408848 -0.16915818 -0.05835228 -0.072825044 -0.3011296 -0.22472492 -0.121392034 -0.43892023
-0.46389407 -0.09398808 -0.15682995 -0.1278832 -0.07650335 -0.13506289 -0.2712324 -0.36517587
-0.24091133 0.056241877 -0.037668325 -0.06977313 -0.34199288 -0.14762987 -0.094265915 -0.011949284
-0.25365093 -0.06756258 -0.17537585 -0.32076177 -0.49612144 -0.078966506 -0.23652913 -0.21260591
-0.12863536 -0.16243495 -0.118903406 -0.15236585 -0.09594332 -0.31131384 -0.36372185 -0.3886646
-0.24465255 -0.05457104 -0.08009936 -0.20390134 -0.16391887 -0.32417178 -0.36535898 -0.31606406
-0.062003635 -0.42421448 -0.076752216 -0.10665008 -0.080155745 -0.0579488 -0.17966881 -0.13178705

conv_layers.2.weight f4 [64, 64, 3]
00000000: 680e 603d fc50 11be 119b b93c ff88 23bc
00000010: c60a c9bb c33c 443c a10c 6cbd ce19 0cbd
00000020: 6256 e1bc c60b 4abc d1b4 223d 8b99 803c
00000030: 0b7f 6d3d 5420 953d 3c60 05be 384f dcbc
00000040: 2a44 eebc 28ca 9fbd 7671 d8bd a9c9 21be
00000050: 7cb0 d0bd 1aa1 bcbc f4b9 89bd 2c94 1bbd
00000060: eaab 853d e0b2 d1bc 2604 2d3c ea75 3e3d
00000070: d250 f8be ca1d aebe 66bf b739 45a0 14bd
00000080: c9f4 a4bb 7c13 033c a20f d83c e614 3abc
00000090: 71dd 10bd eb47 41be 6be4 3fbe 16dc 0fbc
000000a0: 0988 f73c d3c1 873c 7888 99bd 348b 303d
000000b0: 94d1 693d 6f32 13bd 944e 893d 2fd2 65bd
000000c0: 158e 263d 6ed2 99bd 5896 03be 3312 453d
000000d0: d1df 973d b859 3ebc 49ed 5abd 4937 d3bc
000000e0: 4cc0 663d b5ac e4bc e746 25bd 3824 813d
000000f0: 72d1 b03c 2362 433c 0852 d53d d6de 173d
00000100: 5ea1 0a3d 684d f6bb 7cec 0fbf d8f5 ce3e
00000110: 9683 ef3e a9c3 a93d 2621 0ebe 0755 e2bc
00000120: c34e 933d 6a1e 3cbd a332 81bd 7251 8e3d
00000130: 0ff0 9fbd 34f0 b1bd 1fb2 1a3c ed56 a3bc
00000140: afbf 02bc 2b28 33bc c5a6 e03c 37bf 773d
00000150: 5058 fa3c b988 6abc 13dc 2ebd 7c99 b53d
00000160: ed38 943d b008 ac3d ed84 9cbc 1939 093b
00000170: 861d bcbc a282 ffbd dd18 f7be 2d0e 91be
00000180: 54b7 e73c 2f24 39bd 2652 5b3d 5682 633b
00000190: ad6a 923c 6d20 793d f93e 65bd c521 6fbd
000001a0: caf9 ea3c d422 62bd 28f5 983d 3963 63bd
000001b0: 8044 eeb8 fad2 b3bc ad59 7d3d df23 87bd
000001c0: 526f 1fbc 6e69 e5bc 8b78 c3bd 3afc 17be
000001d0: 2d2a 0ebe b7c3 a73c c970 84bd d4db 8e3d
000001e0: 7f2a 893b 9285 9ebb d480 2fbd 2884 e1bc
000001f0: c5a6 80bc 29e4 e3bc 004b 223c bc2a ecbd
00000200: 0b39 c0bd cae5 c43b d360 91bd eb33 94bc
00000210: bbfe 4d3d 4802 c53c 1a5f 343c ad8d 95bd
00000220: 0d90 b53c 1b50 fbbc 37f3 87bd 664e 26bb
00000230: cd5e ae3c eec6 563e f6d8 0d3d 2d9b 093d
00000240: 9d98 f9bd 93b6 703d c6de 403c 5a48 a9bd
00000250: 1e07 39bd cc94 1a3d 655c 553d f612 873d
00000260: de54 5dbb 56e2 01bd 3cd7 c7bd 020e 4ebd
00000270: 2979 6cbd 0b39 38bc c177 6cbd d8f9 0fbe
00000280: f749 babd e537 00bd 7cc5 6cbd f578 6f3d
00000290: 3b2a 32bd 35ac e7bc 22c4 85bc 3fe6 babd
000002a0: e431 44bc d083 c63c 533f 0a3e d33b 98bc
000002b0: 980a 0dbd 5a81 4f3d 5ebf dcbd ed6a b73c
000002c0: 50d0 0c3d 4e41 8a3a a867 b9bc 8099 88bb
000002d0: a386 4f3a d45c 703d 328b 17bc 9a8e 17bd
000002e0: e2fc 4f3d 9957 373d 9bad 4d3d 9678 2ebd
000002f0: 2cf6 253d df4d 0bbd be90 00bc 5e4a 7dbd
00000300: 2eae babd 7acf e03b f7c4 29be 7db6 87bd
00000310: 240d b5bd b0d2 c53c a591 793c 7a84 fbbd
00000320: ca1a 7dbc f5a2 bcbc 95fc 393d 3d0d bbbd
00000330: ff05 0abd 19c3 11bd d6d1 bbbd 3ded 8bbd
00000340: f15c 8abd 826b 99bd 8613 c0bc 0d6d 51be
00000350: c084 03be 43a6 e5bc 857f 34bc 758f c23c
00000360: d9b9 e7bc 3ec9 593d f4bc 16bd 3e0f 23bf
00000370: 0355 903d c8f9 2fbe cad8 643d a758 abbc
00000380: 5036 ff3a 1804 3a3d 6a2f 61bc e5c0 6fbd
00000390: 0d5e dbbd a9be 94bd d210 f5bd 9813 10bd
000003a0: 1a69 9e3c 3ff6 553d ea69 9fbd 6f5a e4bc
000003b0: 8706 6a3c 5f9c 9abc 022d 473d eaf6 debc
000003c0: 0ec1 263e 02c3 1c3e 0d75 2fbe 448d 753d
000003d0: f190 23bc 2bb7 41bd f800 0c3c 5db0 20bd
000003e0: 81fa eb3c c03c 85bc ca78 be3b c603 bdbc
000003f0: 2437 ecbc b38b c83c 5364 f93c 16c3 c93c
0.05470124 -0.1419105 0.02265695 -0.009981393 -0.0061353175 0.011977377 -0.05762923 -0.034204297
-0.02750701 -0.012331909 0.03972322 0.015698215 0.057982486 0.07281557 -0.13024992 -0.026893243
-0.029085238 -0.0780223 -0.10568516 -0.15799583 -0.10189912 -0.023026038 -0.06724921 -0.037983105
0.06526931 -0.02559799 0.010560071 0.04649917 -0.4849916 -0.34007102 0.00035047083 -0.036285657
-0.0050340635 0.008000251 0.026374642 -0.011357522 -0.035367433 -0.18875091 -0.18739478 -0.0087805
0.030216234 0.016571915 -0.074967325 0.043101504 0.057084635 -0.03593677 0.06704441 -0.05610865
0.040662844 -0.075108394 -0.1285032 0.04811306 0.074157365 -0.01161807 -0.05344895 -0.025783198
0.056335732 -0.027914384 -0.04035082 0.06305736 0.021584246 0.011925253 0.10416037 0.037077747
0.033845298 -0.0075165518 -0.5622022 0.4042194 0.4678008 0.08289272 -0.13879833 -0.027628435
0.07192757 -0.045927443 -0.06308486 0.06949128 -0.078094594 -0.08688393 0.009441881 -0.01993891
-0.007980271 -0.01093487 0.027423272 0.06048509 0.030559689 -0.014314824 -0.042690348 0.088671654
0.0723742 0.084000945 -0.019106353 0.0020938574 -0.022963297 -0.12476088 -0.48261157 -0.28331128
0.02828566 -0.045200523 0.05354514 0.0034715137 0.017873133 0.06082194 -0.05596826 -0.058381815
0.028683562 -0.055208996 0.07468635 -0.055514548 -0.000113614835 -0.021951187 0.0618531 -0.06598639
-0.009731131 -0.028004374 -0.09544476 -0.1484231 -0.13883276 0.020479066 -0.064668246 0.06975523
0.004185974 -0.0048377 -0.04284747 -0.027528837 -0.015704522 -0.027818756 0.009905577 -0.115315884
-0.0938588 0.0060088383 -0.07098546 -0.018091163 0.050291758 0.02404894 0.011009002 -0.07302413
0.022163415 -0.030677846 -0.066381864 -0.002537632 0.021285439 0.20974323 0.03463074 0.033595253
-0.12187312 0.058767866 0.011771863 -0.08265753 -0.045172803 0.03773956 0.052090067 0.065954134
-0.0033772509 -0.03170999 -0.097578496 -0.050306328 -0.057732735 -0.011244069 -0.057731394 -0.14060152
-0.09096139 -0.031303305 -0.057805523 0.058464963 -0.043497305 -0.028280357 -0.016328875 -0.09125947
-0.0119747855 0.024232775 0.13500719 -0.018583214 -0.03443393 0.05066047 -0.10778688 0.022389853
0.03437835 0.0010548027 -0.022632435 -0.0041686893 0.0007916486 0.058682278 -0.009249495 -0.03700123
0.050778277 0.044761274 0.05021439 -0.04259547 0.04051797 -0.03400981 -0.007847009 -0.0618385
-0.091152534 0.0068606706 -0.16579042 -0.06626604 -0.08840397 0.024148315 0.015232478 -0.12281127
-0.015448282 -0.023026923 0.045406897 -0.091333844 -0.033697125 -0.03558645 -0.091708824 -0.06832359
-0.067560084 -0.074912086 -0.02344681 -0.20451756 -0.12843609 -0.028033381 -0.011016731 0.023750046
-0.028286861 0.053170435 -0.036801293 -0.6369513 0.07047465 -0.17185128 0.05587081 -0.020916296
0.0019471142 0.04541406 -0.013744215 -0.058533568 -0.10711298 -0.07262928 -0.11966099 -0.035174936
0.019337226 0.05223679 -0.077838734 -0.027875153 0.014283783 -0.018873392 0.048626907 -0.027217347
0.16284582 0.15308765 -0.17134495 0.059949175 -0.009983287 -0.047293823 0.008545153 -0.039230693
0.028805973 -0.01626432 0.005812739 -0.023073088 -0.028834887 0.024480676 0.030443346 0.024629157

conv_layers.2.bias f4 [64]
00000000: 1f4e 22be b00c 19bf 36e6 c1be c098 d0bd
00000010: 3baa f9bd 4bd2 ffbd 6fe5 fcbe ee0c fabd
00000020: 1608 f1bd 246e 07bf 3e8a 88be a414 1abe
00000030: 4c09 1ebe a3e3 25be 05b5 4cbe 7b27 62be
00000040: 3727 5abe d078 8a3c 006e f3bd 5b26 ffbd
00000050: 7165 1ebf 4412 e6bd 9d82 6fbe 838a 0abe
00000060: 0444 a5be 6429 11bf 90c8 b1be 2518 d4bd
00000070: 3640 febd d060 503e f1aa 23be 2767 d8be
00000080: 19b2 d93e c145 4bbe b167 0bbe ea6e cfbd
00000090: 4983 3cbe 860d 08bf e893 c9be dd46 13be
000000a0: c144 f4bd 555d d2bd a102 023c d2dd a63d
000000b0: 77d0 6fbe fb3e 1cbe 130b ffbd 5237 a6be
000000c0: 43a4 d6be ac04 eebd 4a40 b3be 8a34 85be
000000d0: 9f38 0ebe edb8 a4be 4816 ddbd 9c7d 79be
000000e0: 5053 c2be b1fa 45be bd0b 88be ee31 92be
000000f0: 8717 e9bd 3328 f5be f069 6a3d 6488 d6bd
-0.15850113 -0.59784985 -0.3787095 -0.10185385 -0.12190672 -0.12491282 -0.49393794 -0.122094974
-0.117691204 -0.52902436 -0.2666797 -0.15046936 -0.15433234 -0.16200118 -0.19990928 -0.22085373
-0.21304022 0.016903311 -0.11886215 -0.124584876 -0.6187354 -0.11233953 -0.23389669 -0.135294
-0.32278454 -0.5670378 -0.3472333 -0.10356168 -0.12414591 0.20349431 -0.15983178 -0.422662
0.4251869 -0.19850828 -0.13613774 -0.10128577 -0.18409456 -0.53145635 -0.39370656 -0.14382501
-0.11927176 -0.10271708 0.007935197 0.081477776 -0.23419367 -0.152584 -0.12453284 -0.3246408
-0.41922197 -0.11621985 -0.35009986 -0.26016647 -0.13888787 -0.32172337 -0.107952654 -0.24364322
-0.37954187 -0.19333912 -0.26571456 -0.28553718 -0.113814406 -0.47882232 0.057229936 -0.10475233

conv_layers.3.weight f4 [64, 64, 3]
00000000: 5a68 2dbc 2413 54bd 9d32 b3bd 93a8 5dbd
00000010: 722e 8fbd 69b5 95bd 2c7c f2be 56b8 62bc
00000020: 1dcb a4be e83c 16be b922 89bd 2ca0 b5bd
00000030: 4657 41bd 1715 70bc 60cc 3cbc f83d 95bd
00000040: f109 acbd 2ac6 19bb c237 61bc cde0 86bd
00000050: e8aa fbbd fd8a 82bd 1e10 493d 40f7 1b3b
00000060: a683 c3bb 1d76 79ba c2a1 083d 90d6 0cbe
00000070: d10f ffbd 137a 82bd 355f bebd 90ee 1ebd
00000080: ca3e 29bd 1fe6 2fbe 239f ab3d 61f5 a53b
00000090: 5b27 25be 37d8 623c 8a17 55bd 771c a23c
000000a0: 21c5 333d 5a52 a83c 3521 f33b f195 ea3d
000000b0: e81c 5f3d 857a e8bd 0d78 f43b 6ed0 dbbd
000000c0: 7bbc cabd f324 863b 7534 4f3d fc51 58bc
000000d0: f913 9dba 759c 89be ec0b d53d b1ea 0fbe
000000e0: f914 9bbe 6c65 40bd 59a2 7cbd 1a7a be3d
000000f0: 606d 17be ace6 18be 4616 603e 305a e8bd
00000100: f49a cabd 0f5d 10bd 70d2 d0bb e527 c0bb
00000110: d4bf a6bb c79c a2bd 8542 c7bd dd4f 59bd
00000120: 1a69 053e 8bfa 83bd 0250 b23d 6008 26bd
00000130: daee d7bd 4a18 fabd 8813 84be e3e1 c8bd
00000140: e9c9 2bbc fa9c aebc e165 643d 9748 cdbb
00000150: a267 68bd 3b61 43be 0be8 5abe dd58 38bf
00000160: d84d eabd 9476 d1bd eab1 963b 11e9 d33c
00000170: 9c12 38bc 1290 4cbe ad1c 3e3c 54c3 7abd
00000180: 9544 bc3d 6a5c 5ebe 5118 46be b7b6 293c
00000190: 5c6f 2cbe dd20 34bd c737 d1be faf7 823b
000001a0: 618d b9bd 8e88 303d 909b 77bc e6b1 073d
000001b0: 8986 6c3d d42c 85bd f7ba f1bc 1dfb f4bd
000001c0: 38c6 57bd 1c54 6abb 0d8f 1ebe de0f 693c
000001d0: 0f1e e93d 9938 b1bd 5cf1 c03c 6598 14bd
000001e0: fd75 cf3c 686a 6abd e36f c2bd a32d a23d
000001f0: 33fc fb3c a5b3 ba3c 5bb6 1abf 773e 71be
00000200: 6a1b 04be 8f37 8b3d 77e3 19bd 4dbd b5bd
00000210: acb3 903c c62a acbc 866d a8bc 976d bcbd
00000220: 856e 7bbd c3a6 15be 3bff a63d b5fe 403d
00000230: 5913 8fbd a158 8d3d 15e9 fc3c 00de 023d
00000240: 5fcf febd 2b08 cdbd 1502 f03b 3442 3fbd
00000250: 9742 1e3c 432c 153d 09af 7fbd 7eb7 e03c
00000260: 640b bf3c 3f6c 74bd 567a 9cbd 307a 813c
00000270: 6972 04be 839b 42bd b723 03bd 8cd3 de39
00000280: 3d9b 00be d95e cf3d 7bb4 0a3d bdfa 973c
00000290: bf4b 3fbd d2dc ca3d 6b5f 133e 9297 fdbe
000002a0: adf4 e6bd c0ed efbd 79b5 c2bd 5111 613e
000002b0: f90f bcbe cb71 07be 5efe 4c3d d4a1 28bd
000002c0: 4d31 2abd e9d4 70bd 32c9 103b 98ce 803d
000002d0: d4c7 cabd 522e 54bd 89a5 07bd aaaa b7bd
000002e0: 6c28 1ebd e138 10bd dd42 f0bb 807f 66bd
000002f0: 19ae be3c 241f e63c caf7 0dbe e763 38bc
00000300: ae0d 2c3d d012 12bd b6ca 21bd 719e d53c
00000310: b55d ccbd 1a2e a03c 36dd 87bd 3155 d13d
00000320: 8342 b6bd 98cf 2ebd 36dc 9ebd e95f 75bd
00000330: 4964 3d3d 487c 7d3d b5f0 703d dd4b cb3c
00000340: 5607 9dbb 864f 51bc a1bc 0e3e 3997 4fbe
00000350: 883f 2fbd 0ff0 703a e9ff 3dbb 7b9f 3a3c
00000360: 6ed3 8c3d e6e6 c13c 7394 133c b98b d4bd
00000370: 110d 3c3d da9b 2c3e e17e de3d ce54 c1bd
00000380: e8ed 81bd eb5a 233c 71a4 f43d 0ede c93d
00000390: a933 cfbc eb89 913d c438 87bd 3b0d 793d
000003a0: ef72 033c e662 18bd cbb2 5f3c dd7b 1fbc
000003b0: 90c4 753c 9172 80bd 2946 87bc 9c7a 27bd
000003c0: bc7f 913d e7e7 38be 59cf aab9 ef5b acbe
000003d0: 3154 8f3d 8db4 f43d ee82 2bbc 52b3 56be
000003e0: f27c 8d3d dd4b 25bd 6ad3 953c 523f 8d3c
000003f0: 47bd 31be d1da e2bd 2d77 a3bd 3ce9 89bd
-0.010583961 -0.051776066 -0.08749888 -0.054115843 -0.069912806 -0.07309992 -0.4736036 -0.013837894
-0.32186213 -0.14671671 -0.06696076 -0.08868441 -0.04720237 -0.014653466 -0.011523336 -0.0728721
-0.08400334 -0.0023464062 -0.013746204 -0.06585846 -0.12288457 -0.06374166 0.049087636 0.0023798496
-0.0059666215 -0.00095161964 0.03335739 -0.13753724 -0.124541886 -0.0637094 -0.09295503 -0.03880173
-0.041319646 -0.17177628 0.08379962 0.005064652 -0.16128294 0.013845495 -0.0520244 0.019788964
0.04388917 0.02054708 0.00741973 0.1145438 0.054470927 -0.11351494 0.0074606 -0.10733114
-0.09899231 0.00409376 0.050587136 -0.01320314 -0.0011984102 -0.2687718 0.104026645 -0.14054371
-0.30289438 -0.046971723 -0.061678264 0.09300633 -0.14787817 -0.14931744 0.21883497 -0.11345327
-0.09892836 -0.035244998 -0.0063727424 -0.005864131 -0.0050887857 -0.07940059 -0.097294845 -0.05305468
0.13028374 -0.06444272 0.087066665 -0.04053533 -0.10543604 -0.12211664 -0.2579615 -0.098087095
-0.010485151 -0.021315087 0.05576122 -0.006264757 -0.056739457 -0.19080059 -0.2137758 -0.72010595
-0.11440629 -0.10227695 0.0045988457 0.02586797 -0.011234906 -0.19976833 0.0116035165 -0.061221436
0.091927685 -0.2171494 -0.19345213 0.010358504 -0.16839355 -0.043976653 -0.40862867 0.0039968463
-0.09060169 0.04309898 -0.015112773 0.03312864 0.05774549 -0.06502691 -0.029508097 -0.119619586
-0.05267927 -0.00357557 -0.15484257 0.014224974 0.11382686 -0.08653373 0.02355259 -0.036278147
0.025324816 -0.057230383 -0.09493997 0.07918861 0.030759906 0.02279074 -0.604345 -0.23558985
-0.12901083 0.06797706 -0.037570443 -0.08873997 0.0176638 -0.02101649 -0.020560037 -0.0920059
-0.061384697 -0.14614396 0.0815415 0.047117908 -0.06986112 0.0690167 0.03087286 0.031949997
-0.12441897 -0.100113235 0.007324467 -0.046693996 0.009659431 0.036419164 -0.062422786 0.027431246
0.023320861 -0.059673544 -0.07640521 0.015805334 -0.12934269 -0.04751159 -0.032016482 0.00042500754
-0.12559219 0.10125513 0.033863526 0.018552179 -0.046703096 0.099053994 0.14391868 -0.495297
-0.11277137 -0.11715269 -0.095072694 0.21979262 -0.36730936 -0.13227002 0.05004727 -0.041169956
-0.041550923 -0.058796797 0.0022092578 0.06289405 -0.099013954 -0.051801987 -0.03311685 -0.089680985
-0.038612768 -0.035210494 -0.0073321895 -0.056273937 0.023276376 0.02809102 -0.13864055 -0.011254287
0.042005233 -0.035662472 -0.03949996 0.026076527 -0.09978811 0.019553233 -0.066339895 0.10221327
-0.08899405 -0.042678446 -0.07756846 -0.05990592 0.046238218 0.061886102 0.058823306 0.024816448
-0.0047921343 -0.0127753075 0.13939144 -0.2027253 -0.042785197 0.0009191045 -0.0028991646 0.011390562
0.068762645 0.023669671 0.009007561 -0.103782125 0.0459109 0.16856328 0.10864044 -0.09440003
-0.06344205 0.009970407 0.11945427 0.09856807 -0.025293188 0.07106384 -0.06602624 0.060803633
0.008023008 -0.037203692 0.013653467 -0.009734121 0.015000477 -0.06271852 -0.016512947 -0.040888414
0.071044415 -0.18057214 -0.00032579413 -0.3366389 0.0699848 0.119485 -0.010468228 -0.20966843
0.06908597 -0.040355552 0.018289287 0.017242108 -0.1735736 -0.11076892 -0.07981715 -0.06733939

conv_layers.3.bias f4 [64]
00000000: d6b1 d3bd ee16 38be cfd4 16be 3d82 09be
00000010: 9259 6ebd ea03 8abd 4209 2fbd 8b4a 06be
00000020: 049c e1bc e3e9 0cbe ca3d 0fbe 5735 80be
00000030: 6095 2d3d 0d4e aabd 237b adbd 04cd 22be
00000040: cf2f 5ebe b61c 8dbd e80b 4bbe 595b dbbd
00000050: ebb8 21be 6a0a c5bd b097 a93d b223 89be
00000060: ba5d 2fbe f564 f6bc 8984 aabd a96b 44be
00000070: 117a 0abe afc7 f4bd 5541 b5bd 915b 28be
00000080: 498b 82bd 6e5c eebd a42b f33d b411 96bd
00000090: 71e0 cabd 3019 b3bd d29a 05be f18a b13e
000000a0: 0db5 55be 08d6 76bd 2a99 01be 629f bdbd
000000b0: 3fd1 9cbd bd3e 11be 4743 b43e e739 d5bd
000000c0: 5d5f aebd b33d 06be e3ba a6bd ad45 a2bd
000000d0: e8c9 6abe 98a6 69be e06d 93bd 6d19 bbbe
000000e0: 4003 06be 81cf bbbd f677 e1be c988 f9bd
000000f0: 4011 893d ca16 43be 65d7 1ebe 057f 06be
-0.10336654 -0.17977497 -0.14729618 -0.13428588 -0.05819089 -0.06739028 -0.04273344 -0.13114373
-0.027540214 -0.13761096 -0.13988414 -0.25040695 0.042378783 -0.08315668 -0.08470752 -0.1589852
-0.21697925 -0.06890242 -0.1982876 -0.107107826 -0.15793197 -0.09621127 0.08280885 -0.26785046
-0.17125598 -0.030077437 -0.0832606 -0.19181694 -0.13523127 -0.11952149 -0.08850352 -0.1644118
-0.06374223 -0.11638723 0.11873558 -0.07327595 -0.0990609 -0.087450385 -0.1304734 0.34676316
-0.20869847 -0.06026271 -0.12656084 -0.092589155 -0.07657098 -0.14184089 0.3520758 -0.104114346
-0.08514283 -0.13109474 -0.081411146 -0.07923446 -0.22928584 -0.22817457 -0.07198691 -0.36542836
-0.13087177 -0.091704376 -0.44036835 -0.12184293 0.06692743 -0.19051662 -0.15511854 -0.13134392

dense.weight f4 [3, 3200]
00000000: d615 25bd abbd 203e 9d33 533d af8a 52bd
00000010: 6510 0fbd d787 09be e6c2 21bd d1d1 e9bc
00000020: 4c79 6bbc 6dc7 8a3d 4f58 a6bc b21b 813c
00000030: 9e8f 01be 09da f0bc 0fd8 1bbd 2d2d 783d
00000040: 504f 773d c109 6ebd 0790 01bd 2cde f6bd
00000050: 416c 8cbc b36f 08be 642c bbbc 2d02 173b
00000060: 9a84 7cbd 9f24 6f3d d101 1ebe 0b51 2bbd
00000070: 57c4 83be d7b2 2c3d b210 4c3d 121e 91bd
00000080: 83de 07be f5a2 7d3c 6d84 da3b 7dfd cbbd
00000090: b906 923c 7d29 8cbd 4822 72bd fb66 2f3e
000000a0: 2ae9 f1bb 5770 71be 7d0f b03c bacc 86bc
000000b0: befe 17bd 1d0b 26bc ca68 82bd e1d4 2ebe
000000c0: 8407 c03e 20b6 4cbe f4ea 11bd 8900 33bd
000000d0: 97a3 5dbd 945c 82b9 1619 363c 09bd 1abd
000000e0: dddb 33bd 6ea3 62bd 67d3 95bd 4e80 7dbd
000000f0: 97e9 2abd 67a5 19bd d8ec 04bd 4388 8a3b
00000100: c9e0 c7bc 7776 7abd c54e 30bd d4f0 12bd
00000110: 8c6f 2ebd 9ee9 45bd d4c6 62bd db47 5b3c
00000120: a1f9 673b 43ac d9bb 91b3 a1bd 0fd1 e23b
00000130: 8cff 28bd 7f9e 39bd 011d b83b 5cb4 4fbd
00000140: e3b3 493c 538a 4abd ca54 723c 6b73 11bd
00000150: 49e3 2cbd 4ace 30bd cb54 88bc 6192 76bd
00000160: 5fc0 35bc 1b7b 91bc 660f 9ebc 1b96 8f3b
00000170: 7d27 3bbc fbbb 86bc b9ab 58bd 97f8 9bbd
00000180: 0e19 85bd dabd 263e 789e 52bd 8f0f d23b
00000190: e6dd 0bbc 18b9 72bc 1827 b1bb 5a2d 653d
000001a0: bbd1 153c 2403 b53b 6927 e03c dba3 89ba
000001b0: 3ed2 c0bc 704d 24bd 94aa 31bc a9f7 a2bb
000001c0: 6459 cb3b a46b 83bc 40a5 e5bc c6f6 fc3a
000001d0: ce9b 2ebc aeb3 8fbc 54b2 82bc c508 f93b
000001e0: 9b03 0abc 6c1f 1b3d a9f4 ff3c 2f1c 2a3b
000001f0: 6b29 9e3c 3cab 50bc e62f fe3b a6b5 cf3b
00000200: 97ae 1c3b 9075 44ba 49e1 3ebb e66f b5bb
00000210: 1277 b83b 39aa 533b 5c3d fc3c 366f 26bd
00000220: a42d 9dbc 0dc7 2bbd 854c 47bd 45c1 63bc
00000230: 9411 f13c ad61 4f3d eb0a 5f3d 3e54 ac3d
00000240: 6460 a838 0412 3b3d 4ced 8c3d 3803 3a3d
00000250: da8c 1dbd 93d6 213d a2bd 29bd 75c6 51bd
00000260: b639 2ebe f77f 7dba 6e4d 893d e6e9 9b3d
00000270: 08a6 54bd 747f 05be 66ea f8bc cc99 223d
00000280: 1cfe 803d e37c 18bc f362 a1bd 29fc 02be
00000290: 1ce3 0cbe 43ad 2c3d 4a5f 993c e00f b83c
000002a0: 4d30 b43b 982c 8e3d 8ad7 1fbc 25fa f03c
000002b0: 4288 f7bd 0c4b 363e 4dee bab8 7fb6 d9bd
000002c0: e1e5 2e3d f124 043b 6ee5 e1bd 3ca5 a4bc
000002d0: 6d8b a4bd f192 9e3d c2fe f1ba f820 04be
000002e0: 845c 023d 28a7 bcbc 6b2a 8d3d 63be f83c
000002f0: 5e7d 013e 26d6 b2bd 728f 58be 374d e0ba
00000300: ea41 d13d 2081 3b3c 4039 d63c 25af c53d
00000310: ba62 9dbd 2009 0a3e 85ce cb3c f201 68bc
00000320: 3f60 733c c62d 72bb 15aa 42bb 2f01 5ebc
00000330: a337 87bc b2ae 82bc 70b5 de3b cf6f 78bb
00000340: 8900 45bc fc2a bcbb 910e 86bc 40a9 98bc
00000350: 9a11 36bc 2611 26bc f650 1dbc fc62 44bc
00000360: 2461 78bb 5f94 99bc 96cd 473c 0868 18bc
00000370: 21ee 18bc 2fb7 38bc 9d34 093a 0a1e b8bc
00000380: fbce 04bc 112f 243c 40e0 973a 036d a5bc
00000390: 0539 de3a 8810 c8bb 49e2 8fbc 1f73 c93b
000003a0: 1929 16bc 94b7 faba 6893 4dba 2f4d f3bb
000003b0: d567 6bbc f19f 90bc 1d41 8539 3157 80bb
000003c0: d60d 1c3c afb4 a0ba f09f 90bb 1c13 833b
000003d0: f141 a93c 9694 75bb 4e4a 3e3c 3a18 8cbc
000003e0: 4470 313b 38eb 303a 70bf ca3b 4dc1 4f3c
000003f0: 5951 c8bb da10 0dbc 265e f6bb aa31 d03a
-0.040304027 0.15697353 0.051562894 -0.05140179 -0.034927744 -0.13430725 -0.03949251 -0.028542431
-0.014372181 0.06776319 -0.02030578 0.015760276 -0.12652442 -0.029400842 -0.038047846 0.060589958
0.060378373 -0.05811477 -0.031631496 -0.12054095 -0.017141463 -0.1332386 -0.022848316 0.0023042068
-0.061649896 0.058384534 -0.1543038 -0.041825335 -0.25735733 0.042162742 0.04982061 -0.070858136
-0.13268475 0.0154807465 0.0066686184 -0.099604584 0.017825471 -0.06843851 -0.059114724 0.17129128
-0.0073825317 -0.2357801 0.02149176 -0.016455043 -0.037108175 -0.010134486 -0.06367643 -0.17073394
0.37505734 -0.1999135 -0.03562446 -0.043701682 -0.05411109 -0.00024864508 0.011114379 -0.037777934
-0.04391085 -0.05533164 -0.073157124 -0.06188994 -0.041726675 -0.037511256 -0.032452434 0.0042276694
-0.024399178 -0.061148133 -0.04304387 -0.035874203 -0.04258685 -0.048318498 -0.0553654 0.013383831
0.0035396593 -0.0066428497 -0.07895578 0.0069218944 -0.041259333 -0.04531717 0.005618692 -0.050709113
0.012310955 -0.049448323 0.014790723 -0.03551046 -0.042208944 -0.043165483 -0.016641995 -0.06019819
-0.011093228 -0.017758897 -0.019294452 0.0043819076 -0.011422989 -0.016447058 -0.052898142 -0.07615774
-0.064989194 0.1628336 -0.05142066 0.006410546 -0.008536791 -0.014814638 -0.0054062717 0.055951454
0.009144242 0.005524056 0.027362542 -0.0010501103 -0.023537751 -0.040112913 -0.010843892 -0.004973371
0.0062057246 -0.016042538 -0.028032899 0.0019299618 -0.010657264 -0.017541733 -0.015954174 0.0075999224
-0.008423711 0.037871763 0.031244593 0.002595674 0.019306859 -0.012736138 0.007757175 0.006338793
0.0023907775 -0.0007494325 -0.002912598 -0.005537021 0.0056294287 0.0032297506 0.030790977 -0.040633403
-0.019186802 -0.041937876 -0.04865696 -0.0139010595 0.029427327 0.05063026 0.05445377 0.084145054
8.0288184e-05 0.045671478 0.06881198 0.045413226 -0.038464405 0.039511275 -0.041440614 -0.051214654
-0.17014202 -0.00096702523 0.06704222 0.07612972 -0.051916152 -0.13036901 -0.030385207 0.039697453
0.062984675 -0.009307119 -0.07880201 -0.12791504 -0.1375851 0.042157423 0.018722195 0.022468507
0.005498922 0.06942099 -0.009755978 0.029416153 -0.12086536 0.17802066 -8.913558e-05 -0.106305115
0.0426997 0.002016362 -0.11030088 -0.020098321 -0.08034406 0.077428706 -0.0018462765 -0.12903202
0.03182651 -0.023028925 0.06892856 0.030364221 0.1264548 -0.08732252 -0.2114847 -0.0017112856
0.1021765 0.01144436 0.026150346 0.09652547 -0.07684846 0.13480043 0.02487875 -0.01416062
0.01485449 -0.0036953553 -0.0029703428 -0.013550087 -0.016506022 -0.015952442 0.0067965314 -0.003790844
-0.012024053 -0.005742429 -0.016364368 -0.018635392 -0.011112595 -0.010135924 -0.009601822 -0.01198649
-0.0037899697 -0.018747507 0.012195012 -0.009302147 -0.009334118 -0.011274143 0.0005233975 -0.022475261
-0.008105989 0.010020987 0.0011587217 -0.020193582 0.0016954249 -0.0061054863 -0.017563956 0.0061477567
-0.009165072 -0.0019128197 -0.00078420946 -0.0074249725 -0.014368017 -0.017654391 0.0002541625 -0.003916644
0.009524783 -0.0012260879 -0.0044135973 0.0040000807 0.020661326 -0.0037472597 0.011614395 -0.017101396
0.0027074972 0.00067489175 0.006187372 0.012680364 -0.006113213 -0.008609975 -0.0075185476 0.0015883942

dense.bias f4 [3]
00000000: 2b99 263f a6a3 263f 96b2 263f
0.65077466 0.6509346 0.6511625
