dataset_test/TimesNet-for-Time-Series-Prediction/model_saved/nonsentiment_5.pt (torch, 193242 bytes, 10 tensors)

conv_layers.0.weight f4 [64, 3, 3]
0.04181521 0.119142905 0.0013666672 -0.521753 0.19733156 -0.31281155 -0.37412772 0.39385107
-0.13711752 -0.32330984 -0.43241587 -0.20420606 0.18674138 -0.10047339 0.047049895 -0.17245266
-0.18280043 0.26940417 -0.3424711 0.72389305 -0.055441417 -0.102611735 -0.38579717 0.08455041
0.2577312 0.074818216 0.03126891 -0.45493674 -0.5767093 -0.5878848 0.093307756 -0.5107258
-0.13057078 0.08754275 -0.5562 0.124387346 -0.6045947 -0.42121595 -0.019568738 0.15766256
0.089937694 -0.0936813 0.1814205 -0.1507075 -0.10912409 0.385053 -0.11211949 -0.16597825
-0.28588384 -1.3341414 -0.5163777 -0.92564154 -1.4443645 -0.02631325 -0.053690724 -0.054865878
0.05455535 -0.38657627 0.09849336 -0.5766457 -0.109548844 -0.39475206 -0.7151381 -0.15029792
-0.25033116 0.06903348 0.04058117 0.2474836 -0.12012167 0.13257317 -0.2295136 0.029647475
-0.15595531 0.22602297 -0.13860272 0.47135422 0.067904666 -0.5597359 0.5310365 0.81092715
-0.5332022 0.2086031 -0.0008735749 -0.11890565 0.15444592 0.020673374 0.0021539466 0.24903145
0.47512117 -0.28649983 -0.02320972 0.21790287 -0.078886844 -0.0724139 -0.38807625 -0.4759685
-0.010835429 -0.31320077 -1.0358588 -0.4291246 -0.2090838 -0.3956791 -0.3819661 0.063313246
0.18741107 -0.15912533 -0.13488461 0.10406673 0.035974927 -0.29687762 -0.17948033 0.09233273
-0.15417978 -0.20478584 -0.092293814 -0.17600243 0.08415202 0.39396095 -0.8478087 -0.41412765
0.3160401 -0.026891744 0.074828774 0.082811914 -0.023540953 -0.3846748 -0.0754817 -0.0873277
-0.3181559 0.015502016 -0.071670465 0.12689789 -0.114699446 0.14037761 -0.1486246 0.2524777
0.24999014 -0.042497326 0.13748956 -0.4360003 0.054308638 0.20576356 -0.21039228 0.24643528
-0.347402 -0.36102307 -0.044621993 0.05222382 -0.029459381 -0.27027366 -0.11526221 0.46061876
-0.29360637 0.010259026 0.21868703 -0.33825234 -0.3647048 -0.11880998 -0.14386515 -0.16832156
-0.051079195 -0.27932155 -0.4114015 -0.7000358 -0.67792547 -0.6741451 0.3878194 0.27373105
-0.66583884 0.16446093 0.21800414 0.18439576 0.060639117 0.28418347 -0.368481 -0.17586453
-0.407819 -0.57789063 -0.5288232 -0.55555725 -0.21911564 -0.2739867 -0.2921251 -0.37786263
-0.20173158 0.101253234 -0.3090234 0.06317219 -0.30534357 -0.40078142 -0.55499953 -0.0011760057
0.11828591 0.020478036 0.10367622 0.24091935 -0.24181685 0.2017162 0.28573355 0.27224487
0.19862689 -0.72946715 -0.14269878 -0.44294137 -0.3286112 -0.2872121 -0.74972063 0.036177643
-0.031296212 0.06385301 -0.8171895 -0.72080487 -0.5263175 -0.61553305 -0.5148583 -0.98571384
0.29762378 0.10677447 0.15994808 -0.3632833 -0.46550336 -0.54549086 -0.9297874 -0.7755677
-0.5744832 -0.105181344 -0.25638103 -0.112879425 -0.007405377 0.17891 0.0949954 0.062354162
-0.27362528 0.09862715 -0.09295979 -0.09280604 -0.52847624 0.16272078 0.18908548 0.44125012
0.13822807 -0.6432422 0.672402 0.04099986 0.20937385 0.43111718 -0.70006007 0.018005978
0.060223874 -0.58196676 0.35453263 0.12851872 0.09502034 -0.21970198 -0.18486707 0.14282155
00000000: 6d46 2b3d 3201 f43d be21 b33a 9b91 05bf
00000010: 4911 4a3e d628 a0be ab8d bfbe d9a6 c93e
00000020: 8968 0cbe de88 a5be 9d65 ddbe 651b 51be
00000030: 2239 3f3e fec4 cdbd 64b7 403d 6e97 30be
00000040: 0930 3bbe 58ef 893e 5f58 afbe 0e51 393f
00000050: 8a16 63bd 1a26 d2bd 3587 c5be c428 ad3d
00000060: 58f5 833e 4b3a 993d d413 003d 78ed e8be
00000070: 38a3 13bf 9e7f 16bf 2318 bf3d edbe 02bf
00000080: 59b4 05be 9d49 b33d 2063 0ebf cbbe fe3d
00000090: b8c6 1abf 9ea9 d7be 9e4e a0bc 4b72 213e
000000a0: 4131 b83d fbdb bfbd 4cc6 393e 1153 1abe
000000b0: 737c dfbd ab25 c53e e79e e5bd 34f6 29be
000000c0: 5e5f 92be 25c5 aabf 5431 04bf d8f6 6cbf
000000d0: f0e0 b8bf e38e d7bc ceea 5bbd 0bbb 60bd
000000e0: 6e75 5f3d 53ed c5be e3b6 c93d 0d9f 13bf
000000f0: 255b e0bd f11c cabe 4a13 37bf b3e7 19be
00000100: 682b 80be 6d61 8d3d 7138 263d 576c 7d3e
00000110: 5a02 f6bd 43c1 073e 9d05 6bbe 43df f23c
00000120: c0b2 1fbe 9172 673e dfed 0dbe 5755 f13e
00000130: 9a11 8b3d da4a 0fbf 02f2 073f ec98 4f3f
00000140: f07f 08bf 0d9c 553e 9f00 65ba ce84 f3bd
00000150: 1227 1e3e 355b a93c 3a29 0d3b 1a02 7f3e
00000160: 1543 f33e 1bb0 92be 5022 bebc ee21 5f3e
00000170: 6d8f a1bd bd4d 94bd eeb1 c6be 25b2 f3be
00000180: 1587 31bc da5b a0be 0597 84bf 38b6 dbbe
00000190: 101a 56be 7396 cabe 1091 c3be 60aa 813d
000001a0: b0e8 3f3e c0f1 22be 311f 0abe f020 d53d
000001b0: 725a 133d 5800 98be b1c9 37be f118 bd3d
000001c0: 4ee1 1dbe 61b3 51be 8a04 bdbd fb39 34be
000001d0: e557 ac3d 40b5 c93e fe09 59bf 8a08 d4be
000001e0: 02d0 a13e 134c dcbc d43f 993d 4b99 a93d
000001f0: f5d8 c0bc 18f4 c4be 2696 9abd ddd8 b2bd
00000200: 55e5 a2be 2bfc 7d3c f7c7 92bd 85f1 013e
00000210: 8be7 eabd 26bf 0f3e 0c31 18be c244 813e
00000220: 6afd 7f3e ad11 2ebd 10ca 0c3e 6e3b dfbe
00000230: bc72 5e3d afb3 523e 1371 57be 8859 7c3e
00000240: adde b1be 04d8 b8be 8dc5 36bd a5e8 553d
00000250: cd54 f1bc 4f61 8abe 980e ecbd 39d6 eb3e
00000260: 9353 96be 7915 283c 7eef 5f3e 692f adbe
00000270: 96ba babe a652 f3bd 6351 13be 7d5c 2cbe
00000280: 6b38 51bd 3c03 8fbe 38a3 d2be 8c35 33bf
00000290: 868c 2dbf c694 2cbf 4490 c63e 7a26 8c3e
000002a0: 6a74 2abf 7268 283e 7a3c 5f3e 3ed2 3c3e
000002b0: b960 783d 7f80 913e 8ba9 bcbe d515 34be
000002c0: a7cd d0be a4f0 13bf f560 07bf 0039 0ebf
000002d0: da5f 60be fc47 8cbe 6c91 95be 3677 c1be
000002e0: b992 4ebe db5d cf3d 5138 9ebe 6c60 813d
000002f0: fe55 9cbe 3933 cdbe 7314 0ebf 3424 9aba
00000300: e23f f23d 8ec1 a73c 3354 d43d 90b3 763e
00000310: d69e 77be b18e 4e3e ab4b 923e ae63 8b3e
00000320: d964 4b3e 5cbe 3abf a11f 12be 36c9 e2be
00000330: ba3f a8be 770d 93be b1ed 3fbf 022f 143d
00000340: 7530 00bd 5ec5 823d 5533 51bf ab86 38bf
00000350: bebc 06bf 9393 1dbf c1cd 03bf be57 7cbf
00000360: 2562 983e 93ac da3d 6ec9 233e 4500 babe
00000370: 7556 eebe 4aa5 0bbf 8c06 6ebf 9b8b 46bf
00000380: 5511 13bf 5169 d7bd 6044 83be 542d e7bd
00000390: cea8 f2bb 2f34 373e f38c c23d 1467 7f3d
000003a0: 9d18 8cbe 08fd c93d b461 bebd 1811 bebd
000003b0: 384a 07bf 47a0 263e a09f 413e 89eb e13e
000003c0: a98b 0d3e 85ab 24bf 8a22 2c3f 78ef 273d
000003d0: 1966 563e 64bb dc3e 2337 33bf 4681 933c
000003e0: 4fad 763d c6fb 14bf 4d85 b53e 699a 033e
000003f0: 069a c23d 8ef9 60be cb4d 3dbe d03f 123e

conv_layers.0.bias f4 [64]
-0.2604212 -0.10796548 -0.22020878 0.014075658 -0.18523856 0.2097757 0.5108992 -0.19647087
-0.45996177 -0.6452277 0.3208938 -0.22035436 6.0811108e-05 -0.32457846 -0.07443255 -0.1570241
-0.19401664 -0.19445793 0.1268805 -0.22909382 0.005945836 -0.4365089 -0.19657198 0.30876955
-0.33644772 -0.17403017 0.22790322 -0.48381692 -0.12581953 -0.482196 -0.4380122 0.33395857
0.06764958 0.19671987 -0.2996526 -0.11295354 -0.071002156 -0.024708854 -0.39358985 -0.19617255
0.08666387 0.24890539 -0.29280806 -0.65213144 -0.05590103 -0.1754472 -0.3193636 -0.0935684
-0.5140266 -0.01630841 -0.20160894 -0.26789528 -0.05336316 -0.6104997 -0.22225916 -0.52563995
-0.16086365 -0.31648695 -0.28956687 0.34105197 -0.115156844 -0.21623302 0.49068043 -0.12582213
00000000: ed55 85be 011d ddbd 697e 61be 979d 663c
00000010: 2daf 3dbe 71cf 563e 4aca 023f a92f 49be
00000020: 1c80 ebbe a42d 25bf 314c a43e 93a4 61be
00000030: 6e0f 7f38 262f a6be 1870 98bd edca 20be
00000040: 4cac 46be fb1f 47be f6ec 013e 9297 6abe
00000050: 4ad5 c23b 187e dfbe 2a4a 49be 0b17 9e3e
00000060: e042 acbe f734 32be 765f 693e dab6 f7be
00000070: d6d6 00be 65e2 f6be 2343 e0be 9efc aa3e
00000080: dd8b 8a3d ef70 493e 116c 99be 3054 e7bd
00000090: 9469 91bd 396a cabc 9c84 c9be 75e1 48be
000000a0: d47c b13d 0ee1 7e3e f0ea 95be 16f2 26bf
000000b0: 7af8 64bd 6ea8 33be a083 a3be caa0 bfbd
000000c0: 3f97 03bf 3799 85bc 9372 4ebe 9229 89be
000000d0: 5493 5abd b549 1cbf e897 63be 5790 06bf
000000e0: 71b9 24be 940a a2be 1c42 94be 5d9e ae3e
000000f0: 5ad7 ebbd 306c 5dbe 773a fb3e 84d7 00be

conv_layers.1.weight f4 [64, 64, 3]
0.25878033 -0.32583544 -0.21890374 -0.07158429 -0.011023281 -0.047160204 -0.053265285 -0.42439187
0.068722256 0.01633869 -0.31382018 0.11689733 0.047419697 -0.06903654 0.40116948 -0.16902119
-0.24490647 -0.15666229 -0.22187904 -0.25141865 -0.38161296 -0.055874843 -0.01723482 0.020697495
0.19901691 -0.082696475 0.20464793 0.3569867 -0.8625605 -0.14140186 -0.40902954 -0.26975685
0.17232478 -0.17290893 -0.209377 0.020997899 -0.13358295 -0.047504473 -0.09627593 -0.0048453845
-0.28408873 -0.059842218 0.007286523 0.02431842 0.009466193 0.21061198 0.12346088 0.3182274
-0.23212926 -0.060751833 -0.07411755 -0.077682905 0.04861072 0.005710373 -0.0056688106 0.51873386
-0.1036413 -0.048897248 -0.0039340826 0.013678695 -0.21355069 -0.1771369 -0.111184835 0.19499877
0.039488878 0.007334152 0.30039397 0.11955958 -0.022318939 -0.15918507 -0.18757194 -0.20382452
0.03485239 -0.1793763 -0.052511208 -0.067790404 -0.02473058 -0.06507601 -0.3820302 -0.6639957
0.078052305 0.96665365 0.4155135 -0.21342477 0.0665966 -0.002686208 -0.036691792 0.53660464
-0.47463423 0.21971403 0.6425591 -0.82645625 -0.011974108 -0.108580016 -0.1912002 -0.35276598
-0.08684211 -0.03981755 0.018956905 0.13900629 0.14787884 -0.1595735 -0.028467169 0.15497369
-0.14319645 0.057163373 0.030260311 0.108762115 0.011639026 -0.019777268 -0.0042163776 0.0013684938
-0.06394852 -0.005403794 0.12269654 0.24695909 0.034187574 -0.31318036 -0.11705518 -0.22356597
-0.5258195 -0.8597916 0.023233807 -0.47050703 -0.3758503 -0.010619351 -0.035182957 -0.037683778
0.053223766 -0.42990395 -0.16686298 -0.46809015 -0.11384146 0.1463587 -0.013453951 0.02278663
0.01740235 -0.02917493 -0.068786554 0.018899504 -0.004639141 -0.07494498 0.029155059 -0.033195294
-0.06637001 -0.16523811 -0.2870146 -0.012745992 -0.04858894 -0.011198771 0.14213227 -0.15756597
-0.21214741 -0.032652497 -0.16475731 -0.046001147 -0.014508854 0.017384537 0.03883752 -0.10729227
0.20553409 -0.5730893 -0.038718473 0.0606436 -0.014638068 -0.012735438 0.075795956 -0.1572825
-0.08049047 -0.05702126 -0.03804815 0.03400341 0.06387704 -0.02911857 0.06534537 0.0003080286
0.056218762 -0.11029512 -0.5908898 -0.01465614 -0.02632912 -0.015843261 -0.0037136246 0.0028437537
0.007222567 -0.12339728 -0.22106019 0.23940909 -0.21200743 0.026520992 -0.06821596 0.011013189
-0.074947365 -0.02044868 -0.07805092 -0.010694921 -0.034766603 0.013220493 -0.058097012 -0.0074818055
-0.072619244 -0.08140356 -0.09868654 0.0091578085 0.028368497 -0.06320977 -0.05229878 0.004167891
-0.018066065 -0.0069351825 -0.032743104 -0.026505888 -0.04186158 -0.0111694345 -0.025185658 -0.034865618
0.03982019 -0.08168747 -0.013482509 -0.073343955 -0.14575894 -0.023525488 -0.06818509 0.02810591
-0.007937798 -0.078210324 0.041877948 0.027738912 -0.06425101 -0.044680905 0.05122173 -0.004676201
0.031928755 0.0049797 0.053120743 -0.0073563205 0.060977563 -0.0031000779 0.04059406 -0.07629892
0.034319058 -0.036691707 -0.058748893 -0.06622689 -0.010246402 -0.06645598 -0.021211538 -0.12558587
0.03755328 -0.09483107 0.037936304 -0.06535736 0.0534135 -0.02723745 -0.08111314 0.030338783
00000000: db7e 843e e7d3 a6be 4d28 60be c99a 92bd
00000010: fe9a 34bc 0f2b 41bd b32c 5abd e449 d9be
00000020: 41be 8c3d b7d8 853c 0aad a0be de67 ef3d
00000030: 283b 423d 0863 8dbd 1666 cd3e e413 2dbe
00000040: c3c8 7abe 146c 20be 4234 63be f2b9 80be
00000050: c662 c3be 05dd 64bd 0a30 8dbc cb8d a93c
00000060: 17cb 4b3e c55c a9bd 3a8f 513e f6c6 b63e
00000070: c4d0 5cbf a6cb 10be 526c d1be 921d 8abe
00000080: e875 303e 0a0f 31be ed66 56be c903 ac3c
00000090: f8c9 08be 0d94 42bd 512c c5bd 08c6 9ebb
000000a0: 1474 91be 1d1d 75bd c9c3 ee3b 6c37 c73c
000000b0: 1718 1b3c abaa 573e 0fd9 fc3d b4ee a23e
000000c0: 4bb3 6dbe ead6 78bd f1ca 97bd 3718 9fbd
000000d0: 091c 473d 151e bb3b 6ec1 b9bb becb 043f
000000e0: e441 d4bd 7b48 48bd 7ae9 80bb 9b1c 603c
000000f0: 08ad 5abe 6063 35be e0b4 e3bd c2ad 473e
00000100: 17bf 213d 5353 f03b 3dcd 993e a7db f43d
00000110: 35d6 b6bc 6901 23be dc12 40be 60b7 50be
00000120: 61c1 0e3d 6cae 37be fe15 57bd b2d5 8abd
00000130: c997 cabc 9246 85bd 7699 c3be 9ffb 29bf
00000140: e3d9 9f3d 9d76 773f 2fbe d43e 068c 5abe
00000150: cc63 883d 180b 30bb 224a 16bd ec5e 093f
00000160: 4203 f3be b7fc 603e c17e 243f a392 53bf
00000170: 0d2f 44bc 335f debd fcc9 43be be9d b4be
00000180: 47da b1bd ba17 23bd 834b 9b3c aa57 0e3e
00000190: 8d6d 173e 3c67 23be fb33 e9bc 6cb1 1e3e
000001a0: 17a2 12be 2424 6a3d 79e4 f73c acbe de3d
000001b0: 9db1 3e3c f003 a2bc 8a29 8abb 085f b33a
000001c0: 71f7 82bd 4f12 b1bb 5348 fb3d d8e2 7c3e
000001d0: 4508 0c3d 2d59 a0be a0ba efbd 7aee 64be
000001e0: 1b9c 06bf 4d1b 5cbf d354 be3c 4ce6 f0be
000001f0: 736f c0be c9fc 2dbc 011c 10bd 4e5a 1abd
00000200: 2a01 5a3d 5f1c dcbe 21de 2abe 83a9 efbe
00000210: b625 e9bd 0edf 153e f66d 5cbc 07ab ba3c
00000220: 608f 8e3c 4300 efbc f7df 8cbd 22d3 9a3c
00000230: ef03 98bb c17c 99bd 97d6 ee3c caf7 07bd
00000240: 00ed 87bd 2e34 29be 94f3 92be 91d4 50bc
00000250: 3205 47bd 0d7b 37bc 1f8b 113e f958 21be
00000260: 2c3d 59be a0be 05bd 24b6 28be b36b 3cbd
00000270: 8bb6 6dbc 046a 8e3c 1714 1f3d 0dbc dbbd
00000280: 8777 523e fbb5 12bf 4397 1ebd 6c65 783d
00000290: 82d4 6fbc 4ca8 50bc e93a 9b3d aa0e 21be
000002a0: 30d8 a4bd 208f 69bd 60d8 1bbd 2947 0b3d
000002b0: f7d1 823d 118a eebc cbd3 853d e67e a139
000002c0: a545 663d 68e2 e1bd 8e44 17bf 4e20 70bc
000002d0: 2bb0 d7bc bac9 81bc 4860 73bb 455e 3a3b
000002e0: 49ab ec3b b7b7 fcbd 9a5d 62be a827 753e
000002f0: 7a18 59be 8d42 d93c cfb4 8bbd aa70 343c
00000300: 017e 99bd fd83 a7bc 29d9 9fbd c039 2fbc
00000310: 6d67 0ebd c49a 583c 22f7 6dbd ef29 f5bb
00000320: 66b9 94bd e9b6 a6bd 2b1c cabd a20a 163c
00000330: 0d65 e83c 2074 81bd 3f37 56bd ce92 883b
00000340: 49ff 93bc 8740 e3bb a21d 06bd e022 d9bc
00000350: 0c77 2bbd 0100 37bc 2752 cebc 40cf 0ebd
00000360: 7f1a 233d c34b a7bd bee5 5cbc 5b35 96bd
00000370: d541 15be 86b8 c0bc a0a4 8bbd 5e3e e63c
00000380: 8a0d 02bc bc2c a0bd 3688 2b3d b73c e33c
00000390: 0996 83bd 5303 37bd e0cd 513d d13a 99bb
000003a0: bac7 023d c02c a33b 2395 593d 4a0d f1bb
000003b0: 9cc3 793d ad2a 4bbb f545 263d 9c42 9cbd
000003c0: 2492 0c3d 0b4a 16bd aea2 70bd f7a1 87bd
000003d0: 86e0 27bc 131a 88bd d2c3 adbc 9599 00be
000003e0: 78d1 193d cb36 c2bd 1963 1b3d 14da 85bd
000003f0: 1dc8 5a3d 1321 dfbc a51e a6bd 0a89 f83c

conv_layers.1.bias f4 [64]
0.20333846 -0.06570136 -0.034583125 -0.19679391 -0.14691429 -0.10502051 -0.072746426 -0.46051034
-0.06359323 -0.17688322 -0.19919005 -0.25748935 -0.06380805 -0.095527574 -0.25161085 -0.15865543
-0.07344613 -0.06600031 -0.075725354 -0.019651527 0.021126501 -0.1307879 -0.2111094 0.004510558
-0.07769756 0.27670524 -0.1173389 -0.20271644 -0.3559295 0.15669212 -0.06958524 -0.076596215
-0.0940702 -0.06472574 -0.07435455 -0.046507392 -0.19261374 0.08153444 -0.23295821 -0.11072609
-0.08979497 -0.08235629 0.015559611 -0.057046544 -0.24490169 -0.1416907 -0.2498846 -0.06961674
-0.076826565 0.21361901 -0.1283111 -0.05032857 -0.012645768 -0.05370405 -0.09116013 -0.14757676
-0.005087164 -0.051153302 -0.076144524 0.06068052 -0.08543239 -0.21533197 -0.08522243 -0.08331778
00000000: f537 503e 6f8e 86bd 09a7 0dbd 5884 49be
00000010: b370 16be fe14 d7bd 14fc 94bd 03c8 ebbe
00000020: 2b3d 82bd e020 35be 7af8 4bbe a5d5 83be
00000030: cbad 82bd f6a3 c3bd 23d3 80be 9276 22be
00000040: ed6a 96bd 2c2b 87bd e515 9bbd 3dfc a0bc
00000050: 7c11 ad3c 43ed 05be 102d 58be 4ecd 933b
00000060: e61f 9fbd 4fac 8d3e 614f f0bd e694 4fbe
00000070: 643c b6be e673 203e b582 8ebd 7ade 9cbd
00000080: e1a7 c0bd ee8e 84bd 3347 98bd 897e 3ebd
00000090: 893c 45be 87fb a63d 998c 6ebe 5cc4 e2bd
000000a0: 6de6 b7bd 6aaa a8bd bded 7e3c a3a9 69bd
000000b0: 82c7 7abe 5e17 11be c0e1 7fbe 3993 8ebd
000000c0: 3f57 9dbd f1be 5a3e fc63 03be 5525 4ebd
000000d0: 3230 4fbc c7f8 5bbd 2ab2 babd 5d1e 17be
000000e0: 3ab2 a6bb 2086 51bd a9f1 9bbd 238c 783d
000000f0: 2df7 aebd fc7f 5cbe 1989 aebd 83a2 aabd

conv_layers.2.weight f4 [64, 64, 3]
0.023238134 0.045296397 -0.07073752 -0.046953894 0.051235452 -0.0012713756 0.009434886 -0.09134798
-0.07517637 -0.017931601 0.0021945273 -0.0051607867 0.02635362 -0.02039455 0.043031465 -0.017007645
-0.009894476 0.058357853 0.051297087 0.025042895 -0.07542428 -0.068542555 0.027321933 0.00077339954
0.0065037566 0.025594477 0.02933345 0.06329501 0.041099876 -0.041525677 0.040213555 0.03693205
-0.07172797 -0.066585205 -0.04895315 -0.11153057 -0.062033627 -0.033729743 -0.03380108 -0.012007506
-0.11515231 -0.0039375387 0.019507231 0.04400707 -0.0450334 0.039470665 0.018469648 -0.12543191
-0.118848294 -0.032442097 0.020567087 -0.022434808 0.012847206 0.04022992 -0.10173801 0.01699737
0.020353133 -0.0031222918 0.017297264 -0.0539145 -0.08396302 -0.004619285 -0.00074386195 -0.013317341
-0.01856351 7.390239e-05 -0.027481161 -0.08058243 -0.07294147 -0.058854703 -0.05749083 0.020533348
-0.06027488 -0.034777183 0.001180704 -0.00976388 -0.1433825 -0.0074850125 0.038665555 0.03459516
0.028070426 0.00485557 -0.117481366 -0.04216725 -0.010487133 -0.015501666 0.02721847 -0.12896384
-0.060805514 -0.111373566 -0.00260641 0.035699815 -0.026290158 -0.077529564 -0.05492306 0.033162404
0.038512472 -0.018793836 0.019629769 -0.015670238 -0.024672695 -0.020963801 0.007230114 0.055139087
-0.06742974 0.051482912 0.045494664 0.062775426 -0.044188183 0.05829278 -0.0277895 -0.026395803
-0.027898323 -0.0770151 -0.11535112 -0.15059072 -0.1685124 0.054600924 0.0055362196 0.037101552
-0.08637135 0.037953187 -0.015685225 -0.016615108 0.013509874 -0.025961595 -0.10633777 -0.027471956
-0.15510307 -0.09676382 -0.014441884 0.0029619383 0.014411873 -0.004785718 -0.013604877 -0.063918054
-0.12794437 -0.15294805 -0.0542374 0.046758868 -0.040829845 0.055307224 0.05782109 -0.06940278
-0.02120513 0.020763338 -0.00021175142 -0.11082614 0.027754012 -0.1249502 0.004092281 0.01637584
-0.044874616 0.052431848 -0.030496648 -0.056620847 -0.040464297 0.054176968 -0.04420327 -0.02292824
-0.04921653 0.037463084 0.004632895 0.024829801 -0.049983278 -0.07662793 0.020835718 0.003196141
0.049303275 0.057906363 -0.04068611 0.03983815 0.027736085 -0.042307533 0.015928702 0.0062889312
-0.060404282 -0.023643728 -0.082278535 -0.095778964 -0.038548775 0.027056154 0.03055081 -0.013748267
0.06550134 -0.03481122 -0.045007043 0.014318666 -0.029339284 -0.004062891 0.005318362 -0.013830814
-0.05755541 -0.14183863 -0.066234805 -0.017971557 -0.022816481 0.002971367 -0.076491125 -0.028576989
-0.07508382 -0.028130485 0.027574254 0.049770337 0.004846578 0.01942881 0.058436614 0.061882
0.05751681 0.052498408 0.001114663 0.035149764 0.011145412 -0.09332981 -0.022028422 -0.19149137
-0.039708074 -0.11745566 -0.029260952 -0.02559232 0.06522392 -0.014448902 -0.12528336 -0.09795651
-0.056065824 -0.05810273 -0.17253171 -0.003883414 0.033460334 0.039889857 0.05303131 -0.09449364
-0.06572114 -0.017372096 -0.075666346 -0.16804068 -0.11047326 -0.098378494 -0.29904664 -0.051672988
-0.14041837 -0.1900391 -0.06648297 0.094209045 -0.037160374 0.05090993 -0.06879759 -0.14511867
-2.7122269e-05 0.03202921 -0.013288556 0.029585846 0.108523265 -0.06441353 0.023509454 0.051493004
00000000: e65d be3c b788 393d d5de 90bd ba52 40bd
00000010: 44dc 513d 49a4 a6ba c894 1a3c a614 bbbd
00000020: 12f6 99bd 4be5 92bc 0fd2 0f3b d11b a9bb
00000030: 8ce3 d73c 7912 a7bc c341 303d 9e53 8bbc
00000040: 711c 22bc a508 6f3d e51c 523d c226 cd3c
00000050: 0b78 9abd 0a60 8cbd 3fd2 df3c f7bd 4a3a
00000060: 771d d53b 82ab d13c b44c f03c d0a0 813d
00000070: 5858 283d d416 2abd f8b6 243d 1046 173d
00000080: 1de6 92bd d35d 88bd 1983 48bd 246a e4bd
00000090: f916 7ebd 3328 0abd 0073 0abd 21bb 44bc
000000a0: f9d4 ebbd 7806 81bb a1cd 9f3c c240 343d
000000b0: f174 38bd feab 213d a94d 973c 3971 00be
000000c0: bc66 f3bd 01e2 04bd 4f7c a83c 34c9 b7bc
000000d0: 167d 523c 21c8 243d 055c d0bd 123e 8b3c
000000e0: 9dbb a63c 5d9f 4cbb feb2 8d3c 73d5 5cbd
000000f0: cef4 abbd 5f5d 97bb bbff 42ba fa30 5abc
00000100: 8112 98bc 0bfc 9a38 2c20 e1bc 6708 a5bd
00000110: 5662 95bd a111 71bd 817b 6bbd 8d35 a83c
00000120: cbe2 76bd 8572 0ebd dac1 9a3a aef8 1fbc
00000130: ddd2 12be d644 f5bb c65f 1e3d a8b3 0d3d
00000140: f3f3 e53c 791b 9f3b 129a f0bd 91b7 2cbd
00000150: 39d2 2bbc b3fa 7dbc 45f9 de3c 190f 04be
00000160: 340f 79bd d317 e4bd 4ed0 2abb f839 123d
00000170: 755e d7bc d2c7 9ebd 01f7 60bd 4dd5 073d
00000180: 41bf 1d3d 88f5 99bc 9cce a03c df5e 80bc
00000190: 641e cabc 47bc abbc 98ea ec3b 86d9 613d
000001a0: 9b18 8abd bfdf 523d 9d58 3a3d 6790 803d
000001b0: abfe 34bd 69c4 6e3d cea6 e3bc 033c d8bc
000001c0: 068b e4bc 18ba 9dbd 353d ecbd 7434 1abe
000001d0: 848e 2cbe 38a5 5f3d 2d69 b53b ccf7 173d
000001e0: 76e3 b0bd cd74 1b3d 4d7e 80bc 681c 88bc
000001f0: 8558 5d3c 69ad d4bc 9ec7 d9bd de0c e1bc
00000200: 57d3 1ebe 1c2c c6bd a79d 6cbc 141d 423b
00000210: c71f 6c3c 83d1 9cbb fde6 5ebc 78e7 82bd
00000220: d903 03be 6a9e 1cbe 0928 5ebd 3a86 3f3d
00000230: 323d 27bd d489 623d cfd5 6c3d 0b23 8ebd
00000240: 61b6 adbc e017 aa3c 9709 5eb9 d1f8 e2bd
00000250: 625c e33c e4e5 ffbd 8b18 863b a026 863c
00000260: 72ce 37bd c7c2 563d 1bd4 f9bc 43eb 67bd
00000270: e4bd 25bd abe8 5d3d 7d0e 35bd 01d4 bbbc
00000280: 4697 49bd e472 193d 8acf 973b de67 cb3c
00000290: 44bb 4cbd 1bef 9cbd abaf aa3c 5976 513b
000002a0: 3bf2 493d 392f 6d3d 7aa6 26bd 542d 233d
000002b0: c936 e33c aa4a 2dbd e97c 823c 6113 ce3b
000002c0: 7b6a 77bd 7eb0 c1bc a681 a8bd c327 c4bd
000002d0: 52e5 1dbd dea4 dd3c b145 fa3c 6940 61bc
000002e0: 9125 863d 3696 0ebd 4e59 38bd d798 6a3c
000002f0: f058 f0bc 0022 85bb a745 ae3b a39a 62bc
00000300: 39bf 6bbd 253e 11be 1da6 87bd 1639 93bc
00000310: a1e9 babc 44bb 423b 61a7 9cbd 4a1a eabc
00000320: 8cc5 99bd e771 e6bc 67e3 e13c fbdb 4b3d
00000330: 0bd0 9e3b 2b29 9f3c 3b5b 6f3d fb77 7d3d
00000340: bf96 6b3d 9208 573d e219 923a 33f9 0f3d
00000350: 3f9b 363c b323 bfbd f374 b4bc 5016 44be
00000360: efa4 22bd 988c f0bd aab4 efbc fca6 d1bc
00000370: 1e94 853d 16bb 6cbc 484a 00be 6c9d c8bd
00000380: 47a5 65bd 21fd 6dbd 27ac 30be e080 7ebb
00000390: b40d 093d 8c63 233d 5c37 593d e285 c1bd
000003a0: ce98 86bd ed4f 8ebc f5f6 9abd db12 2cbe
000003b0: ce3f e2bd aa7a c9bd a41c 99be 0ea7 53bd
000003c0: d5c9 0fbe 9c99 42be 3928 88bd acf0 c03d
000003d0: 7a35 18bd ee86 503d c0e5 8cbd fd99 14be
000003e0: a184 e3b7 1031 033d 3eb8 59bc 045e f23c
000003f0: 7241 de3d 3eeb 83bd e696 c03c 54ea 523d

conv_layers.2.bias f4 [64]
-0.059987854 -0.14744808 -0.030118821 -0.07673817 -0.093391374 -0.23059712 -0.08743722 -0.22186986
-0.12752783 -0.023117416 -0.34291637 -0.1289738 -0.09444058 -0.19643217 -0.048283264 -0.06094316
-0.13990086 -0.13371004 -0.09731047 -0.18044303 -0.06089131 -0.20161243 -0.057110436 -0.08186751
-0.12659502 -0.07591298 -0.123853154 -0.096337326 -0.05159614 0.018347405 -0.08318574 -0.15231165
-0.12251662 -0.088534355 -0.15238862 -0.21803321 -0.04981144 -0.14720598 -0.11528106 0.020696264
-0.13835049 -0.06466585 -0.15312867 -0.099360414 -0.1590067 -0.23528497 -0.06627195 -0.17378338
-0.10410979 -0.06564587 -0.12565182 -0.053781368 0.37466967 -0.21451618 -0.16592287 -0.08790102
-0.11809765 -0.092918076 -0.103449896 -0.09519548 -0.099659935 -0.13595808 -0.044446394 0.5529133
00000000: d3b5 75bd a1fc 16be bfbb f6bc e728 9dbd
00000010: fa43 bfbd a721 6cbe 4912 b3bd da31 63be
00000020: a896 02be bc60 bdbc bc92 afbe b511 04be
00000030: 106a c1bd 8425 49be acc4 45bd 899f 79bd
00000040: 2c42 0fbe 49eb 08be b64a c7bd 0fc6 38be
00000050: 2b69 79bd 7d73 4ebe a2ec 69bd 27aa a7bd
00000060: 20a2 01be 4478 9bbd b9a6 fdbd 814c c5bd
00000070: 7956 53bd 4c4d 963c 495d aabd 96f7 1bbe
00000080: fee9 fabd 8051 b5bd c30b 1cbe 1944 5fbe
00000090: 1507 4cbd 2abd 16be 7a18 ecbd 368b a93c
000000a0: c0ab 0dbe 876f 84bd c3cd 1cbe 797d cbbd
000000b0: a7d2 22be 8bee 70be 97b9 87bd 45f4 31be
000000c0: 8337 d5bd 5871 86bd dfaa 00be da49 5cbd
000000d0: b4d4 bf3e 21aa 5bbe afe7 29be 7305 b4bd
000000e0: 2edd f1bd d54b bebd 8add d3bd d9f5 c2bd
000000f0: 821a ccbd 9838 0bbe 6c0d 36bd ba8b 0d3f

conv_layers.3.weight f4 [64, 64, 3]
0.017505847 -0.036757167 0.019475952 0.09633969 0.058538143 -0.03812598 0.021397116 0.017954985
0.022550602 -0.07250482 -0.043316647 0.05315614 -0.03307902 -0.06791459 0.014704261 0.05075229
0.017699003 0.07138354 0.046788033 -0.048560858 0.02198212 -0.012411289 0.020516464 0.046400614
0.060036093 -0.02678145 -0.061924893 0.07916151 -0.02252523 0.096671015 0.06173303 -0.040422052
-0.06311282 0.08469681 0.014902197 -0.03333774 -0.026488995 0.0034064671 -0.07468005 -0.03930879
-0.01078171 0.051758233 0.029740747 -0.02958889 -0.0825192 -0.05834375 -0.03237603 -0.0472559
0.05982841 -0.050027527 -0.01555602 -0.017671607 -0.011020368 -0.043066572 -0.054565504 -0.063779816
-0.018696856 -0.046239365 0.021489428 -0.123220906 -0.08282634 -0.019926148 -0.008929104 0.0029760888
-0.019565688 -0.016448557 -0.018082786 -0.06347285 0.01048524 -0.00032017328 -0.025360469 0.05930853
-0.16357055 -0.046506222 -0.0010700906 0.027870392 -0.03982855 -0.0380087 -0.056230884 -0.029034626
0.015339968 0.060320687 -0.012895321 -0.030746989 0.05441362 -0.0037623947 -0.11242353 -0.0074297828
-0.16606933 -0.042252347 0.19863778 -0.034165338 0.03306858 0.017621662 -0.10931433 0.07135572
-0.04364816 0.047875196 -0.041446276 -0.020732015 -0.03400268 0.10097929 -0.014528937 -0.023135854
0.10071566 -0.05674779 -0.070639886 -0.034450755 0.06359318 0.045541216 0.012984552 -0.01650373
-0.044450805 -0.037719697 -0.03436759 -0.06616904 -0.036985938 0.098067135 -0.03476537 -0.027450794
-0.03200648 0.026238024 0.029316228 0.042125527 0.026053287 -0.07891618 -0.05674831 0.01853706
-0.015574627 0.009497775 -0.015091034 0.028427603 0.16770403 -0.017985879 -0.04493573 0.030235728
0.02640596 -0.022236096 -0.014163069 0.012760611 0.023264969 0.02347027 -0.036443323 -0.07386251
-0.046979565 -0.041829463 -0.042813435 -0.01608083 0.040319335 -0.044824235 -0.07456969 -0.012238206
-0.0970605 0.01611028 -0.05295325 0.06652001 0.029816736 -0.029404938 0.038006574 0.04678514
-0.053064376 -0.01547182 -0.16819592 -0.13782023 -0.12321396 -0.0030917735 0.05621001 -0.009837695
0.012855204 -0.055075675 -0.022263376 0.027316121 -0.018189283 -0.02323094 0.056735598 -0.056537423
-0.03993832 -0.025522256 -0.029359642 -0.058516096 0.06725092 -0.05556102 -0.029415138 -0.030811539
-0.02981458 -0.030019 -0.027463255 -0.0063839112 0.031249074 -0.054333605 -0.1011052 -0.11297699
-0.06454548 0.0494578 -0.06382025 -0.059295036 -0.07525869 -0.045396768 0.03763268 -0.05316983
-0.04443792 -0.08517246 0.0030569406 -0.008771903 0.03556619 -0.02153212 -0.023835234 -0.0033885145
-0.1217654 -0.048570067 -0.03711097 0.04107357 -0.015977452 -0.027805086 0.019172858 -0.0044050757
0.08051491 -0.07539224 0.030308982 -0.03927176 -0.12099056 -0.0696436 0.10276967 0.17255215
-0.068285 0.048554696 -0.06568514 0.050077204 0.024086077 -0.048379257 -0.05301893 0.028123872
-0.062429756 -0.14006 -0.06638035 0.033293303 -0.061737858 0.004135731 -0.007281859 0.042732373
-0.024712458 -0.03813053 0.03482562 0.026138663 -0.0020955799 -0.031271942 0.0041801445 0.024689162
-0.0035317556 -0.09629352 -0.07389965 -0.070526 0.030097365 0.08463848 -0.0043989955 0.00014086651
00000000: 6c68 8f3c af8e 16bd 088c 9f3c be4d c53d
00000010: b1c5 6f3d fd29 1cbd 0149 af3c 5516 933c
00000020: 0abc b83c 687d 94bd cc6c 31bd 41ba 593d
00000030: de7d 07bd ce16 8bbd 24ea 703c a2e1 4f3d
00000040: 80fd 903c 8931 923d cfa4 3f3d c0e7 46bd
00000050: d913 b43c b858 4bbc 2512 a83c 920e 3e3d
00000060: 68e8 753d c564 dbbc f5a4 7dbd 6e1f a23d
00000070: d586 b8bc 74fb c53d c6db 7c3d 9891 25bd
00000080: 4b41 81bd 8575 ad3d 5828 743c 278d 08bd
00000090: 73ff d8bc 093f 5f3b dbf1 98bd 4102 21bd
000000a0: c5a5 30bc 7100 543d dea2 f33c 6664 f2bc
000000b0: d4ff a8bd dbf9 6ebd ba9c 04bd 678f 41bd
000000c0: a30e 753d aae9 4cbd adde 7ebc 0cc4 90bc
000000d0: c68e 34bc 9366 30bd 1480 5fbd fe9e 82bd
000000e0: 262a 99bc 7d65 3dbd 990a b03c 3e5b fcbd
000000f0: dba0 a9bd 293c a3bc 604b 12bc 7c0a 433b
00000100: 3948 a0bc 20bf 86bc 5a22 94bc 0efe 81bd
00000110: 49ca 2b3c eedc a7b9 c2c0 cfbc 80ed 723d
00000120: 0a7f 27be 4f7d 3ebd 4842 8cba 7350 e43c
00000130: 4323 23bd 03af 1bbd 5b52 66bd 06da edbc
00000140: 7d54 7b3c d312 773d e546 53bc 1ce1 fbbc
00000150: d1e0 5e3d 8292 76bb 4f3e e6bd 8975 f3bb
00000160: 140e 2abe cc10 2dbd b467 4b3e f4f0 0bbd
00000170: eb72 073d 4e5b 903c 31e0 dfbd f322 923d
00000180: 6ac8 32bd c818 443d 92c3 29bd 30d6 a9bc
00000190: 6546 0bbd 3bce ce3d c70a 6ebc 6787 bdbc
000001a0: 0344 ce3d 5f70 68bd a5ab 90bd 3c1c 0dbd
000001b0: 243d 823d 6d89 3a3d 29bd 543c d532 87bc
000001c0: 0c12 36bd f87f 1abd 08c5 0cbd a283 87bd
000001d0: 917e 17bd 6cd7 c83d 2266 0ebd 7de0 e0bc
000001e0: 3a19 03bd 20f1 d63c 9628 f03c d18b 2c3d
000001f0: b46d d53c ce9e a1bd ea70 68bd 08db 973c
00000200: b82c 7fbc 8e9c 1b3c 6240 77bc 01e1 e83c
00000210: 9bba 2b3e 1f57 93bc 870e 38bd ebb0 f73c
00000220: 5051 d83c 7928 b6bc 380c 68bc e211 513c
00000230: 2d96 be3c b944 c03c 9845 15bd 3a45 97bd
00000240: a56d 40bd 5f55 2bbd 245d 2fbd f2bb 83bc
00000250: e325 253d 9e99 37bd feb7 98bd c282 48bc
00000260: a8c7 c6bd b5f9 833c 82e5 58bd a53b 883d
00000270: 3a42 f43c a0e2 f0bc c8ac 1b3d c6a1 3f3d
00000280: 085a 59bd 847d 7dbc 8d3b 2cbe bf20 0dbe
00000290: 9a57 fcbd 5a9f 4abb 783c 663d 492e 21bc
000002a0: a29e 523c 0897 61bd af61 b6bc 0fc6 df3c
000002b0: b101 95bc d04e bebc 9663 683d c993 67bd
000002c0: 5d96 23bd 0d14 d1bc a283 f0bc 93ae 6fbd
000002d0: daba 893d f493 63bd 04f8 f0bc 7b68 fcbc
000002e0: b53d f4bc 68ea f5bc 9ffa e0bc 2130 d1bb
000002f0: 0ffe ff3c ea8c 5ebd 3e10 cfbd 7b60 e7bd
00000300: 6c30 84bd 4394 4a3d 31b4 82bd 5adf 72bd
00000310: 3a21 9abd f6f1 39bd ba24 1a3d 9cc8 59bd
00000320: 8904 36bd e66e aebd f456 483b 07b8 0fbc
00000330: daad 113d 2164 b0bc 1c42 c3bc d711 5ebb
00000340: 2360 f9bd 68f1 46bd ac01 18bd c23c 283d
00000350: 25e3 82bc 7ec7 e3bc 6610 9d3c 7458 90bb
00000360: 00e5 a43d 3f67 9abd 8b4a f83c 6ddb 20bd
00000370: e6c9 f7bd 4ea1 8ebd e878 d23d 83b1 303e
00000380: 02d9 8bbd 4ae1 463d ee85 86bd c11d 4d3d
00000390: 2a50 c53c 5429 46bd 612a 59bd 0964 e63c
000003a0: 58b6 7fbd e36b 0fbe 6cf2 87bd 8f5e 083d
000003b0: d6e0 7cbd 0785 873b a99c eebb 2408 2f3d
000003c0: c871 cabc c22e 1cbd 4fa5 0e3d c020 d63c
000003d0: ff55 09bb 0217 00bd 98f9 883b ed40 ca3c
000003e0: 0775 67bb 8935 c5bd b358 97bd ef6f 90bd
000003f0: c08e f63c f056 ad3d 7325 90bb 91b5 1339

conv_layers.3.bias f4 [64]
-0.1050461 -0.19810602 -0.06456603 -0.09429572 -0.017499842 -0.07988417 -0.09188032 -0.10628823
-0.12531765 -0.08585378 -0.15137157 -0.12784572 -0.08875933 -0.06758002 -0.070133515 -0.20774373
-0.006417484 -0.014767533 -0.055409897 -0.13834321 -0.20741363 -0.08086974 -0.049220663 -0.04282282
-0.1261312 -0.018169608 -0.100839585 -0.23346296 -0.13157408 -0.15973988 -0.03678254 -0.2003988
-0.2896635 -0.028168676 -0.14324547 -0.12714443 -0.06800912 -0.07439367 -0.16625637 -0.2531943
-0.22910471 -0.12338799 -0.29435468 -0.105432056 -0.006627191 -0.112122774 -0.109607995 -0.19082128
-0.09614487 -0.03133346 -0.13156806 -0.1170163 0.057804495 -0.061151937 -0.19725585 -0.062457014
-0.07769803 -0.12597919 0.17549887 -0.18623383 -0.108294986 -0.13257799 -0.17204413 -0.088259555
00000000: 6922 d7bd 4edc 4abe 323b 84bd 1d1e c1bd
00000010: d45b 8fbc 509a a3bd c02b bcbd a5ad d9bd
00000020: 4553 00be 1bd4 afbd 2601 1bbe fde9 02be
00000030: 74c7 b5bd 6567 8abd 29a2 8fbd c6ba 54be
00000040: c249 d2bb 86f3 71bc 7df5 62bd d8a9 0dbe
00000050: 3d64 54be 099f a5bd 9b9b 49bd fb66 2fbd
00000060: 8a28 01be 6ed8 94bc fc84 cebd ea10 6fbe
00000070: 5bbb 06be da92 23be 4aa9 16bd 5835 4dbe
00000080: c64e 94be ffc1 e6bc f1ae 12be 2632 02be
00000090: 5e48 8bbd b55b 98bd 1c3f 2abe afa2 81be
000000a0: 6d9a 6abe d8b2 fcbd a8b5 96be c3ec d7bd
000000b0: e828 d9bb a0a0 e5bd 287a e0bd a766 43be
000000c0: 9ae7 c4bd 8457 00bd c7b9 06be 3ea6 efbd
000000d0: 68c4 6c3d 747a 7abd 70fd 49be edd2 7fbd
000000e0: 2520 9fbd b000 01be fab5 333e 15b4 3ebe
000000f0: c3c9 ddbd 86c2 07be 562c 30be 6dc1 b4bd

dense.weight f4 [3, 3200]
-0.023624193 0.011210128 -0.0012504072 0.00059657265 0.0055538025 0.016264228 0.009311264 0.0005825134
0.024340091 -0.005570557 0.0064557227 0.025148941 0.029628292 0.018289296 0.0042798305 0.0018971689
0.023525331 -0.0070156283 0.018987345 0.017235192 0.009430906 0.009839407 0.015259021 0.019248549
0.010521814 0.004930137 -0.008518062 0.0019998814 0.007225845 -0.007966673 -0.0044048186 -0.009842177
0.013951804 0.008068548 -0.023804426 -0.009910108 -0.018752385 0.0021928658 0.01725717 -0.013195344
-0.013230208 -0.004809622 -0.003530556 -0.027863093 -0.017844373 -0.025678473 -0.032994553 -0.018915556
-0.03538269 0.011666959 -0.024967398 0.014077625 -0.030371824 -0.056210633 -0.018274069 -0.0047754017
-0.000641447 0.0024947044 -0.00396055 -0.013646548 -0.0065456224 -0.013147325 -0.019973738 -0.019581068
-0.012365508 -0.019984163 0.008096215 -0.0134164505 0.007015831 0.0039806254 -0.015494965 -0.015509062
-0.0011031805 -0.0029011331 -0.014539708 -0.01715475 0.003172567 -0.0059347544 -0.013170669 -0.0010625445
0.007336957 0.0013674974 -0.0069033867 0.005480363 -0.0014247071 -0.012999363 -0.018248025 -0.0048608524
-0.0137518635 -0.023177074 -0.008523877 -0.008668061 -0.0050694784 0.012280511 -0.015962899 0.0014041737
0.003890811 0.036822975 -0.012338334 -0.0077527 0.04634104 -0.10020362 0.027803997 0.016397124
0.017927658 0.014074825 0.0070147673 -0.016239539 -0.0019322428 -0.013709996 0.025024746 0.0008953768
-0.011100085 -0.016138155 0.06979262 0.03370976 0.009794245 -0.004477027 0.041768074 0.0141089205
0.0017454631 0.015992891 0.017449632 0.053645186 0.023924828 0.020441294 0.012541331 0.016042734
0.027508292 0.03626867 0.052155893 -0.0009719329 -0.0023328648 0.024467815 0.026590103 0.03329971
0.02793885 0.0359983 0.0032645408 0.033880383 0.0117277205 -0.0071364115 0.016803203 0.042907238
0.0109971715 -0.008676181 0.018792985 0.058031276 0.011812728 0.03587636 -0.059883013 -0.03358689
-0.031275157 -0.020760413 -0.0025064198 -0.034225605 -0.01486265 -0.01792818 -0.008220616 -0.0072007077
-0.012719168 -0.006768881 -0.0033077304 -0.023929575 -0.0024548501 -0.020293623 -0.022661483 -0.013629196
-0.022287391 -0.02512412 -0.02279306 -0.011674822 -0.01628394 -0.021713719 -0.0010235914 -0.013468311
-0.004440333 -0.021054942 -0.022338852 -0.008379554 -0.01925747 -0.0024069173 -0.008904149 -0.013005628
-0.022692079 -0.0019789163 -0.0141530745 -0.032191426 -0.0064714835 -0.01717455 -0.01580393 -0.0040721353
-0.019983353 -0.03131461 -0.0006841373 -0.025553187 -0.029049382 -0.011017695 -0.010957625 -0.003798849
-0.07243364 0.04236638 -0.030010054 0.0005242707 0.079096824 -0.078404985 0.009345716 -0.07905359
-0.066334724 -0.114021316 -0.007824389 0.05896681 0.021403704 -0.027215045 -0.063704975 -0.05316337
0.00953664 -0.0076129227 0.19242266 0.12899889 -0.0158221 -0.03786198 0.06692981 0.006171205
0.029267056 -0.049875658 0.01661562 0.06508539 0.00804412 -0.099940576 -0.095026225 -0.027837008
-0.11523978 0.043185413 0.19041525 0.016064122 0.0601774 -0.10166146 0.06782659 0.036785714
-0.11392381 -0.24162486 -0.034868293 -0.13882416 -0.16817535 -0.07699445 -0.02127056 0.27827755
0.011542277 0.33557504 0.25692695 0.0016662794 0.038045805 0.06550252 0.0725404 0.05083435
00000000: 8687 c1bc afaa 373c b4e4 a3ba 5063 1c3a
00000010: acfc b53b 8f3c 853c 468e 183c d0b3 183a
00000020: df64 c73c 3889 b6bb 878a d33b 2705 ce3c
00000030: 08b7 f23c 6fd3 953c d23d 8c3b 6daa f83a
00000040: 32b8 c03c 5be3 e5bb 598b 9b3c d130 8d3c
00000050: 1684 1a3c 7735 213c f900 7a3c 22af 9d3c
00000060: b063 2c3c fd8c a13b 578f 0bbc 7110 033b
00000070: c8c6 ec3b a686 02bc 4c56 90bb 1541 21bc
00000080: 1b96 643c f131 043c 8001 c3bc 015e 22bc
00000090: 9a9e 99bc 2fb6 0f3b e95e 8d3c 4931 58bc
000000a0: 84c3 58bc 099a 9dbb e760 67bb 2441 e4bc
000000b0: 5d2e 92bc a95b d2bc 4c25 07bd ccf4 9abc
000000c0: 71ed 10bd c626 3f3c 6e88 ccbc d7a5 663c
000000d0: 55ce f8bc 1f3d 66bd 80b3 95bc f97a 9cbb
000000e0: c826 28ba 327e 233b 80c7 81bb c595 5fbc
000000f0: a97c d6bb e167 57bc f79f a3bc 7a68 a0bc
00000100: b398 4abc d4b5 a3bc fda5 043c acd0 5bbc
00000110: 0ee5 e53b e86f 823b 98de 7dbc b919 7ebc
00000120: 9898 90ba f020 3ebb f537 6ebc 1e88 8cbc
00000130: d8ea 4f3b 5478 c2bb cac9 57bc 1445 8bba
00000140: db6a f03b 993d b33a ce35 e2bb 9e94 b33b
00000150: 3dbd baba 48fb 54bc e27c 95bc c947 9fbb
00000160: 7f4f 61bc d9dd bdbc bba7 0bbc 7c04 0ebc
00000170: de1d a6bb 3234 493c a0c4 82bc 400c b83a
00000180: fafc 7e3b b0d3 163d b926 4abc 5c0a febb
00000190: 1ad0 3d3d 8e37 cdbd 35c5 e33c 4353 863c
000001a0: 06dd 923c 189a 663c 22dc e53b c808 85bc
000001b0: 4f43 fdba e49f 60bc b200 cd3c b8b7 6a3a
000001c0: 22dd 35bc 2a34 84bc 6fef 8e3d 3f13 0a3d
000001d0: 0a78 203c 06b4 92bb 0015 2b3d 1a29 673c
000001e0: 06c8 e43a 8603 833c 88f2 8e3c 0ebb 5b3d
000001f0: 00fe c33c 8074 a73c 287a 4d3c 0d6c 833c
00000200: 1259 e13c 758e 143d 6ba1 553d 50c9 7eba
00000210: fae2 18bb ba70 c83c 7dd3 d93c 4765 083d
00000220: 04e0 e43c f472 133d e8f1 553b 28c6 0a3d
00000230: a025 403c 8fd8 e9bb dfa6 893c 80bf 2f3d
00000240: 7b2d 343c 8a26 0ebc bff3 993c 34b2 6d3d
00000250: 2c8a 413c 17f3 123d e447 75bd 6892 09bd
00000260: 611a 00bd be11 aabc bf42 24bb 2630 0cbd
00000270: 7982 73bc 1ede 92bc c3af 06bc eaf3 ebbb
00000280: 0f64 50bc 7dcd ddbb 82c6 58bb f507 c4bc
00000290: 8de1 20bb d03e a6bc 93a4 b9bc fe4c 5fbc
000002a0: 0c94 b6bc 19d1 cdbc 83b8 babc c147 3fbc
000002b0: e665 85bc f8e0 b1bc 072a 86ba 31aa 5cbc
000002c0: 3780 91bb 6a7b acbc f8ff b6bc 664a 09bc
000002d0: d7c1 9dbc 5fbd 1dbb b5e2 11bc 8f15 55bc
000002e0: bde4 b9bc b5b0 01bb 4ce2 67bc 28db 03bd
000002f0: bd0e d4bb a4b1 8cbc 3e77 81bc 8c6f 85bb
00000300: 21b4 a3bc c043 00bd ad57 33ba eb54 d1bc
00000310: f8f8 edbc 9083 34bc 9c87 33bc 1cf6 78bb
00000320: 1758 94bd 5f88 2d3d a5d7 f5bc 366f 093a
00000330: 84fd a13d cb92 a0bd c61e 193c d9e6 a1bd
00000340: 80da 87bd 0284 e9bd de31 00bc 2f87 713d
00000350: d256 af3c 16f2 debc c177 82bd d5c1 59bd
00000360: 913f 1c3c d375 f9bb 720a 453e 4918 043e
00000370: 599d 81bc 2a15 1bbd 7f12 893d d237 ca3b
00000380: 77c1 ef3c 6b4a 4cbd 7b1d 883c 7d4b 853d
00000390: 7ccb 033c a5ad ccbd 1c9d c2bd 700a e4bc
000003a0: d502 ecbd 30e3 303d 37fc 423e e898 833c
000003b0: 947c 763d e233 d0bd abe8 8a3d 9eac 163d
000003c0: e350 e9bd 826c 77be 0ed2 0ebd ec27 0ebe
000003d0: 2936 2cbe 44af 9dbd 993f aebc 657a 8e3e
000003e0: d21b 3d3c 7ed0 ab3e ee8b 833e 0f67 da3a
000003f0: ebd5 1b3d 2f26 863d 1090 943d ae37 503d

dense.bias f4 [3]
0.34777576 0.35769257 0.36314178
00000000: aa0f b23e 7b23 b73e b8ed b93e
