dataset_test/TimesNet-for-Time-Series-Prediction/model_saved/sentiment_5.pt (torch, 193968 bytes, 10 tensors)

conv_layers.0.weight f4 [64, 4, 3]
-0.21065909 -0.05134662 -0.2879142 -0.53635204 -0.30465955 -0.7086801 -0.5125791 -0.8275999
-0.9196551 0.19337787 0.22102709 -0.9370675 -0.20132068 0.025902212 -0.023579808 -0.0048906207
-0.19643296 -0.11533463 -0.1976161 -0.24646388 0.19615577 -0.22813118 0.25386685 -0.0153750405
-0.0050963387 -0.22212426 -0.37668884 -0.08516259 0.12331589 0.11210715 -0.31324947 -0.29581723
-0.29338548 -0.11569209 0.049783256 0.025509361 -0.51458967 0.20463821 0.5467526 0.15879498
-0.12649892 0.23778953 -0.1790335 0.14825895 0.36246026 -0.37398717 -0.27317527 -0.8371279
0.15784083 0.30154783 0.046846215 0.3205872 0.6366154 -0.62586653 0.5105777 0.61372757
-0.85103494 0.18544064 0.22988792 -0.53452814 -0.3529911 -0.09436209 -0.081778474 -0.21823676
0.20425451 -0.3172512 -0.07697449 0.05556263 0.23130508 -0.0009282165 -0.3131344 -0.49059772
0.13995658 0.26385382 -0.1197228 -0.16073667 -0.020189805 0.10516832 0.17231017 0.0544568
0.17491911 -0.60661954 -0.5169724 -0.32658932 0.1344005 -0.1777148 0.089184746 0.115805276
0.20598029 0.21669954 -0.18658668 -0.0002053621 -0.2497199 -0.013798039 -0.2852146 0.078179635
0.20449816 -0.4035063 -0.2915719 -0.43051213 0.17326929 0.11001516 -0.14197801 0.07874243
0.1271046 -0.46990237 -0.4235705 -0.010151014 -0.018988615 -0.09990971 0.5387153 0.24191046
0.3298423 -0.24336503 -0.0030164 0.790506 -0.35285017 -0.32407066 -0.27527988 -0.18420087
-0.100352556 -0.07203155 0.071515456 0.045337766 -0.22956692 -0.103359655 -0.26058817 -0.09311743
0.18873684 0.1291855 -0.16250437 0.07753941 0.045703452 0.057531882 -0.005242633 -0.16634746
-0.62566775 -0.09254088 -0.084961966 -0.89047456 0.16354172 -0.41531858 0.0879128 -0.019037142
-0.44127384 -0.033572037 -0.04460075 -0.10491661 -0.12944086 -0.0562951 -0.04077266 0.22125795
-0.1661678 0.23561566 0.22421369 0.12650488 -0.059396505 -0.20711365 -0.10292915 0.16310917
-0.2040558 0.015657945 -0.15779005 0.21223027 -0.057163276 -0.00065817387 -0.22172724 -0.11824855
-0.18141441 0.10130588 0.28536528 -0.13535939 -0.17120506 -0.07187511 -0.41724575 0.041468807
0.081754066 -0.4171819 -0.15041943 -0.27897796 0.04834176 -0.020264825 0.030211866 -0.0010961957
-0.289363 -0.7558899 0.10039982 -0.70096964 -0.9941455 -0.006224167 0.016205722 -0.029080292
-0.1273153 -0.25622827 -0.19271031 0.14047521 -0.17539643 0.0016452051 -0.1749656 -0.282653
0.03515136 -0.018399056 -0.119528994 0.14358778 -0.23757266 -0.94907176 -0.54940325 -0.32960892
0.0017804317 0.0062807514 -0.23028408 -0.12591398 0.32645208 -0.42925525 -0.060303938 -0.26036432
-0.18706511 0.01870068 0.02435606 -0.036693938 -0.48078588 -0.32289547 0.19611134 -0.64932746
-0.72680503 -0.11458164 -0.7326287 -0.22155736 0.3244219 0.10364441 -0.99090743 -0.24785137
-0.28346908 -0.96535116 -0.64779615 -0.8506774 -1.1122265 0.21049891 0.02516207 -0.13435632
-0.14605898 0.31214455 0.5102655 -0.28951126 -0.1901423 -0.16796124 -0.05675176 -0.2943784
-0.02368428 -0.3173383 -0.2748345 0.0729652 -0.26890016 0.29621685 -0.13312407 0.3541648
00000000: 04b7 57be d550 52bd 7d69 93be 5e4e 09bf
00000010: 56fc 9bbe 0f6c 35bf 6238 03bf 96dd 53bf
00000020: 846e 6bbf d904 463e ed54 623e a8e3 6fbf
00000030: 0227 4ebe e030 d43c 712a c1bc 8041 a0bb
00000040: b925 49be 9034 ecbd e05b 4abe 0761 7cbe
00000050: 0fdd 483e 389b 69be d6fa 813e 98e7 7bbc
00000060: 30ff a6bb 8b74 63be 5cdd c0be b969 aebd
00000070: 0b8d fc3d 6f98 e53d 3c62 a0be 5b75 97be
00000080: 9f36 96be f9ef ecbd 87e9 4b3d 02f9 d03c
00000090: 26bc 03bf ae8c 513e faf7 0b3f 279b 223e
000000a0: ef88 01be 197f 733e 8f54 37be 32d1 173e
000000b0: 6494 b93e 3f7b bfbe a1dd 8bbe 044e 56bf
000000c0: 07a1 213e 7a64 9a3e d1e1 3f3d 0124 a43e
000000d0: 3af9 223f ca38 20bf 38b5 023f 401d 1d3f
000000e0: 6ddd 59bf 27e4 3d3e bd67 6b3e d6d6 08bf
000000f0: 40bb b4be e940 c1bd 797b a7bd 7579 5fbe
00000100: 1828 513e c06e a2be cda4 9dbd a495 633d
00000110: 3ddb 6c3e 8e53 73ba 2753 a0be a02f fbbe
00000120: c750 0f3e d917 873e 3a31 f5bd 2798 24be
00000130: 1765 a5bc 7d62 d73d 1472 303e 180e 5f3d
00000140: ff1d 333e 6b4b 1bbf 4e58 04bf b736 a7be
00000150: 49a0 093e defa 35be 7ea6 b63d 512b ed3d
00000160: 7fec 523e 7ce6 5d3e 9410 3fbe 7856 57b9
00000170: 93b6 7fbe 2c11 62bc a607 92be a51c a03d
00000180: f767 513e 6198 cebe e948 95be 166c dcbe
00000190: 816d 313e a14f e13d af62 11be b643 a13d
000001a0: b527 023e 0b97 f0be 3cde d8be 7050 26bc
000001b0: 038e 9bbc 769d ccbd 3fe9 093f 60b7 773e
000001c0: 17e1 a83e af34 79be cbae 45bb 9a5e 4a3f
000001d0: c7a8 b4be 97ec a5be 7cf1 8cbe 279f 3cbe
000001e0: a485 cdbd 4785 93bd b276 923d 18b4 393d
000001f0: 9713 6bbe 3aae d3bd d06b 85be 5ab4 bebd
00000200: 3b44 413e 3449 043e 8c67 26be fbcc 9e3d
00000210: 8b33 3b3d 8da6 6b3d 65ca abbb fd56 2abe
00000220: c32b 20bf 1386 bdbd 8a00 aebd 24f6 63bf
00000230: 7b77 273e a3a4 d4be a00b b43d c8f3 9bbc
00000240: a5ee e1be d582 09bd 47af 36bd 85de d6bd
00000250: 258c 04be b195 66bd 3c01 27bd 7291 623e
00000260: e427 2abe 3b45 713e 4698 653e 7f8a 013e
00000270: c049 73bd 9a15 54be 85cc d2bd 1706 273e
00000280: 01f4 50be 1745 803c b793 21be e452 593e
00000290: 0a24 6abd 4d89 2cba 770c 63be 4c2c f2bd
000002a0: b3c4 39be 7579 cf3d 661b 923e a79b 0abe
000002b0: 6150 2fbe 4233 93bd 3ca1 d5be 32db 293d
000002c0: ad6e a73d de98 d5be 8d07 1abe 33d6 8ebe
000002d0: 0202 463d 6b02 a6bc e07e f73c 39ae 8fba
000002e0: 6327 94be 0082 41bf 6c9e cd3d bf72 33bf
000002f0: 5280 7ebf 19f4 cbbb ddc1 843c cb39 eebc
00000300: f15e 02be 5a30 83be da55 45be bcd8 0f3e
00000310: 1f9b 33be eca3 d73a 2f2a 33be e5b7 90be
00000320: dffa 0f3d 9eb9 96bc 9ecb f4bd ad08 133e
00000330: 3f46 73be 5ef6 72bf b1a5 0cbf 80c2 a8be
00000340: 605d e93a c3ce cd3b 97cf 6bbe 98ef 00be
00000350: ba24 a73e 58c7 dbbe 4301 77bd 794e 85be
00000360: ff8d 3fbe 2b32 993c 5c86 c73c 624c 16bd
00000370: 9129 f6be 8e52 a5be 69d1 483e 533a 26bf
00000380: e50f 3abf c7a9 eabd 8e8d 3bbf efdf 62be
00000390: a11a a63e 8543 d43d 1cac 7dbf c0cc 7dbe
000003a0: dc22 91be 4121 77bf f8d5 25bf fec5 59bf
000003b0: 705d 8ebf 078d 573e af20 ce3c b494 09be
000003c0: 7c90 15be 69d1 9f3e c3a0 023f d23a 94be
000003d0: aab4 42be 08fe 2bbe 8974 68bd c4b8 96be
000003e0: 8905 c2bc 2a7a a2be 1cb7 8cbe c76e 953d
000003f0: 48ad 89be bca9 973e ad51 08be 1755 b53e

conv_layers.0.bias f4 [64]
0.44961673 -0.269975 -0.05854281 0.056093454 -0.36332208 -0.119133435 -0.19682741 -0.16258582
0.21093933 -0.16361043 -0.13541858 -0.11012446 -0.51277244 -0.008817988 -0.18538868 0.6959733
-0.057476945 -0.11061438 0.050582804 0.55236983 -0.5310607 -0.4471677 -0.27362722 -0.00086506846
-0.17566945 0.31967458 0.36634213 -0.014297984 -0.2962759 -0.054525726 0.32942104 -0.28258973
-0.2261856 0.31237677 0.7681429 -0.10469264 -0.224049 0.53005207 0.061555877 -0.36325008
-0.18281372 -0.10711956 -0.5017874 -0.2629695 -0.5843436 -0.21639799 -0.21487382 -0.31140393
-0.24639544 0.04567631 -0.0801104 -0.17524554 -0.2859274 -0.19792573 -0.25832123 -0.33293414
-0.22139901 -0.37295002 -0.019765604 -0.09240798 -0.15126133 -0.43192878 -0.3675054 0.11339558
00000000: 2a34 e63e 2a3a 8abe 96ca 6fbd 40c2 653d
00000010: 5a05 babe 3bfc f3bd 208d 49be e67c 26be
00000020: 7b00 583e 7e89 27be 2bab 0abe ef88 e1bd
00000030: 0e45 03bf 5379 10bc 88d6 3dbe 4e2b 323f
00000040: f26c 6bbd cb89 e2bd ea2f 4f3d 1c68 0d3f
00000050: 98f3 07bf 2af3 e4be de18 8cbe c3c5 62ba
00000060: b1e2 33be 63ac a33e 3291 bb3e 1742 6abc
00000070: 7ab1 97be 5e56 5fbd e0a9 a83e 9aaf 90be
00000080: 339d 67be d9ef 9f3e 03a5 443f 1869 d6bd
00000090: 1a6d 65be 7eb1 073f 0422 7c3d eafb b9be
000000a0: 8533 3bbe 8061 dbbd 2475 00bf f0a3 86be
000000b0: 8b97 15bf 6f97 5dbe e207 5cbe 5670 9fbe
000000c0: 164f 7cbe 1517 3b3d ec10 a4bd 9173 33be
000000d0: 1465 92be 0bad 4abe ae42 84be 5876 aabe
000000e0: 6cb6 62be 4ef3 bebe 7aeb a1bc 6540 bdbd
000000f0: 40e4 1abe c525 ddbe ab29 bcbe f13b e83d

conv_layers.1.weight f4 [64, 64, 3]
0.048629485 -0.035936967 -0.0671631 0.035503916 0.03405784 0.06446067 -0.05159739 0.005881221
0.03092433 -0.011766289 0.011154645 0.056699954 0.024510177 -0.036145777 -0.014039846 0.009839766
0.04927222 0.066642895 0.060939066 0.03763572 -0.046728432 -0.07559934 -0.04535057 0.042131916
-0.05505272 0.008706443 0.017167618 -0.048648626 0.016213803 -0.028831499 -0.031666767 -0.051246807
0.06415512 -0.03566299 0.032095246 -0.06864397 -0.0069452287 -0.07255757 -0.062148303 0.054741167
-0.042347286 0.009189593 -0.054679256 0.042032238 0.056874722 -0.042893674 0.048568454 0.04413664
-0.044159576 -0.06548909 0.0141118625 -0.019587476 0.015256098 0.06462808 -0.0024817132 0.0028146596
0.036354207 0.016315937 -0.051069874 0.037727486 -0.027260127 0.0012335948 -0.057251777 0.0059275306
0.030093068 -0.062032565 0.07041471 0.04870695 0.04875496 -0.043389633 0.03896012 -0.061903074
-0.0048571196 -0.05470896 -0.004027996 -0.036925737 0.027209582 -0.011726856 -0.0630767 -0.053143732
0.017338451 -0.07772614 0.041284416 -0.030018257 -0.05080043 -0.049077105 0.009545401 0.061929677
0.06416622 -0.022492094 -0.012336518 -0.03746671 0.033364777 -0.048033033 -0.048023295 0.04183884
-0.037277713 0.014518231 -0.033523332 0.038770076 -0.04634564 0.045290478 -0.07781672 -0.08105374
-0.059858177 0.024740526 -0.004031715 -0.014958219 0.055894334 0.017910494 -0.05556552 0.006933534
-0.0021407006 -0.015681991 0.021157764 -0.07952233 0.027241388 -0.050191376 0.023708481 0.037175167
-0.009344816 0.034696795 -0.044224694 0.04046714 0.013730451 0.014844731 0.018011335 0.069217905
-0.06738853 0.0224215 0.008161804 0.0011102027 -0.044690706 0.058485284 -0.036743604 -0.054089103
0.046514012 -0.046527646 0.014857877 -0.00072444684 -0.045226023 0.07176963 0.0058207456 -0.0028684237
0.055295236 -0.071891226 0.04342754 -0.016431883 -0.04337666 -0.05739009 0.028122982 -0.06134343
-0.055598646 -0.030400086 0.029376283 0.016252287 0.020766318 -0.05075314 0.048007663 0.070567146
-0.06830975 -0.024719268 -0.04136251 0.0300135 -0.04041018 0.038696844 0.04597163 -0.0047253105
0.068960905 -0.033915114 -0.0573582 -0.05086307 -0.053708117 0.036113486 -0.070774764 -0.031594995
0.0030087477 0.03444484 0.020110281 0.010374887 0.033007488 0.036794893 -0.008788528 -0.060825236
-0.060725998 -0.06876749 -0.03858117 -0.04178753 -0.07165018 -0.049807716 -0.025669603 -0.035582487
-0.05636648 -0.03249447 -0.07511421 0.01681348 -0.016291628 -0.013719489 -0.041342635 0.009178084
-0.045822445 0.011716957 -0.035260074 -0.067962155 -0.11486442 -0.012719562 -0.01374634 -0.06902216
0.019976163 -0.066922456 -0.0038203096 -0.110355355 -0.10673037 -0.009839848 0.01907492 0.051388662
-0.008874902 -0.122486904 -0.12542987 0.009490835 -0.004382788 -0.059346512 -0.096069336 0.028683824
-0.009163661 -0.04540704 -0.08027427 -0.041776802 0.017363302 0.011534827 -0.01242795 -0.06738888
0.02473713 -0.10390226 0.027675781 -0.02050536 -0.0012092129 -0.02423604 0.04655788 0.015263802
0.03192439 -0.050156936 0.02081318 0.007865365 0.026021581 -0.051190063 -0.07044827 0.014428886
-0.05592542 -0.028907381 -0.023405751 -0.0712233 -0.04340522 0.02202804 -0.057024974 -0.08410259
00000000: b62f 473d a432 13bd cf8c 89bd 8e6c 113d
00000010: 3c80 0b3d f503 843d c957 53bd 42b7 c03b
00000020: 0555 fd3c 65c7 40bc f9c1 363c 363e 683d
00000030: 91c9 c83c 980d 14bd 6207 66bc f836 213c
00000040: abd1 493d 127c 883d 3e9b 793d ea27 1a3d
00000050: 5066 3fbd d4d3 9abd 85c1 39bd 8492 2c3d
00000060: f67e 61bd 78a5 0e3c 1ba3 8c3c c843 47bd
00000070: cfd2 843c 0930 ecbc 03b5 01bd 2ce8 51bd
00000080: c263 833d 5b13 12bd 4e76 033d 3695 8cbd
00000090: cd94 e3bb 1099 94bd 388f 7ebd 4638 603d
000000a0: 5974 2dbd f28f 163c 5bf7 5fbd ff29 2c3d
000000b0: 78f5 683d 47b1 2fbd b7ef 463d 9fc8 343d
000000c0: ace0 34bd 251f 86bd 7135 673c ea75 a0bc
000000d0: b6f4 793c ba5b 843d 3da4 22bb 2776 383b
000000e0: 26e8 143d 00a9 853c a52e 51bd 2388 1a3d
000000f0: a150 dfbc 93b0 a13a d780 6abd bb3b c23b
00000100: bd85 f63c dc15 7ebd 9635 903d f080 473d
00000110: 48b3 473d 54b9 31bd a694 1f3d 148e 7dbd
00000120: 7928 9fbb 8116 60bd 48fd 83bb 713f 17bd
00000130: a1e6 de3c 0022 40bc 5b2e 81bd 3ead 59bd
00000140: 5e09 8e3c e22e 9fbd d919 293d d9e8 f5bc
00000150: 1d14 50bd 1305 49bd 5064 1c3c f9a9 7d3d
00000160: 9469 833d 5741 b8bc 1b1f 4abc b176 19bd
00000170: 81a9 083d 49be 44bd 13b4 44bd 345f 2b3d
00000180: 84b0 18bd e0dd 6d3c c34f 09bd 5fcd 1e3d
00000190: edd4 3dbd 8282 393d 5f5e 9fbd 81ff a5bd
000001a0: d92d 75bd a5ac ca3c 7a1c 84bb 5113 75bc
000001b0: 75f1 643d 07b9 923c ac98 63bd b332 e33b
000001c0: ff4a 0cbb 8577 80bc 0c53 ad3c 9adc a2bd
000001d0: 5529 df3c 7995 4dbd 4a38 c23c fd44 183d
000001e0: 001b 19bc 3a1e 0e3d f424 35bd dfc0 253d
000001f0: b0f5 603c 5137 733c 828c 933c 1ec2 8d3d
00000200: ff02 8abd 4bad b73c 16b9 053c 3984 913a
00000210: 9a0d 37bd 448e 6f3d 7680 16bd 898c 5dbd
00000220: 7a85 3e3d c693 3ebd 746e 733c cee8 3dba
00000230: ec3e 39bd f5fb 923d f4bb be3b 2afc 3bbb
00000240: 427d 623d b53b 93bd 14e1 313d 289c 86bc
00000250: baab 31bd df11 6bbd 2b62 e63c 4043 7bbd
00000260: 68bb 63bd 9a09 f9bc 88a6 f03c 8423 853c
00000270: 201e aa3c 86e2 4fbd afa3 443d 8285 903d
00000280: fbe5 8bbd 1080 cabc bc6b 29bd dfde f53c
00000290: 2585 25bd 9580 1e3d bf4c 3c3d c7d6 9abb
000002a0: 603b 8d3d 93ea 0abd 6ff0 6abd cb55 50bd
000002b0: 0bfd 5bbd bceb 133d 5cf2 90bd c169 01bd
000002c0: 692e 453b 0816 0d3d 51be a43c 6efb 293c
000002d0: dc32 073d 3eb6 163d c2fd 0fbc e223 79bd
000002e0: d3bb 78bd f8d5 8cbd 4a07 1ebd 6729 2bbd
000002f0: 54bd 92bd 2d03 4cbd 0f49 d2bc f1be 11bd
00000300: 8ae0 66bd ec18 05bd 7bd5 99bd 6cbc 893c
00000310: 0576 85bc b5c7 60bc e556 29bd ad5f 163c
00000320: 51b0 3bbd 7bf8 3f3c de6c 10bd be2f 8bbd
00000330: 093e ebbd b665 50bc 5438 61bc 7d5b 8dbd
00000340: 0da5 a33c a40e 89bd 295e 7abb fd01 e2bd
00000350: 7495 dabd 5037 21bc 0243 9c3c eb7c 523d
00000360: 0968 11bc 6ada fabd b070 00be 727f 1b3c
00000370: 7e9d 8fbb 5415 73bd 00c0 c4bd 57fa ea3c
00000380: 2e23 16bc bbfc 39bd d666 a4bd 271e 2bbd
00000390: 7c3d 8e3c 92fc 3c3c 9a9e 4bbc 2e03 8abd
000003a0: 86a5 ca3c b5ca d4bd 52b8 e23c dbfa a7bc
000003b0: 747e 9eba a98a c6bc 7ab3 3e3d 0715 7a3c
000003c0: 26c3 023d 5c71 4dbd 6780 aa3c bbdd 003c
000003d0: 362b d53c acac 51bd 2f47 90bd 2267 6c3c
000003e0: 0e12 65bd 2ccf ecbc 6bbd bfbc 86dd 91bd
000003f0: acc9 31bd 2674 b43c 0593 69bd fb3d acbd

conv_layers.1.bias f4 [64]
-0.06638862 -0.05824645 -0.078569934 -0.028863506 -0.097347155 0.25289816 -0.09806391 -0.023189113
-0.0938981 -0.08283687 -0.21697201 -0.17007364 -0.08802921 -0.03015377 -0.05976013 0.031316284
-0.16674818 -0.09009531 -0.06879907 -0.056793056 -0.3222167 -0.16213608 -0.08423841 -0.10138499
-0.12340343 -0.07448354 -0.10707812 0.12904614 -0.10133405 -0.07197571 -0.091397464 -0.0994064
-0.25814548 -0.32056326 -0.113042705 -0.10047001 -0.17923148 -0.07943687 -0.100161776 -0.06692156
-0.26700494 -0.3304852 -0.13438772 -0.43822068 -0.09259707 -0.16033572 -0.08887941 -0.1372785
-0.06491249 -0.065678775 -0.18931007 -0.06656275 -0.13709255 -0.16472065 -0.096911535 -0.27043042
-0.27577326 -0.0761757 -0.13411559 -0.19370206 -0.07583725 -0.2599792 -0.35039166 -0.20900105
00000000: c2f6 87bd d493 6ebd 46e9 a0bd 2973 ecbc
00000010: f25d c7bd de7b 813e bbd5 c8bd 18f7 bdbc
00000020: a64d c0bd 60a6 a9bd e92d 5ebe c927 2ebe
00000030: a948 b4bd 0a05 f7bc 0ac7 74bd 8145 003d
00000040: 09c0 2abe e483 b8bd 87e6 8cbd d69f 68bd
00000050: 96f9 a4be 0007 26be 3085 acbd efa2 cfbd
00000060: f0ba fcbd d48a 98bd c64b dbbd ac24 043e
00000070: 3a88 cfbd 0068 93bd 982e bbbd 9595 cbbd
00000080: a52b 84be de20 a4be ef82 e7bd 38c3 cdbd
00000090: 7588 37be ccaf a2bd 9e21 cdbd 2c0e 89bd
000000a0: dfb4 88be 5b35 a9be ef9c 09be 765e e0be
000000b0: 88a3 bdbd 0c2f 24be 6806 b6bd bc92 0cbe
000000c0: d7f0 84bd 9882 86bd 80da 41be 0d52 88bd
000000d0: fd61 0cbe 88ac 28be 8e79 c6bd db75 8abe
000000e0: 2732 8dbe 0102 9cbd 9955 09be d559 46be
000000f0: 8f50 9bbd fe1b 85be 8966 b3be 5f04 56be

conv_layers.2.weight f4 [64, 64, 3]
-0.05204328 -0.062470563 -0.0633603 -0.0032093595 -0.03229068 -0.03178628 0.0025674538 0.037854888
-0.06407132 -0.007569848 -0.07113757 -0.078943126 0.03800819 -0.06443436 0.0026692012 0.051432844
-0.17226638 -0.011440566 0.01778369 0.05208621 -0.030736908 -0.040247057 -0.043368466 0.0489041
-0.008358216 -0.046047933 -0.047487386 -0.06388435 0.051775683 -0.025835175 -0.0903429 -0.070867226
-0.15691395 -0.089915186 0.05144541 -0.031097056 -0.03864716 0.02744974 0.012132863 -0.12601113
-0.13966954 -0.048920147 -0.008505436 -0.028890228 -0.06397805 0.008453338 0.1077829 0.07566112
-0.07082375 -0.08091156 -0.016205782 0.019441873 -0.023654949 -0.04993191 -0.02375639 0.039698664
-0.023521762 -0.07151341 -0.08251136 -0.108649865 -0.07597883 -0.12530564 -0.23977016 -0.019439215
-0.028746352 0.07357079 -0.069793366 -0.057389647 -0.025449704 0.015016174 0.059973132 -0.011055124
-0.030311823 0.058129348 -0.03228006 -0.00016962856 0.06480585 0.0012444465 -0.049143974 0.034045935
0.04365581 0.090573385 0.18163922 -0.17220865 -0.040726397 -0.02999353 -0.04773675 -0.08193454
-0.08000855 0.009566099 0.030313235 0.02275849 0.071113 0.015288897 -0.05841688 0.042877823
0.060679447 -0.047591597 -0.039255127 -0.0146417655 -0.019619273 0.014575058 0.013236212 -0.06361675
-0.023447016 -0.08576533 -0.08148336 -0.011237106 0.027148642 -0.03977797 0.045865025 -0.042252406
0.014029704 0.028144397 -0.06539212 0.031598274 -0.021492094 -0.036732145 -0.034166574 0.022237469
-0.005217127 0.040759042 -0.027465992 0.04924602 -0.08253872 -0.08631491 -0.05251885 -0.040194437
0.026673552 -0.039776392 -0.07129792 -0.014896351 0.038252912 0.031904746 -0.033800237 -0.04045614
-0.07164399 -0.14730604 -0.2957741 0.16783778 -0.27162522 0.011430799 0.06644361 -0.06154478
0.052902713 -0.029427208 -0.031499512 -0.016225899 -0.059977256 -0.025985813 0.06634876 -0.10793087
0.018508516 0.063678354 -0.040346928 -0.015716616 0.0045667174 -0.103998385 -0.028409228 -0.12298792
0.0147848595 0.04122272 -0.035198286 -0.012584209 -0.012087862 0.021485526 0.015775144 0.043087266
0.03788578 -0.029673131 -0.045374826 -0.03950605 0.029019374 0.0028919878 -0.018087236 -0.009143373
-0.06911485 -0.10005275 0.06612223 0.0809004 -0.026151733 -0.06344929 -0.05510211 0.0088698445
0.038286842 -0.0081179 0.06207875 0.03764338 -0.008138146 -0.055275626 -0.07099637 -0.02510987
-0.023454668 -0.022633158 0.042299636 -0.017937616 -0.04074615 0.061831396 0.06458432 0.045637414
-0.013422919 0.023500236 0.0132832145 0.049659412 -0.0030871949 -0.013677627 -0.008645702 -0.07139188
0.033897996 0.014454011 0.003828815 0.06758618 -0.015557517 -0.040182453 -0.059035283 0.067828104
0.017220657 -0.054557327 0.017331073 -0.06526049 0.01152947 -0.058558177 0.043082844 -0.07029788
-0.04142588 0.060449068 0.011085132 0.052560274 0.027761726 0.06895409 -0.032603636 -0.0052917297
-0.022202699 0.03875728 -0.064239435 -0.035692833 -0.021502975 -0.002780525 0.014612664 -0.020222442
0.039823253 0.052501522 -0.029444613 -0.022705598 -0.061114855 0.05557085 -0.013931463 -0.03244261
-0.031738877 0.057655815 -0.0128222965 -0.0794431 -0.000733052 -0.043868385 -0.0060231443 0.04879593
00000000: 562b 55bd 22e1 7fbd 0cc3 81bd 1e54 52bb
00000010: 3b43 04bd 5532 02bd ba42 283b ba0d 1b3d
00000020: d337 83bd 7d0c f8bb 93b0 91bd efac a1bd
00000030: 7aae 1b3d 29f6 83bd c4ed 2e3b 3fab 523d
00000040: 9966 30be 3671 3bbc 1aaf 913c 5a58 553d
00000050: f8cb fbbc 19da 24bd 22a3 31bd aa4f 483d
00000060: e6f0 08bc c29c 3cbd 2282 42bd ccd5 82bd
00000070: bd12 543d 4aa4 d3bc b305 b9bd d622 91bd
00000080: 0dae 20be 7425 b8bd 6cb8 523d 41bf febc
00000090: 7c4c 1ebd 47de e03c eac8 463c 1009 01be
000000a0: 8805 0fbe 7e60 48bd 625a 0bbc 33ab ecbc
000000b0: ed06 83bd df7f 0a3c 48bd dc3d 38f4 9a3d
000000c0: 0b0c 91bd f6b4 a5bd fdc1 84bc 9044 9f3c
000000d0: 06c8 c1bc 6785 4cbd c39c c2bc 119b 223d
000000e0: b6b0 c0bc 9f75 92bd b7fb a8bd d283 debd
000000f0: ca9a 9bbd 1f50 00be 4f86 75be fd3e 9fbc
00000100: 787d ebbc 48ac 963d d3ef 8ebd 6811 6bbd
00000110: e67b d0bc 6606 763c 63a6 753d 8d20 35bc
00000120: 8050 f8bc 0a19 6e3d 1938 04bd 52de 31b9
00000130: eeb8 843d b21c a33a 314b 49bd c073 0b3d
00000140: 6fd0 323d 8a7e b93d a2ff 393e 7757 30be
00000150: b9d0 26bd feb4 f5bc 9c87 43bd 4ccd a7bd
00000160: 86db a3bd 21bb 1c3c 7653 f83c 0370 ba3c
00000170: b1a3 913d 487e 7a3c 8a46 6fbd a8a0 2f3d
00000180: 038b 783d 68ef 42bd fcc9 20bd 04e4 6fbc
00000190: 99b8 a0bc 39cc 6e3c b2dc 583c 8049 82bd
000001a0: f513 c0bc bca5 afbd bfe0 a6bd d71b 38bc
000001b0: d466 de3c 3aee 22bd f7dc 3b3d dc10 2dbd
000001c0: d8dc 653c 148f e63c 4eec 85bd 316d 013d
000001d0: 3010 b0bc 7274 16bd 40f2 0bbd 5a2b b63c
000001e0: 6ff4 aabb f4f2 263d 5c00 e1bc 32b6 493d
000001f0: 0f0a a9bd dfc5 b0bd 011e 57bd eca2 24bd
00000200: 7e82 da3c 92ec 22bd a504 92bd d30f 74bc
00000210: 16af 1c3d 8dae 023d 1e72 0abd 56b5 25bd
00000220: 16ba 92bd 65d7 16be b46f 97be abdd 2b3e
00000230: 7612 8bbe 3f48 3b3c 9613 883d 6116 7cbd
00000240: 84b0 583d 5411 f1bc a205 01bd 2dec 84bc
00000250: b6aa 75bd 33e0 d4bc dce1 873d dc0a ddbd
00000260: 2c9f 973c cc69 823d d242 25bd 22c0 80bc
00000270: 67a4 953b 1bfd d4bd 78ba e8bc 17e1 fbbd
00000280: 323c 723c 28d9 283d 142c 10bd 002e 4ebc
00000290: 2b0c 46bc 6a02 b03c e03a 813c 467c 303d
000002a0: 1f2e 1b3d 1115 f3bc f4da 39bd 19d1 21bd
000002b0: 0aba ed3c 8187 3d3b af2b 94bc 16ce 15bc
000002c0: 168c 8dbd 75e8 ccbd 176b 873d 1caf a53d
000002d0: 293c d6bc b4f1 81bd c0b2 61bd d352 113c
000002e0: aad2 1c3d f100 05bc 4a46 7e3d f22f 1a3d
000002f0: dc55 05bc b268 62bd 8b66 91bd 37b3 cdbc
00000300: 0124 c0bc 2c69 b9bc 6242 2d3d e8f1 92bc
00000310: 6fe5 26bd eb42 7d3d c944 843d 4cee 3a3d
00000320: ceeb 5bbc 9183 c03c d7a1 593c ab67 4b3d
00000330: 8952 4abb 2018 60bc b4a6 0dbc e835 92bd
00000340: a0d8 0a3d 84d0 6c3c dbec 7a3b a06a 8a3d
00000350: f5e4 7ebc 5b96 24bd fbce 71bd 76e9 8a3d
00000360: 5612 8d3c 8177 5fbd e5f9 8d3c 4ba7 85bd
00000370: 1ae6 3c3c b3da 6fbd a377 303d 56f8 8fbd
00000380: 2fae 29bd 7199 773d 6a9e 353c 7149 573d
00000390: 8f6c e33c cd37 8d3d 648b 05bd 3f66 adbb
000003a0: 6fe2 b5bc f4bf 1e3d f78f 83bd a632 12bd
000003b0: 0227 b0bc 7839 36bb f469 6f3c 89a9 a5bc
000003c0: b51d 233d d60b 573d d435 f1bc 1701 babc
000003d0: 9253 7abd 429e 633d ca40 64bc 8be2 04bd
000003e0: a000 02bd 8128 6c3d 9c14 52bc 10b3 a2bd
000003f0: 492a 40ba 56af 33bd cc5d c5bb 3ede 473d

conv_layers.2.bias f4 [64]
-0.13194965 -0.113217376 -0.19848248 -0.04961792 -0.35029063 -0.15452448 -0.057649195 -0.055231787
-0.05508098 -0.19135673 -0.105670646 -0.20864804 -0.16692178 -0.30883494 -0.14354666 -0.17616713
-0.05484407 -0.3756233 -0.14185749 -0.067651466 -0.068972394 0.2289869 -0.14244881 -0.08617501
0.155938 -0.13816686 -0.15161097 -0.11276977 -0.021799274 -0.2889286 -0.1010679 0.024134768
-0.049536586 -0.17178765 -0.15192775 -0.35070482 0.33892593 -0.07780747 -0.26893622 -0.03598527
-0.10164374 -0.18789311 -0.3585329 -0.2103623 -0.07903756 -0.19800876 -0.15696989 -0.12507574
-0.089410774 0.12831758 -0.052934945 -0.08324675 0.014604678 -0.15842476 -0.18546456 -0.20817994
-0.1257914 -0.1064053 -0.10639659 -0.31610534 -0.34678602 -0.086698 -0.04030801 -0.071429655
00000000: cf1d 07be 83de e7bd fe3e 4bbe 293c 4bbd
00000010: 4b59 b3be aa3b 1ebe 9021 6cbd ba3a 62bd
00000020: 989c 61bd 05f3 43be da69 d8bd d5a7 55be
00000030: 8bed 2abe 9d1f 9ebe e5fd 12be 2865 34be
00000040: 2da4 60bd b251 c0be 1743 11be da8c 8abd
00000050: 6641 8dbd 8b7b 6a3e 1ade 11be 867c b0bd
00000060: 36ae 1f3e 9d7b 0dbe e83f 1bbe d6f3 e6bd
00000070: 6494 b2bc 73ee 93be b0fc cebd 47b6 c53c
00000080: e0e6 4abd 1ae9 2fbe f392 1bbe 958f b3be
00000090: b387 ad3e 8659 9fbd 02b2 89be 4a65 13bd
000000a0: 982a d0bd 0d67 40be a091 b7be 3769 57be
000000b0: 72de a1bd cfc2 4abe b7bc 20be db13 00be
000000c0: ff1c b7bd af65 033e 50d2 58bd 467d aabd
000000d0: 7648 6f3c 1a3a 22be 6cea 3dbe 1f2d 55be
000000e0: 76cf 00be 06eb d9bd 75e6 d9bd 8fd8 a1be
000000f0: f08d b1be b98e b1bd 031a 25bd b649 92bd

conv_layers.3.weight f4 [64, 64, 3]
-0.025910316 0.0202684 -0.01910769 0.012244128 -0.032077953 0.04480084 -0.044676296 -0.0421161
-0.024662767 -0.018568106 -0.02020854 0.04033131 -0.103758074 -0.08582597 -0.03657107 -0.033212386
-0.0008754514 0.009111314 0.052701734 -0.026530512 -0.015372336 0.015525986 -0.0483363 0.05100652
-0.039135467 0.031592492 0.01867795 0.01812294 0.018525766 -0.059468802 -0.055050135 -0.06358287
-0.1059004 -0.120412715 -0.0805516 -0.0075494056 0.075319715 -0.024674674 -0.052963953 -0.06178808
-0.05769565 -0.033913758 0.030247247 -0.042645432 0.043513883 0.025941549 -0.059028268 0.014165319
-0.04677748 -0.015014743 -0.026656922 0.15457915 -0.06257625 -0.16150153 -0.018663673 -0.034024794
-0.014983174 0.034570437 -0.03673062 0.0033104809 0.0077787363 -0.018381847 -0.027211174 -0.1360448
-0.17266588 -0.075957075 0.015398101 -0.038694587 -0.04960238 0.019692032 0.051614366 0.060690958
0.040693633 0.035669107 -0.10008331 -0.044964302 -0.018547606 -0.010699734 -0.031043347 0.02455606
0.02973217 -0.05986167 0.00905193 -0.064392 -0.030487223 -0.037129845 -0.012161128 0.05842109
-0.08570526 -0.020122401 -0.08342851 0.048601635 -0.08206861 -0.1031252 -0.117646314 0.049589194
-0.013879767 0.03244421 -0.03580899 0.012426161 0.1190582 0.04439222 -0.045661207 -0.038020875
-0.0063434104 0.007125329 0.0168213 0.05760928 -0.041813254 -0.058274407 -0.1115387 0.053898275
-0.060460225 0.014537639 0.01696168 -0.067723684 -0.04098275 -0.049040575 -0.0009957404 -0.04327437
0.01164326 0.020595746 0.035492223 -0.05737083 -0.034181327 0.012657303 0.04391542 -0.046586834
-0.08684975 -0.024382211 -0.008417229 0.060566716 -0.02201681 -0.05607286 -0.007193897 -0.024970626
0.0116065815 0.014033889 -0.003029683 -0.038857568 -0.0657175 -0.029728586 -0.046704747 0.035974935
-0.006615177 0.029352479 0.011437725 -0.078319415 -0.14095588 -0.15482907 -0.07391053 -0.10412081
-0.051313948 -0.062324174 0.019681916 -0.03634231 -0.038829807 -0.02763905 0.024312386 -0.013609994
-0.059641376 0.033436887 -0.012861028 -0.07629332 -0.026886325 -0.08579495 -0.060556922 -0.004368169
0.07761978 0.058293816 -0.005173061 0.04187232 -0.010336227 -0.07847668 -0.04223001 0.016110137
-0.05636768 -0.09593661 -0.031209366 -0.025218839 -0.069423154 -0.039014142 0.053441808 -0.009630192
0.008016211 -0.040696017 0.061093908 0.03893008 0.035723418 0.059981726 -0.03261687 0.032976624
0.014010579 0.025480269 0.09232772 0.0035215176 0.008262253 -0.00785389 0.025950966 -0.058864705
-0.06905562 -0.029191064 0.07415037 0.0053475145 0.072330266 0.2700259 -0.28268537 -0.110058956
-0.060969852 0.0024529619 0.0018825934 0.053184167 0.046475716 -0.10002467 0.03540296 -0.023045491
0.008761954 -0.04845051 -0.012755812 -0.020624408 -0.023153808 0.026251744 -0.010291888 -0.17369474
-0.3352099 -0.08526647 0.24373405 0.0056321286 -0.10148194 -0.013540339 0.03427312 0.0068138908
-0.037810154 0.05441766 -0.013353922 0.03979283 -0.07721921 -0.04698056 -0.11365474 -0.032053106
-0.058221295 0.23529594 -0.066968255 -0.06264393 -0.12642463 -0.26068583 0.0017087668 -0.06882081
-0.013547573 -0.07718859 -0.15112314 0.094931796 -0.25398397 -0.064737946 -0.0017938038 -0.21223874
00000000: df41 d4bc ea09 a63c bb87 9cbc 989b 483c
00000010: 2c64 03bd 1681 373d 7efe 36bd ef81 2cbd
00000020: 9209 cabc 241c 98bc 618c a5bc 7232 253d
00000030: 1d7f d4bd 87c5 afbd 8ccb 15bd b609 08bd
00000040: 8d7e 65ba 9f47 153c c6dd 573d 8456 d9bc
00000050: 40dc 7bbc b560 7e3c 49fc 45bd 36ec 503d
00000060: 834c 20bd 2167 013d 8002 993c 8f76 943c
00000070: 59c3 973c 8f95 73bd 407c 61bd bc37 82bd
00000080: 4fe2 d8bd f19a f6bd 3df8 a4bd 0161 f7bb
00000090: 3941 9a3d 8b22 cabc bbf0 58bd 7f15 7dbd
000000a0: 4652 6cbd 27e9 0abd 13c9 f73c faac 2ebd
000000b0: 9d3b 323d 5f83 d43c a0c7 71bd a715 683c
000000c0: be99 3fbd 6600 76bc 9e5f dabc ff49 1e3e
000000d0: fa27 80bd a860 25be 8fe4 98bc 955d 0bbd
000000e0: fd7b 75bc bb99 0d3d d972 16bd a7f4 583b
000000f0: c5e4 fe3b 8795 96bc f8e9 debc 544f 0bbe
00000100: 53cf 30be 628f 9bbd 5148 7c3c 377e 1ebd
00000110: dd2b 4bbd 2f51 a13c 9669 533d 1597 783d
00000120: 5eae 263d c519 123d 7af8 ccbd 7d2c 38bd
00000130: 26f1 97bc f04d 2fbc 9e4e febc ca29 c93c
00000140: e190 f33c 8331 75bd 8c4e 143c f4df 83bd
00000150: 57c0 f9bc 7715 18bd 783f 47bc f44a 6f3d
00000160: 3d86 afbd bcd7 a4bc 91dc aabd 8212 473d
00000170: 9613 a8bd 4e33 d3bd 8df0 f0bd 0a1e 4b3d
00000180: f667 63bc 38e4 043d 73ac 12bd 1997 4b3c
00000190: c9d4 f33d 9ed4 353d 3f07 3bbd c7bb 1bbd
000001a0: 62dc cfbb 987b e93b d3cc 893c b5f7 6b3d
000001b0: 6044 2bbd 25b1 6ebd 676e e4bd 70c4 5c3d
000001c0: 24a5 77bd 472f 6e3c 39f3 8a3c b7b2 8abd
000001d0: 87dd 27bd c5de 48bd 8183 82ba 7740 31bd
000001e0: 5fc3 3e3c 69b8 a83c 4b60 113d adfd 6abd
000001f0: b801 0cbd 9460 4f3c a8e0 333d d6d1 3ebd
00000200: 48de b1bd 34bd c7bc 6be8 09bc ce14 783d
00000210: 995c b4bc a8ac 65bd c8ba ebbb 338f ccbc
00000220: 8829 3e3c 66ee 653c a58d 46bb 1d29 1fbd
00000230: e696 86bd 5d89 f3bc 7a4d 3fbd 745a 133d
00000240: 20c4 d8bb 9c74 f03c 4c65 3b3c ee65 a0bd
00000250: bd56 10be 838b 1ebe 675e 97bd 4b3d d5bd
00000260: 932e 52bd a247 7fbd f83b a13c addb 14bd
00000270: 010c 1fbd 4a6b e2bc c52a c73c 74fc 5ebc
00000280: 844a 74bd 1ef5 083d 10b7 52bc ac3f 9cbd
00000290: b640 dcbc 43b5 afbd 890a 78bd db22 8fbb
000002a0: 1ff7 9e3d 7fc5 6e3d c882 a9bb 4f82 2b3d
000002b0: 4759 29bc 62b8 a0bd 60f9 2cbd 68f9 833c
000002c0: cce1 66bd 6a7a c4bd c9aa ffbc bd97 cebc
000002d0: ba2d 8ebd 4bcd 1fbd cce5 5a3d f4c7 1dbc
000002e0: 6d56 033c deb0 26bd 9b3d 7a3d 2675 1f3d
000002f0: b852 123d 66af 753d 4499 05bd 7f12 073d
00000300: a18c 653c ffbb d03c 5116 bd3d 43c9 663b
00000310: 675e 073c 9aad 00bc 1f97 d43c 1e1c 71bd
00000320: 086d 8dbd 1922 efbc 26dc 973d 343a af3b
00000330: e421 943d d640 8a3e 23bc 90be 9766 e1bd
00000340: 86bb 79bd dfc1 203b 5ac1 f63a a4d7 593d
00000350: 525d 3e3d bcd9 ccbd b202 113d e6c9 bcbc
00000360: 4c8e 0f3c 0b74 46bd c1fd 50bc 85f4 a8bc
00000370: 0ead bdbc e60d d73c 4f9f 28bc 09dd 31be
00000380: a2a0 abbe 30a0 aebd 6b95 793e b88d b83b
00000390: c3d5 cfbd 4cd8 5dbc f961 0c3d 0f47 df3b
000003a0: d2de 1abd 0de5 5e3d 69ca 5abc cefd 223d
000003b0: 1b25 9ebd b06e 40bd d1c3 e8bd 1e4a 03bd
000003c0: 7479 6ebd 6bf1 703e a726 89bd 764b 80bd
000003d0: 7575 01be 9d78 85be b3f8 df3a edf1 8cbd
000003e0: a4f6 5dbc 0d15 9ebd 06c0 1abe 9a6b c23d
000003f0: 300a 82be 5495 84bd 111e ebba 1d55 59be

conv_layers.3.bias f4 [64]
-0.028385649 -0.14810646 -0.10340388 -0.11174465 0.13143857 -0.09505268 -0.09434571 -0.09089784
-0.11367205 -0.13921498 -0.11900083 -0.035792936 -0.08568929 -0.18393895 -0.12300579 -0.13834623
-0.07668594 -0.18845709 0.23637639 -0.1009442 -0.16551822 -0.054922823 -0.084501654 -0.038503624
-0.12289164 -0.12653475 -0.06106009 -0.14878556 -0.17424072 -0.11204533 -0.15024349 -0.09960044
-0.11800104 -0.08590356 -0.10205446 -0.1929788 -0.08606988 -0.09003734 -0.05147731 -0.123074554
-0.08560035 -0.14597821 -0.08395985 -0.10974633 -0.12839828 -0.113836005 -0.11695172 -0.13145444
-0.05840175 -0.08745349 -0.046334032 -0.05725345 -0.13539355 -0.09461892 0.46100342 -0.16896276
-0.13391347 -0.05350199 -0.053876102 -0.100694604 -0.06797708 -0.09163403 -0.09839789 -0.13945937
00000000: 0589 e8bc 38a9 17be 6ac5 d3bd 61da e4bd
00000010: d597 063e fbaa c2bd 5338 c1bd a628 babd
00000020: e4cc e8bd 5f8e 0ebe b5b6 f3bd 9d9b 12bd
00000030: de7d afbd 7e5a 3cbe 76ea fbbd a2aa 0dbe
00000040: 850d 9dbd e5fa 40be a70c 723e d5bb cebd
00000050: 9c7d 29be c1f6 60bd 340f adbd fab5 1dbd
00000060: 9dae fbbd 5392 01be 251a 7abd 3e5b 18be
00000070: 296c 32be 0678 e5bd 6ed9 19be 51fb cbbd
00000080: 87aa f1bd 35ee afbd ee01 d1bd 3c9c 45be
00000090: 6845 b0bd 7f65 b8bd dfd9 52bd 830e fcbd
000000a0: 3c4f afbd 507b 15be 24f3 abbd afc2 e0bd
000000b0: d77a 03be da22 e9bd 6284 efbd fe9b 06be
000000c0: ac36 6fbd d11a b3bd c1c8 3dbd 9882 6abd
000000d0: 9ba4 0abe 90c7 c1bd a408 ec3e 9304 2dbe
000000e0: 9d20 09be e724 5bbd 30ad 5cbd f938 cebd
000000f0: 9137 8bbd 9faa bbbd d584 c9bd 70ce 0ebe

dense.weight f4 [3, 3200]
-0.010977963 0.0044095 0.009547359 0.006563691 0.018962935 -0.0022723426 -0.0038548114 0.0022079672
0.013112404 -0.00650811 0.03178028 0.009592365 0.004004883 0.02122977 0.011068449 -0.0098133115
0.023213834 0.02406496 0.017181324 0.006623708 -0.007599089 0.034976415 0.009227803 0.014866402
-0.00037929384 0.003998955 0.007419082 0.004501218 0.024837466 -0.0025462392 0.007410174 0.019845806
0.011017185 0.037514113 0.035859074 -0.012206388 0.038542375 0.02946937 0.041844733 0.02083436
0.024601093 0.04575256 0.024268754 0.02640983 0.040609118 0.029908095 0.019763261 0.020880224
-0.009668049 0.011001222 0.0028492718 0.038601052 0.025220048 0.049776793 -0.016567903 0.054617252
-0.021894446 -0.028803356 -0.008385524 -0.00084084936 -0.029007096 -0.022211265 -0.08321332 -0.024971101
-0.03360502 -0.07482993 -0.1321781 -0.045128174 -0.14461835 -0.0963788 0.055934966 -0.0227089
0.0034768286 -0.061755512 -0.05429689 -0.030135369 -0.07359901 -0.017531062 -0.0017275946 -0.018755415
0.009714623 -0.045822997 -0.04230864 0.08545858 0.0810136 0.10639303 0.06760837 -0.013682405
0.010102931 -0.017387474 0.034296475 0.039237652 0.047675915 0.1116411 0.024946073 0.052410737
0.0014895843 -0.0954577 -0.042446908 -0.18526928 0.0008869214 0.016693944 -0.020850383 -0.012656882
-0.044226743 -0.04158594 -0.013729158 -0.01659188 -0.039076857 -0.031831443 -0.042511046 -0.012108166
-0.022506757 -0.022880182 -0.015797611 -0.022892674 -0.029888092 -0.026440158 -0.042543687 -0.043803506
-0.029686015 -0.019864922 -0.013642777 -0.03853255 -0.015804691 -0.030675067 -0.024490103 -0.021664549
-0.020176979 -0.019913819 -0.019824196 -0.035736334 -0.035525095 -0.014722973 -0.030823283 -0.040635694
-0.037481476 -0.034407806 -0.019775296 -0.038202856 -0.028292334 -0.040723015 -0.033407696 -0.018432206
-0.03902289 -0.013658291 -0.020833164 0.002055944 -0.046483427 0.029093964 -0.010310356 0.0207381
0.04117231 0.045959443 0.015084907 0.014640899 0.015645396 0.021595003 0.019100703 0.044795107
0.0209695 0.043213986 0.058917657 0.030145233 0.053546637 0.04934013 0.049668532 0.028820623
0.04309107 0.03928832 0.048230387 0.042167634 0.034046814 0.04228352 0.050095968 0.029411096
0.030179974 0.031972196 0.020353416 0.04467051 0.021001374 0.054052092 0.027636182 0.03929052
0.033700876 0.03337614 0.030432303 0.020423636 0.02158417 0.025050666 0.014867177 0.02486269
0.0025900553 -0.0014541766 0.020665023 -0.0069500552 0.041316826 0.017644422 0.02086428 -0.00251279
0.048760746 0.06704257 0.03917953 0.006932325 -0.068293855 -0.117167816 0.044222903 0.035278782
-0.07074273 -0.022532862 0.07494793 -0.07505099 -0.0136146555 -0.04485446 -0.050959002 -0.06383592
0.014156426 0.05037258 0.10899045 -0.074268974 -0.063080825 -0.15436429 0.08153565 -0.05652979
0.03194848 0.047849134 0.11620697 0.058493398 0.037385613 -0.09121941 -0.040100735 -0.029669888
0.06378657 -0.17755513 0.20254882 0.21993126 -0.039881688 -0.10464202 -0.044120125 -0.026503786
-0.20527396 -0.090987645 0.059282262 -0.094047666 -0.091782406 -0.16422622 0.043965038 -0.33457682
-0.19546792 0.037274685 0.042491063 0.037412576 0.051088154 0.03421658 0.047523 0.026558993
00000000: eadc 33bc 917d 903b 876c 1c3c 3b14 d73b
00000010: 2858 9b3c 95eb 14bb 01a1 7cbb 8bb3 103b
00000020: 69d5 563c fc41 d5bb 0a2c 023d 4b29 1d3c
00000030: 653b 833b 0eea ad3c 7158 353c 03c8 20bc
00000040: f02a be3c e123 c53c d9bf 8c3c b10b d93b
00000050: c701 f9bb 6e43 0f3d 3630 173c 3692 733c
00000060: f5db c6b9 aa09 833b c51b f33b f47e 933b
00000070: f177 cb3c cede 26bb 0bd1 f23b ac93 a23c
00000080: 6c81 343c 66a8 193d f7e0 123d 4dfd 47bc
00000090: 9cde 1d3d c069 f13c 6265 2b3d d2ac aa3c
000000a0: 3b88 c93c 0967 3b3d 44cf c63c 6e59 d83c
000000b0: bf55 263d d201 f53c 90e6 a13c 010d ab3c
000000c0: bd66 1ebc 783e 343c d9ba 3a3b 231c 1e3d
000000d0: 469a ce3c c0e2 4b3d 69b9 87bc 57b6 5f3d
000000e0: fb5b b3bc 04f5 ebbc 7063 09bc 726c 5cba
000000f0: 4aa0 edbc 66f4 b5bc bf6b aabd 3290 ccbc
00000100: 6ba5 09bd 6f40 99bd b259 07be 52d8 38bd
00000110: d516 14be 4062 c5bd 101c 653d 0408 babc
00000120: 81db 633b 59f3 7cbd 6a66 5ebd 73de f6bc
00000130: 14bb 96bd 4d9d 8fbc 7570 e2ba f5a4 99bc
00000140: 152a 1f3c e5b0 3bbd d34b 2dbd e804 af3d
00000150: 75ea a53d 97e4 d93d 4276 8a3d 2b2c 60bc
00000160: c486 253c 2d70 8ebc 767a 0c3d a9b7 203d
00000170: d247 433d 17a4 e43d b55b cc3c a4ac 563d
00000180: 283e c33a 547f c3bd cfdc 2dbd 3bb7 3dbe
00000190: 4a80 683a bdc1 883c 6cce aabc d05e 4fbc
000001a0: 1a27 35bd 0556 2abd 43f0 60bc b2eb 87bc
000001b0: 0e0f 20bd b061 02bd 1020 2ebd 5461 46bc
000001c0: 1760 b8bc 386f bbbc fe69 81bc 6b89 bbbc
000001d0: dfd7 f4bc 0899 d8bc 4a42 2ebd 4e6b 33bd
000001e0: 1630 f3bc c3bb a2bc f485 5fbc 4fd4 1dbd
000001f0: d778 81bc 474a fbbc 789f c8bc da79 b1bc
00000200: 314a a5bc 4e22 a3bc 5a66 a2bc 4360 12bd
00000210: c382 11bd a038 71bc 1c81 fcbc 9d71 26bd
00000220: 2d86 19bd 33ef 0cbd cdff a1bc 997a 1cbd
00000230: 53c5 e7bc 2dcd 26bd 82d6 08bd 23ff 96bc
00000240: 77d6 1fbd 06c7 5fbc 50aa aabc 04bd 063b
00000250: 6865 3ebd 7756 ee3c c4ec 28bc f3e2 a93c
00000260: 4ca4 283d f83f 3c3d b026 773c 62e0 6f3c
00000270: c62a 803c 01e8 b03c 1479 9c3c 137b 373d
00000280: 3bc8 ab3c 2601 313d a453 713d 23f3 f63c
00000290: b853 5b3d e018 4a3d 3b71 4b3d 3a19 ec3c
000002a0: 4380 303d caec 203d 3a8d 453d f8b7 2c3d
000002b0: ac74 0b3d 7c31 2d3d 6e31 4d3d 8aef f03c
000002c0: fe3b f73c 47f5 023d 35bc a63c 6df8 363d
000002d0: 130b ac3c ba65 5d3d 4665 e23c 19ef 203d
000002e0: ee09 0a3d 6bb5 083d 2a4d f93c 784f a73c
000002f0: 49d1 b03c 0e37 cd3c 7695 733c d7ac cb3c
00000300: ebbd 293b 129a beba b249 a93c 4abd e3bb
00000310: d53b 293d 098b 903c 91eb aa3c 9fad 24bb
00000320: 59b9 473d 9d4d 893d b77a 203d 8f28 e33b
00000330: a6dd 8bbd aef5 efbd 1323 353d 7c80 103d
00000340: 90e1 90bd d696 b8bc 4d7e 993d 55b4 99bd
00000350: 0110 5fbc 4fb9 37bd 63ba 50bd 68bc 82bd
00000360: 5bf0 673c 7a53 4e3d 6336 df3d 551a 98bd
00000370: 8530 81bd ac11 1ebe 2afc a63d c88b 67bd
00000380: 69dc 023d 74fd 433d ebfd ed3d c696 6f3d
00000390: a821 193d 3ed1 babd ab40 24bd 440e f3bc
000003a0: 89a2 823d 03d1 35be f568 4f3e a935 613e
000003b0: fb5a 23bd 8e4e d6bd 4eb7 34bd 781e d9bc
000003c0: 5633 52be bb57 babd f5d1 723d 109c c0bd
000003d0: 6af8 bbbd eb2a 28be af14 343d a74d abbe
000003e0: be28 48be 57ad 183d 1c0b 2e3d ee3d 193d
000003f0: d041 513d af26 0c3d 7aa7 423d 3f92 d93c

dense.bias f4 [3]
0.31475955 0.31857285 0.32235023
00000000: 2a28 a13e fb1b a33e 170b a53e
