dataset_test/TimesNet-for-Time-Series-Prediction/model_saved/sentiment_50.pt (torch, 193539 bytes, 10 tensors)

conv_layers.0.weight f4 [64, 4, 3]
-0.0018523517 -0.01842927 -0.047589026 -0.14453207 0.06137886 0.68210423 -0.52846706 -1.2293109
1.8252057 0.0041881255 -0.0095727425 -0.086527415 -0.15681355 -0.44544554 0.05260155 0.17497781
0.28396484 -0.14672188 -0.14502256 -0.17714919 -0.18801568 -0.26126543 -0.13002081 0.042880602
-0.34314924 -0.25330973 -0.069419555 -0.19946066 -0.45082214 0.034634713 -0.48438302 -0.015541553
-0.22948109 -0.2011685 -0.7579101 0.10306354 -0.17096314 -0.17401265 -0.12745808 0.0009981486
-1.0139608 -0.56347555 0.07031493 -2.2356071 0.16679034 -0.042025976 0.072912514 -0.38357782
0.22540097 0.6946022 -1.0375975 -0.8795616 -0.637126 -0.7883723 -0.9479649 -0.74950135
-0.77401483 -0.932194 -0.385522 -0.9697228 -0.040844914 -0.16196373 0.11309069 -0.03815341
-0.17095387 -0.26238292 0.063478105 -0.052068137 -0.23857793 0.37693024 -0.7919391 0.019531667
-0.22088864 -0.0031024925 -0.0956077 -1.0174284 -1.1839932 -1.1981384 -1.0617309 -0.78293353
-0.99739546 -0.09867649 -0.035130575 0.1485619 -1.2244065 -0.83003366 0.5351157 -0.17129983
0.0941197 -0.6811988 0.19405091 0.9588115 -0.9601893 -0.5407173 -0.5361173 -0.28454015
-0.1526688 -0.6848913 -0.5854839 -0.22866958 -0.29437697 0.13775383 -0.58962446 0.039552078
0.12761404 -0.1284467 -0.2511376 -0.059882514 0.12960893 -0.014880484 -0.22719954 0.062437177
-0.07880304 -0.1589334 -0.2041264 -0.26917744 -0.23292272 0.08442559 -0.18784939 0.018635862
0.40130466 0.082715385 -0.061225135 -0.26234728 -0.27080777 -0.03495052 -0.5119863 -0.20010148
-0.37682888 -0.7673343 -0.4514115 0.27159038 -0.01204137 -0.11649445 -1.3457303 -0.80520314
-1.3657475 -2.0233254 -0.9536364 -2.234626 -1.9724765 0.033693373 -0.5306633 -0.8352338
0.7169901 0.2574934 0.074976705 0.21627186 0.1989459 -0.62360513 0.3471479 1.0803988
-0.48492867 -0.5280489 -1.3820186 -0.6150214 0.20290683 -0.056557678 0.73433 -1.175287
-0.6904748 -0.68834555 -0.71043956 -0.71113807 -0.14771375 0.279022 0.0864719 -0.07136528
-0.35476103 -0.39794302 -0.15978044 -0.53129464 0.099886484 -0.25419548 -0.39665547 0.27059227
0.2538351 -0.25173223 -0.16915599 -0.032387067 -0.065139845 -0.31124127 0.10983622 0.235841
-0.13796727 0.10194299 0.028512517 -0.3338487 -0.28305534 -0.27054897 0.118994646 -0.025131743
-1.1203285 -0.11664575 0.5358471 -0.37403566 -0.37217757 -0.5373948 -0.6927614 0.6137779
-0.5407325 -0.42673877 -0.2714132 0.43051285 0.56358325 0.15483437 -0.08982049 -0.0202562
0.11914112 -0.658574 -0.04762443 0.55136484 -0.70260304 -0.17819442 -0.12818295 0.1087422
-0.31179208 0.19027022 -0.2199934 -0.2777396 -0.32578668 -0.39770654 -0.19099882 -0.5057626
-0.38023752 -0.06696213 -0.219575 0.10374057 -0.9776301 -0.6203346 -0.14239846 -1.0529137
-0.53794926 -0.37370285 -0.73460615 -0.44366646 -0.97446495 -0.21419829 -0.069575384 0.22801207
-0.3491931 -0.5904436 -0.16675219 -0.08290515 0.16289712 -0.20936142 0.09123171 0.008691803
0.060850095 -0.14548008 -0.3441701 -0.10395181 -0.15569973 -0.37995595 -0.3054207 -0.23901841
00000000: 9cca f2ba fbf8 96bc b6ec 42bd 3700 14be
00000010: 6668 7b3d 629e 2e3f 9e49 07bf 0f5a 9dbf
00000020: 57a0 e93f 8b3c 893b fed6 1cbc 4935 b1bd
00000030: bb93 20be 7011 e4be b974 573d 622d 333e
00000040: d763 913e 433e 16be cb80 14be 9966 35be
00000050: 2f87 40be 95c4 85be 2d24 05be 92a3 2f3d
00000060: 42b1 afbe d0b1 81be d72b 8ebd 6a3f 4cbe
00000070: 29d2 e6be 21dd 0d3d 0d01 f8be ffa1 7ebc
00000080: 17fd 6abe 1eff 4dbe 6506 42bf fa12 d33d
00000090: f610 2fbe 5f30 32be 5f84 02be 4fd4 823a
000000a0: 78c9 81bf ef3f 10bf 4601 903d 3014 0fc0
000000b0: 16cb 2a3e 6e23 2cbd 2853 953d 5064 c4be
000000c0: 83cf 663e 73d1 313f ffcf 84bf f32a 61bf
000000d0: b11a 23bf c4d2 49bf d4ad 72bf 52df 3fbf
000000e0: d625 46bf 44a4 6ebf 2463 c5be c13f 78bf
000000f0: ff4c 27bd d2d9 25be 179c e73d c046 1cbd
00000100: 880e 2fbe 0e57 86be cf00 823d 6645 55bd
00000110: c64d 74be 00fd c03e 85bc 4abf e000 a03c
00000120: a230 62be 3053 4bbb f8cd c3bd 183b 82bf
00000130: 178d 97bf 995c 99bf cce6 87bf 556e 48bf
00000140: 4f55 7fbf e616 cabd 14e5 0fbd 9c20 183e
00000150: 5ab9 9cbf 167d 54bf 58fd 083f 3969 2fbe
00000160: d4c1 c03d 0b63 2ebf 48b5 463e ac74 753f
00000170: f7ce 75bf 736c 0abf fc3e 09bf 3faf 91be
00000180: 3655 1cbe 0955 2fbf 46e2 15bf 5c28 6abe
00000190: 94b8 96be 570f 0d3e a1f1 16bf 5c01 223d
000001a0: 41ad 023e 8887 03be 1c95 80be 5e47 75bd
000001b0: 34b8 043e 46cd 73bc ffa6 68be 20be 7f3d
000001c0: 7d63 a1bd 70bf 22be 8306 51be a0d1 89be
000001d0: 4b83 6ebe 53e7 ac3d 975b 40be 3caa 983c
000001e0: ce77 cd3e af66 a93d 35c7 7abd 6252 86be
000001f0: 51a7 8abe 4728 0fbd 8911 03bf 67e7 4cbe
00000200: b7ef c0be 0570 44bf 681f e7be e50d 8b3e
00000210: 2b49 45bc a494 eebd e440 acbf cb21 4ebf
00000220: d0d0 aebf 2a7e 01c0 8421 74bf 1d04 0fc0
00000230: 1c7a fcbf 1002 0a3d 8dd9 07bf e2d1 55bf
00000240: aa8c 373f 2dd6 833e 638d 993d 5f76 5d3e
00000250: 79b8 4b3e 96a4 1fbf 5fbd b13e 824a 8a3f
00000260: 9248 f8be 362e 07bf fce5 b0bf 0b72 1dbf
00000270: cfc6 4f3e 06a9 67bd 0dfd 3b3f ce6f 96bf
00000280: f5c2 30bf 6a37 30bf 5edf 35bf 250d 36bf
00000290: 4642 17be f9db 8e3e 2e18 b13d f627 92bd
000002a0: 3da3 b5be 30bf cbbe 7c9d 23be ed02 08bf
000002b0: 4991 cc3d e925 82be 6d16 cbbe 128b 8a3e
000002c0: adf6 813e 0ce3 80be 3a37 2dbe 4da8 04bd
000002d0: 0a68 85bd 045b 9fbe d0f1 e03d 4e80 713e
000002e0: 4b47 0dbe 7dc7 d03d 1593 e93c 38ee aabe
000002f0: a1ec 90be 6585 8abe 77b3 f33d 16e1 cdbc
00000300: ed66 8fbf f8e3 eebd 472d 093f 9a81 bfbe
00000310: 0f8e bebe b592 09bf d058 31bf 8c20 1d3f
00000320: 726d 0abf 817d dabe acf6 8abe 2e6c dc3e
00000330: fe46 103f e78c 1e3e cef3 b7bd 55f0 a5bc
00000340: 4200 f43d 4e98 28bf d611 43bd 3f26 0d3f
00000350: cbdd 33bf 9978 36be 6442 03be 3bb4 de3d
00000360: 36a3 9fbe 32d6 423e f345 61be e333 8ebe
00000370: 83cd a6be 31a0 cbbe 3295 43be a879 01bf
00000380: 7eae c2be 7123 89bd 45d8 60be f075 d43d
00000390: f745 7abf 40ce 1ebf e7d0 11be e0c5 86bf
000003a0: 0bb7 09bf fb55 bfbe 260f 3cbf 4028 e3be
000003b0: 8976 79bf cc56 5bbe 8a7d 8ebd ff7b 693e
000003c0: 70c9 b2be 5027 17bf 16c1 2abe 2dca a9bd
000003d0: 81ce 263e d762 56be b1d7 ba3d 1068 0e3c
000003e0: f33d 793d bbf8 14be 1037 b0be b0e4 d4bd
000003f0: c06f 1fbe 9689 c2be 1a60 9cbe 3ec1 74be

conv_layers.0.bias f4 [64]
1.746702 -0.11843722 0.2824627 0.7643343 -0.45625857 -0.3354815 -0.07114617 -0.8947586
-0.015430082 -0.13132653 -0.29765856 0.9742069 -0.5959899 -0.92182654 -0.33830905 -0.16413671
-0.39977303 -1.0416306 -0.082450666 -0.13839619 -0.15771343 -0.45539486 -0.15292934 -0.168565
-0.1545558 -0.3132372 -0.048249565 -0.26610792 1.1877868 -0.14446925 0.94504786 -0.12016266
-0.6164626 -0.1591747 -0.20857751 -0.30120894 -0.47264412 -0.21899174 0.10743005 -0.16823527
0.4771029 -0.4893306 -1.2114754 -3.887713e-05 -0.40323073 0.61995095 -0.01601285 -0.51232505
0.5719706 -0.2744397 0.056357488 0.0055591883 -0.9752443 -0.5073156 -0.29759568 -0.26604888
1.0947515 -0.18935801 -0.9562232 -0.0047518346 -0.10710957 -0.23103954 -0.2598535 -0.09591379
00000000: ee93 df3f 378f f2bd f39e 903e 6aab 433f
00000010: b99a e9be 3bc4 abbe 15b5 91bd e60e 65bf
00000020: 74ce 7cbc 767a 06be b466 98be a065 793f
00000030: cb92 18bf d3fc 6bbf d836 adbe 7413 28be
00000040: 0daf ccbe 2754 85bf e5db a8bd bbb7 0dbe
00000050: a17f 21be 8429 e9be 8299 1cbe 4e9c 2cbe
00000060: e043 1ebe a060 a0be 56a1 45bd 4c3f 88be
00000070: 6609 983f bfef 13be a8ee 713f d717 f6bd
00000080: 7ed0 1dbf b1fe 22be 5895 55be 0f38 9abe
00000090: 69fe f1be 5f3f 60be 4904 dc3d de45 2cbe
000000a0: d546 f43e 8a89 fabe a011 9bbf 0010 23b8
000000b0: 4274 cebe 1bb5 1e3f 612d 83bc bc27 03bf
000000c0: aa6c 123f 5c83 8cbe 1cd7 663d da29 b63b
000000d0: 9ca9 79bf 6fdf 01bf 765e 98be 8f37 88be
000000e0: d120 8c3f 11e7 41be 0bcb 74bf 47b5 9bbb
000000f0: 435c dbbd a195 6cbe 850b 85be 736e c4bd

conv_layers.1.weight f4 [64, 64, 3]
0.47838733 -2.8255992 0.7302666 0.046225924 0.045208976 0.047971442 0.16708861 0.27393147
-0.2757366 -0.057199374 0.1382761 0.10834182 0.28713793 1.5438495 -0.17484634 -0.015473404
1.2777996 -0.030568834 -0.14689821 -0.23464523 -0.11770567 -1.2920963 -0.09200853 -0.31536728
0.024527004 0.20747818 -0.10185264 0.06615356 0.036852553 -0.036456753 -0.72899914 -0.19901416
-0.088058464 -0.86760813 -0.7761818 0.27076486 -0.6068605 1.2459571 0.09925947 -0.4336107
-0.118820906 -0.09212986 -0.15071632 0.39113384 -0.27657416 0.025262298 0.022199458 0.05302375
-0.53066427 0.22439495 0.07646397 -0.47980693 0.30338752 -0.20061001 -0.13657768 0.075493105
-0.21941546 -0.27182966 0.5282644 -0.031450015 -0.010157219 0.18963024 -0.21654725 -0.48817846
-0.15014863 -0.38831052 -0.01622676 0.0043581002 -0.038585965 0.0406348 0.0037889313 -0.0070011457
-0.11835471 0.6442007 -0.5806409 0.016454978 1.6534688 -0.16773199 -0.21520673 0.094055556
-0.5343103 0.02813489 0.059199646 0.011789363 -0.5146494 -2.9614832 -0.5197832 0.03140932
-0.006899532 -0.017077418 0.1625095 -0.68505585 -0.6223908 0.11066107 0.009140226 -0.16227445
-1.081164 1.3292729 -0.12676896 0.00010881314 -0.016983746 0.00059522025 -0.13926828 -0.31122872
0.34704754 0.045979705 -0.16986467 -0.24660817 -0.048368473 -0.33669966 -0.22893688 -0.13682458
-0.015088978 0.06474346 0.5866201 -0.01671763 0.08306049 -0.44284034 0.4051995 -0.27485642
0.14599274 -0.74435383 0.2652324 -0.7278137 0.24641168 -0.032124598 -0.08235858 1.4729367
-0.43610013 0.3628368 -0.014132935 -0.2170532 -0.13311219 0.25676107 0.09324895 -0.42668912
-1.0305997 0.074805655 0.099027015 -0.031068515 0.037281446 -0.22704917 0.001752113 0.20196526
0.09074583 -0.041841086 0.14984582 -0.02169729 -0.32330877 -0.8675496 -0.34599048 -0.16200644
0.27834338 -0.0033165524 -0.0067914412 -0.17920867 -0.217867 -0.030710615 -0.12518658 0.090735346
0.58655673 -0.28195274 -0.015684098 -0.32077083 -0.063627824 0.04320606 0.03247376 0.031432338
0.15617853 -0.20870468 -0.047731042 0.11045729 0.09205103 0.22975527 0.39704323 0.5928616
-0.73294586 -0.109585755 -0.38502783 0.1592727 -0.059124462 0.026216395 0.0056298925 0.024103759
-0.010667455 0.015841724 0.047635365 -0.18269081 -0.2414881 0.14034875 -0.29345733 0.272757
-0.03521361 -0.05084683 -0.09589994 0.03081523 -0.08513409 -0.0115806265 -0.099559344 -0.00437113
-0.06419614 0.0010402818 -0.0334255 0.008775224 -0.08563819 -0.15456645 -0.06303864 0.038773008
0.041351296 0.06085758 -0.053841457 -0.093612425 -0.082223766 -0.047790095 -0.08165693 -0.11203862
-0.019596057 0.007267223 0.030015437 -0.039495744 0.05610317 -0.04499887 -0.02910121 -0.021320563
-0.04226396 0.052541036 -0.05952724 -0.044003785 -0.035652116 0.022593996 -0.031297006 0.03333045
-0.01702243 -0.042941242 0.05872465 0.0131003 -0.036425088 -0.036678623 0.02557664 -0.0056341835
-0.048811123 -0.054520138 -0.1306436 -0.46709532 -0.21256818 0.009000761 -0.10693315 -0.19805148
-0.17289813 -0.022670992 0.00506182 -0.14037913 -0.0070491773 -0.032047402 0.010285906 0.016755968
00000000: 2fef f43e 9ed6 34c0 c0f2 3a3f 6557 3d3d
00000010: 0c2d 393d b47d 443d 4719 2b3e bf40 8c3e
00000020: 592d 8dbe e449 6abd 4098 0d3e 51e2 dd3d
00000030: be03 933e dc9c c53f eb0a 33be 2984 7dbc
00000040: f08e a33f 7e6b fabc 7c6c 16be d746 70be
00000050: ac0f f1bd 6963 a5bf f86e bcbd d277 a1be
00000060: dbec c83c 2975 543e 1e98 d0bd 857b 873d
00000070: b4f2 163d ad53 15bd b09f 3abf 5eca 4bbe
00000080: ff57 b4bd 911b 5ebf dab3 46bf b1a1 8a3e
00000090: 365b 1bbf 867b 9f3f 8d48 cb3d 3902 debe
000000a0: 6058 f3bd 94ae bcbd 6155 1abe b242 c83e
000000b0: 219b 8dbe e1f2 ce3c a3db b53c 6f2f 593d
000000c0: 9dd9 07bf cac7 653e 2499 9c3d 41a9 f5be
000000d0: 9c55 9b3e b66c 4dbe 05db 0bbe 219c 9a3d
000000e0: 72ae 60be 422d 8bbe 563c 073f bbd1 00bd
000000f0: 776a 26bc 6e2e 423e 90be 5dbe 87f2 f9be
00000100: 90c0 19be a3d0 c6be fbed 84bc 65ce 8e3b
00000110: 510c 1ebd ad70 263d b84f 783b de69 e5bb
00000120: f463 f2bd 56ea 243f e2a4 14bf 97cc 863c
00000130: dea4 d33f efc1 2bbe 275f 5cbe 33a0 c03d
00000140: 8fc8 08bf 247b e63c 547b 723d 2c28 413c
00000150: 10c0 03bf f188 3dc0 8310 05bf 0fa7 003d
00000160: 7815 e2bb f1e5 8bbc e468 263e d25f 2fbf
00000170: 0155 1fbf 45a2 e23d e3c0 153c 462b 26be
00000180: 9563 8abf 9d25 aa3f b9cf 01be 9c32 e438
00000190: 7f21 8bbc 8e08 1c3a 589c 0ebe 5f59 9fbe
000001a0: 37b0 b13e 3755 3c3d 01f1 2dbe da86 7cbe
000001b0: 051e 46bd e663 acbe 6e6e 6abe be1b 0cbe
000001c0: c337 77bc 3898 843d bc2c 163f 69f3 88bc
000001d0: 9e1b aa3d f8bb e2be 4f76 cf3e fbb9 8cbe
000001e0: 1f7f 153e f98d 3ebf 8bcc 873e 0052 3abf
000001f0: 5853 7c3e 1595 03bd 9dab a8bd 3189 bc3f
00000200: 8448 dfbe bfc5 b93e d38d 67bc 3243 5ebe
00000210: 904e 08be 3076 833e 4ef9 be3d ff76 dabe
00000220: b1ea 83bf b533 993d adce ca3d 6683 febc
00000230: 6eb4 183d 947f 68be 28a7 e53a fbcf 4e3e
00000240: f3d8 b93d 8f61 2bbd 2f71 193e 84be b1bc
00000250: ba88 a5be bb17 5ebf aa25 b1be 04e5 25be
00000260: 0683 8e3e 845a 59bb bd8a debb 7a82 37be
00000270: 8718 5fbe d494 fbbc e930 00be 74d3 b93d
00000280: 9528 163f 1c5c 90be f07b 80bc 133c a4be
00000290: 4e4f 82bd d6f8 303d 3503 053d 32bf 003d
000002a0: 44ed 1f3e aeb6 55be a081 43bd 6f37 e23d
000002b0: 4085 bc3d f744 6b3e 4049 cb3e c7c5 173f
000002c0: 57a2 3bbf 7f6e e0bd 5e22 c5be 6218 233e
000002d0: 7e2c 72bd c4c3 d63c f67a b83b 3f75 c53c
000002e0: 8dc6 2ebc 81c6 813c 4d1d 433d 4d13 3bbe
000002f0: a848 77be 95b7 0f3e 0a40 96be cea6 8b3e
00000300: 253c 10bd c444 50bd 3067 c4bd 3970 fc3c
00000310: c85a aebd abbc 3dbc c5e5 cbbd b23b 8fbb
00000320: 4479 83bd 115a 883a 2de9 08bd f5c5 0f3c
00000330: 1363 afbd ab46 1ebe 671a 81bd 72d0 1e3d
00000340: fa5f 293d cc45 793d dc88 5cbd dfb7 bfbd
00000350: ef64 a8bd 8cbf 43bd c03b a7bd 8174 e5bd
00000360: e987 a0bc e321 ee3b efe2 f53c 4ac6 21bd
00000370: 70cc 653d bc50 38bd a965 eebc 76a8 aebc
00000380: f91c 2dbd 4535 573d d6d2 73bd 503d 34bd
00000390: f407 12bd 0b17 b93c 4a31 00bd 8385 083d
000003a0: a072 8bbc 28e3 2fbd 4289 703d a4a2 563c
000003b0: 7932 15bd 533c 16bd 1a86 d13c f59e b8bb
000003c0: 2cee 47bd 8250 5fbd 70c7 05be 1e27 efbe
000003d0: 79ab 59be ee77 133c c4ff dabd 02ce 4abe
000003e0: 350c 31be 84b8 b9bc a0dd a53b 8cbf 0fbe
000003f0: c9fc e6bb 2344 03bd 3786 283c d043 893c

conv_layers.1.bias f4 [64]
-0.52225584 -0.2276306 -0.052643258 -0.03238967 -0.1271666 -0.030919362 -0.08429807 -0.41237357
-0.08360062 -0.11689122 -0.24706386 -0.11540765 -0.18147051 -0.17198916 -0.102451615 -0.115787424
-0.04465376 -0.13019282 -0.38849247 -0.16726735 -0.35647997 -0.19914193 -0.12627363 -0.06302955
-0.12987612 -0.057993036 -0.09508642 -0.06889378 -0.091956586 -0.5689092 -0.1352135 -0.061955635
-0.0981425 -0.12469816 -0.08874427 -0.63161504 -0.11579501 -0.09752312 -0.10950178 -0.12829031
-0.11767651 -0.23014618 -0.05867244 -0.5957135 -0.1572679 -0.06052109 -0.106359035 -0.4928114
-0.16296828 -0.039705113 -0.13873118 -0.11236182 -0.39274985 -0.12178528 -0.11303801 -0.28993058
-0.032915697 -0.2677805 -0.036840208 -0.16718215 -0.40531236 -0.039878815 -0.46322504 -0.08432913
00000000: 8fb2 05bf ff17 69be 75a0 57bd 08ab 04bd
00000010: f637 02be 9a4a fdbc 77a4 acbd a122 d3be
00000020: cd36 abbd aa64 efbd 4ffe 7cbe d95a ecbd
00000030: 68d3 39be ed1d 30be 27d2 d1bd f521 edbd
00000040: dce6 36bd 4451 05be 7ce8 c6be 2248 2bbe
00000050: 8b84 b6be ddeb 4bbe e04d 01be a315 81bd
00000060: 3ffe 04be 1b8a 6dbd abbc c2bd 2f18 8dbd
00000070: bc53 bcbd 09a4 11bf 6875 0abe 31c5 7dbd
00000080: effe c8bd c061 ffbd 8ebf b5bd 86b1 21bf
00000090: ef25 edbd 34ba c7bd 7842 e0bd 895e 03be
000000a0: 6200 f1bd 71ab 6bbe 8352 70bd ae80 18bf
000000b0: d60a 21be f6e4 77bd c4d2 d9bd c751 fcbe
000000c0: 28e1 26be d4a1 22bd 8c0f 0ebe f41d e6bd
000000d0: 8216 c9be 906a f9bd 7980 e7bd c871 94be
000000e0: 9cd2 06bd 871a 89be c2e5 16bd cc31 2bbe
000000f0: 1a85 cfbe f857 23bd d52b edbe c0b4 acbd

conv_layers.2.weight f4 [64, 64, 3]
-0.05710063 -0.036065813 -0.0016893212 0.02041792 0.033184182 0.05103624 -0.00013367912 0.045211192
-0.016425801 0.011376848 -0.06645871 0.07117282 0.0372232 -0.047914833 -0.061169706 0.017930148
0.021152291 -0.06532383 0.045256037 -0.049929056 -0.07067242 0.031679068 -0.07979383 0.019463623
0.07075822 0.04010376 0.06338611 -0.008026988 0.004398801 -0.049019415 -0.12523928 -0.09411205
-0.0832061 -0.006417426 0.014128528 0.020441897 -0.00021438964 0.01568599 -0.0054002237 -0.05820849
-0.03890957 -0.10987488 -0.0555728 -0.037887122 0.04448519 0.015275677 -0.05009399 -0.056761656
-0.023039294 -0.035435542 0.05240596 0.064228415 0.051407583 -0.034001607 0.021339962 -0.03602484
-0.05099248 -0.030771317 0.17127942 0.2610118 0.01958836 -0.03797032 -0.047567505 -0.08286766
-0.0391779 0.053823486 0.043633446 -0.020785693 -0.06943332 -0.023521952 -0.05325234 0.018787816
-0.048785415 0.0015286319 -0.045299895 -0.059773885 -0.04377269 -0.01020853 0.014760314 0.029798882
-0.022237673 -0.05557807 0.034256853 -0.06568935 0.029600693 0.03556136 0.012033625 -0.103011206
-0.037892304 -0.041492146 -0.071261935 0.059085257 -0.05654183 -0.024864854 0.0026744765 -0.06529614
-0.0324842 -0.13922828 -0.011186195 -0.0639136 -0.05214332 -0.043409508 0.04722767 0.0067932764
0.012370364 -0.105588734 0.031640302 -0.0908708 -0.011960945 0.04763164 0.0042652194 -0.0035723478
0.019250039 -0.036603242 -0.06873236 -0.00952435 -0.0013417528 0.019627733 -0.003686691 0.01479043
0.038069084 -0.07580202 0.010916677 -0.06137769 -0.034768395 -0.033676773 -0.013776371 0.0064941435
0.07414571 -0.07303763 -0.107445784 0.012744486 -0.09688907 -0.097109824 -0.07060328 -0.007019368
-0.08507139 -0.04384387 -0.05136651 -0.012079643 -0.04729259 -0.04382587 -0.068254456 -0.065111965
-0.045034133 -0.048290014 -0.08131874 0.04934236 -0.007921215 0.028758582 0.0312629 0.05393136
-0.02955723 0.051074762 -0.08157421 0.011013736 -0.04731918 0.0063202525 -0.03341295 -0.04078837
-0.038206168 -0.007278331 -0.0069765556 0.054484658 -0.017985532 0.040501297 -0.0017773733 -0.038970873
-0.059148416 0.039456025 -0.049944177 -0.04437545 -0.06504123 0.05281668 -0.05925257 -0.0997231
-0.0055020377 -0.039269496 -0.05477201 0.0075590806 -0.09542419 -0.077351995 0.0064047044 -0.0052216197
-0.042966727 0.02967837 -0.06328839 -0.03947259 -0.07708706 -0.0107156 -0.013814884 -0.05150044
0.12309806 -0.105007224 0.021473946 0.022480367 0.028929377 0.032702684 -0.008944289 0.03506446
0.040091284 -0.03558219 0.045346525 0.064369105 0.025056444 -0.058721386 -0.06597397 -0.027864836
0.025906801 -0.05532988 0.012762066 0.06567455 -0.026943468 -0.030107522 -0.022347497 -0.06913853
0.03371971 0.007823929 0.018226312 -0.07857454 0.050004188 0.01618743 -0.08061334 0.020453312
0.024660436 0.060243983 -0.13376804 -0.15289263 0.030650213 -0.01376756 -0.0442892 -0.034672204
-0.04530406 0.006801705 0.03625137 0.05417129 0.011165004 -0.04308212 0.0147798145 -0.0028218634
-0.09306801 0.016349487 0.031832617 -0.046934992 -0.03994546 0.009895018 0.06262417 0.07328373
-0.10038343 -0.06561764 0.06383193 -0.043865673 -0.0051807226 0.025219275 -0.05039058 -0.006889933
00000000: 5ae2 69bd bfb9 13bd 376c ddba 7b43 a73c
00000010: 23ec 073d 600b 513d 372c 0cb9 5f2f 393d
00000020: 678f 86bc f665 3a3c 811b 88bd 0ec3 913d
00000030: 5b77 183d 5842 44bd 168d 7abd 3fe2 923c
00000040: 9247 ad3c 80c8 85bd 655e 393d 6982 4cbd
00000050: b4bc 90bd e9c1 013d f36a a3bd 2d72 9f3c
00000060: b0e9 903d d743 243d 94d0 813d a183 03bc
00000070: d123 903b 95c8 48bd ba3e 00be d2bd c0bd
00000080: f667 aabd 4549 d2bb 577b 673c c475 a73c
00000090: c8cd 60b9 e87f 803c 5cf4 b0bb 076c 6ebd
000000a0: a45f 1fbd 1506 e1bd 4ea0 63bd 872f 1bbd
000000b0: 1a36 363d d546 7a3c 5b2f 4dbd e97e 68bd
000000c0: e7bc bcbc dc24 11bd a2a7 563d 308a 833d
000000d0: c290 523d 4545 0bbd 25d1 ae3c c88e 13bd
000000e0: 7edd 50bd 2114 fcbc df63 2f3e 57a3 853e
000000f0: c577 a03c c486 1bbd 25d6 42bd 85b6 a9bd
00000100: 0179 20bd 0476 5c3d fcb8 323d c246 aabc
00000110: 0e33 8ebd 1cb1 c0bc 201f 5abd e8e8 993c
00000120: 37d3 47bd 605c c83a 628c 39bd 76d5 74bd
00000130: fe4a 33bd ae41 27bc 3ed5 713c c91c f43c
00000140: c82b b6bc d5a5 63bd ea50 0c3d 2388 86bd
00000150: 277d f23c caa8 113d ae28 453c 8af7 d2bd
00000160: f634 1bbd abf3 29bd c7f1 91bd 6203 723d
00000170: 6898 67bd 61b1 cbbc 4546 2f3b fcb9 85bd
00000180: 270e 05bd dc91 0ebe 4d46 37bc 22e5 82bd
00000190: 3c94 55bd 2bce 31bd cd71 413d 229a de3b
000001a0: 11ad 4a3c e83e d8bd 4399 013d 781a babd
000001b0: d7f7 43bc 6519 433d 41c3 8b3b 0d1e 6abb
000001c0: 42b2 9d3c 48ed 15bd 8dc3 8cbd 050c 1cbc
000001d0: c1dd afba 57ca a03c 699c 71bb 8f53 723c
000001e0: 54ee 1b3d 173e 9bbd dddb 323c 2c67 7bbd
000001f0: 4e69 0ebd a8f0 09bd 4ab6 61bc d3cc d43b
00000200: b5d9 973d c194 95bd 890c dcbd 40ce 503c
00000210: c76d c6bd 84e1 c6bd 7498 90bd ba02 e6bb
00000220: e939 aebd a195 33bd b165 52bd b2e9 45bc
00000230: e0b5 41bd c182 33bd fec8 8bbd 6c59 85bd
00000240: b675 38bd c0cb 45bd 718a a6bd 371b 4a3d
00000250: fcc7 01bc 1e97 eb3c 870d 003d 21e7 5c3d
00000260: 0122 f2bc c533 513d 6110 a7bd f572 343c
00000270: c2d1 41bd 1f1a cf3b 04dc 08bd b511 27bd
00000280: 127e 1cbd 117f eebb 979b e4bb 4e2b 5f3d
00000290: 6556 93bc b0e4 253d c0f6 e8ba ec9f 1fbd
000002a0: 9c45 72bd a49c 213d 4492 4cbd 08c3 35bd
000002b0: 5634 85bd 4e56 583d d3b2 72bd a03b ccbd
000002c0: 704a b4bb 0dd9 20bd 9d58 60bd 2ab2 f73b
000002d0: c26d c3bd b96a 9ebd 8ede d13b 1f1a abbb
000002e0: e1fd 2fbd 0e20 f33c 589d 81bd 03ae 21bd
000002f0: d2df 9dbd 7c90 2fbc d357 62bc 20f2 52bd
00000300: d61a fc3d 070e d7bd 21ea af3c bf28 b83c
00000310: 4dfd ec3c 40f3 053d 118b 12bc c09f 0f3d
00000320: c236 243d a1be 11bd 47bd 393d f3d3 833d
00000330: 2c43 cd3c d685 70bd 5c1d 87bd cc44 e4bc
00000340: 803a d43c 96a1 62bd fc17 513c 6180 863d
00000350: 8cb8 dcbc 0da4 f6bc 1912 b7bc 8098 8dbd
00000360: ae1d 0a3d f02f 003c 594f 953c b0eb a0bd
00000370: 31d1 4c3d 809b 843c 9b18 a5bd b48d a73c
00000380: af04 ca3c 65c2 763d 7dfa 08be e38f 1cbe
00000390: 2816 fb3c 5591 61bc 9868 35bd 7104 0ebd
000003a0: c090 39bd d6e0 de3b 517c 143d b7e2 5d3d
000003b0: 6ced 363c e176 30bd 0927 723c 03ef 38bb
000003c0: 719a bebd 5cef 853c eb62 023d e83e 40bd
000003d0: da9d 23bd b71e 223c 1a41 803d c815 963d
000003e0: d495 cdbd 8b62 86bd 51ba 823d 7eac 33bd
000003f0: 0dc3 a9bb a798 ce3c 5a66 4ebd f2c4 e1bb

conv_layers.2.bias f4 [64]
-0.18351363 -0.25857738 -0.15514368 -0.09779298 -0.31823152 -0.10342205 -0.13554992 -0.33887118
-0.14276136 -0.24126121 0.4407393 -0.078169614 -0.2456077 -0.14267576 -0.1624296 -0.14201131
-0.1092015 -0.0032147905 -0.1550536 -0.13802622 -1.0361298 -0.047769874 -0.40401268 -0.14463636
-0.049866706 -0.27627194 -0.36985257 -0.0919701 -0.21067126 -0.112815574 -0.10152283 -0.39677843
-0.1667987 -0.11775355 -0.469244 -0.34596997 -0.31918922 -0.09920514 -0.104322776 -0.39235392
-0.24977477 -0.13985793 -0.08998135 -0.28935868 -0.2351596 -0.14625797 -0.3137116 -0.31875396
-0.06796266 -0.3520575 -0.022627965 -0.36044773 -0.12513562 -0.0024523856 -0.20433803 -0.16971347
-0.23371232 -0.1144175 0.37981233 -0.2238168 -0.13723598 -0.5513771 -0.0938407 -0.30251753
00000000: ffea 3bbe 4164 84be fcdd 1ebe b047 c8bd
00000010: 3eef a2be f1ce d3bd 99cd 0abe 8680 adbe
00000020: 0930 12be 2e0d 77be 95a8 e13e 6417 a0bd
00000030: 9680 7bbe 9819 12be f253 26be 6a6b 11be
00000040: 09a5 dfbd 3caf 52bb 5fc6 1ebe bf56 0dbe
00000050: e79f 84bf 58aa 43bd c0da cebe 8e1b 14be
00000060: 0841 4cbd 8473 8dbe 515d bdbe d25a bcbd
00000070: 35ba 57be da0b e7bd 34eb cfbd 8b26 cbbe
00000080: 47cd 2abe c628 f1bd c040 f0be fa22 b1be
00000090: c56c a3be 102c cbbd 2ea7 d5bd 9de2 c8be
000000a0: f5c4 7fbe eb36 0fbe 2448 b8bd d226 94be
000000b0: aecd 70be a6c4 15be cf9e a0be b833 a3be
000000c0: 0230 8bbd e140 b4be 485e b9bc 9b8c b8be
000000d0: 8d23 00be 34b8 20bb fd3d 51be 5ec9 2dbe
000000e0: 4852 6fbe b953 eabd c376 c23e 3b30 65be
000000f0: 9787 0cbe 0d27 0dbf 8e2f c0bd 94e3 9abe

conv_layers.3.weight f4 [64, 64, 3]
-0.029243015 -0.052154254 0.015937176 -0.061868656 -0.03262265 -0.015845647 0.0036242052 -0.063104816
0.024332246 -0.51133436 -0.18155639 -0.3809938 0.013278661 -0.038846504 -0.040088058 -0.06492178
-0.0641338 -0.042002868 -0.45823577 -0.064253 -0.24740472 -0.07173096 -0.05078621 0.047988135
0.0060595185 0.019860454 0.06507795 0.06770597 0.052302185 0.06067461 0.0332262 -0.4299121
0.003673703 0.041395467 -0.040183734 -0.016900897 0.040035356 -0.04122173 -0.022551669 -0.05934784
-0.028099315 -0.060791254 -0.2839769 -0.07295454 0.113596655 -0.027207164 0.061657846 -0.0069959243
-0.037824336 0.005000492 -0.005353128 -0.33225825 0.15815596 -0.36087576 0.042163715 -0.059227385
-0.01648951 0.0069935755 0.06747248 0.037827577 -0.12634018 -0.018021952 0.023282446 -0.05624514
-0.03593977 0.010045411 0.12356452 -0.6791164 -0.57441103 -0.04923532 0.040125508 -0.052347507
0.114103734 0.03259475 0.010361978 0.0009555218 0.039714955 0.02077203 -0.7383241 0.07178189
-0.11030956 -0.027265735 0.029849833 -0.03882241 -0.053426787 -0.02743885 0.049361985 -0.05910471
-0.06174909 0.048334952 0.015060967 -0.07213569 0.05310051 0.02399901 -0.058236573 -0.0069599827
0.25194737 0.03339008 -0.5379602 -0.054381654 -0.036050804 -0.04409346 -0.032558296 0.04895607
-0.06434459 0.006929611 -0.039148632 -0.03412984 0.07302889 -0.26199853 -0.30226222 0.049280696
0.0356028 -0.011592979 0.035707805 -0.05755384 0.050558794 -0.36531067 -0.13935293 -0.011525135
-0.20683156 -0.19549654 -0.15940014 -0.05213082 0.05950857 0.038000543 0.01855406 0.018561425
0.025583038 0.1857993 0.24125776 -0.142043 0.042743508 0.049220968 0.06260231 -0.048367612
0.0052702534 0.060210936 -0.6982603 -0.09707489 -0.09453816 -0.013012479 -0.0017905817 -0.043466013
-0.09921325 0.20360567 -0.3708643 -0.08057184 0.0877663 0.050561827 -0.034728773 0.10342162
0.08229812 -0.12812065 -0.46158668 -0.25891212 -0.0017160609 -0.06872431 -0.07016114 -0.033940494
0.03562911 -0.05445114 -0.06935531 -0.013254383 0.01656427 0.060052626 0.03102827 0.051939346
0.009975914 -0.066831835 -0.051669765 -0.062004503 0.027221575 -0.024822507 -0.090085365 -0.6768892
0.067950286 0.060868565 0.03921214 -0.41544047 -0.07041781 0.07628956 -0.041417904 0.20160563
0.09654386 -0.01098837 0.052294176 -0.049294777 0.061060827 0.016129768 -0.013275539 0.0034930755
-0.0025211845 -0.033750508 0.011260843 -0.034422494 0.0061712484 0.028000964 -0.057432972 0.004171891
-0.049084917 -0.0076399297 -0.09147285 -0.0055894232 0.017840955 -0.062453605 -0.09130515 -0.0627296
0.017613513 -0.022405867 -0.13248917 0.004533438 -0.055559598 -0.040038746 -0.03815229 -0.052359343
0.069608375 -0.03774748 -0.06694913 -0.090949275 -0.14677298 -0.11195478 -0.014607591 -0.05910163
-0.07600768 0.002902206 0.029686904 -0.008966165 -0.01973657 0.0123562515 0.007404145 -0.060535513
-0.0007222324 -0.041023456 0.016386066 0.022946548 -0.0130123515 0.001142581 -0.06810969 0.037740823
-0.02740034 0.019599399 0.05519007 -0.009340092 -0.07256572 0.046221144 0.037981533 -0.007848483
0.01347779 0.050126154 -0.07056147 -0.008635023 -0.053603753 -0.057277873 -0.042481747 -0.073323965
00000000: 0c8f efbc b39f 55bd ae8e 823c fd69 7dbd
00000010: 549f 05bd bbce 81bc 1384 6d3b 193d 81bd
00000020: 6b54 c73c cfe6 02bf ebe9 39be 9f11 c3be
00000030: be8e 593c 831d 1fbd 6033 24bd b6f5 84bd
00000040: 9558 83bd 330b 2cbd e19d eabe 1497 83bd
00000050: aa57 7dbe aee7 92bd 3305 50bd 358f 443d
00000060: ed8e c63b 64b2 a23c 9747 853d 6da9 8a3d
00000070: d13a 563d f185 783d 3218 083d 701d dcbe
00000080: 82c2 703b 4b8e 293d b397 24bd c073 8abc
00000090: 1dfc 233d 1ed8 28bd 47be b8bc b816 73bd
000000a0: 8930 e6bc 4000 79bd 6c65 91be 3169 95bd
000000b0: 5da5 e83d 8fe1 debc f08c 7c3d 113e e5bb
000000c0: b1ed 1abd 2bdb a33b 4b69 afbb c11d aabe
000000d0: a3f3 213e b5c4 b8be dcb3 2c3d 6a98 72bd
000000e0: 0215 87bc 5d2a e53b 032f 8a3d 17f1 1a3d
000000f0: 525f 01be c6a2 93bc d4ba be3c 4e61 66bd
00000100: 9535 13bd 8295 243c 650f fd3d 93da 2dbf
00000110: 9a0c 13bf faaa 49bd a55a 243d 576a 56bd
00000120: 38af e93d 1382 053d 49c5 293c fc7b 7a3a
00000130: 26ac 223d 1b2a aa3c cf02 3dbf 6202 933d
00000140: fbe9 e1bd 645c dfbc a387 f43c 3f04 1fbd
00000150: 0cd6 5abd 70c7 e0bc cb2f 4a3d c817 72bd
00000160: 9dec 7cbd dffa 453d 46c2 763c e0bb 93bd
00000170: ec7f 593d 9299 c43c 7989 6ebd 9110 e4bb
00000180: 3fff 803e 09c4 083d c2b7 09bf 4cbf 5ebd
00000190: 02aa 13bd 589b 34bd d95b 05bd 2986 483d
000001a0: 19c7 83bd ca11 e33b 515a 20bd bbcb 0bbd
000001b0: 2c90 953d ac24 86be 1dc2 9abe 8eda 493d
000001c0: 3ed4 113d 7af0 3dbc 5942 123d 93bd 6bbd
000001d0: bd16 4f3d 000a bbbe 89b2 0ebe ebd3 3cbc
000001e0: a7cb 53be 3f30 48be ca39 23be 2087 55bd
000001f0: 42bf 733d 75a6 1b3d affe 973c 210e 983c
00000200: 8593 d13c 2c42 3e3e 460c 773e b873 11be
00000210: d113 2f3d ed9b 493d a435 803d 1e1d 46bd
00000220: 17b2 ac3b be9f 763d 30c1 32bf 33cf c6bd
00000230: 399d c1bd 4b32 55bc f4b1 eaba 6b09 32bd
00000240: 5130 cbbd 017e 503e ede1 bdbe d902 a5bd
00000250: d1be b33d eb19 4f3d c23f 0ebd b7ce d33d
00000260: eb8b a83d 0f32 03be 1755 ecbe 2190 84be
00000270: 73ed e0ba 55bf 8cbd a5b0 8fbd 3005 0bbd
00000280: d4ef 113d 2908 5fbd 280a 8ebd e928 59bc
00000290: cbb1 873c bef9 753d 002f fe3c 5abe 543d
000002a0: 0472 233c 21df 88bd ada3 53bd 6ff8 7dbd
000002b0: c8ff de3c 9258 cbbc ad7e b8bd 9c48 2dbf
000002c0: 8529 8b3d 5151 793d e99c 203d 9db4 d4be
000002d0: 3637 90bd b33d 9c3d d2a5 29bd b571 4e3e
000002e0: cab8 c53d 9008 34bc 6b32 563d 52e9 49bd
000002f0: eb1a 7a3d 9322 843c a581 59bc 15ec 643b
00000300: 753a 25bb f93d 0abd 667f 383c 9afe 0cbd
00000310: 2f38 ca3b 4762 e53c d63e 6bbd 5cb4 883b
00000320: 440d 49bd 6058 fabb 1e56 bbbd 7b27 b7bb
00000330: 3227 923c 5acf 7fbd 32fe babd 6078 80bd
00000340: 374a 903c 828c b7bc 3eab 07be 3c8d 943b
00000350: 7692 63bd abff 23bd 9345 1cbd c076 56bd
00000360: d68e 8e3d 1a9d 1abd a01c 89bd 9d43 babd
00000370: a84b 16be 8c48 e5bd ad54 6fbc 8d14 72bd
00000380: eaa9 9bbd f032 3e3b f331 f33c d2e6 12bc
00000390: 96ae a1bc e071 4a3c 789e f23b 16f4 77bd
000003a0: 3254 3dba 3608 28bd 123c 863c 66fa bb3c
000003b0: c231 55bc a8c2 953a 187d 8bbd 1f96 1a3d
000003c0: ae76 e0bc eb8e a03c fc0e 623d 2f07 19bc
000003d0: 569d 94bd 6252 3d3d 8692 1b3d ec96 00bc
000003e0: f3d1 5c3c 1551 4d3d 8882 90bd e979 0dbc
000003f0: 9c8f 5bbd 349c 6abd 5701 2ebd e02a 96bd

conv_layers.3.bias f4 [64]
-0.078995526 -0.123186894 -0.13826013 -0.16026065 0.5641642 -0.10525175 -0.1173922 -0.12259911
-0.20469111 -0.2969998 -0.26677528 -0.10886669 0.008793029 -0.10755753 -0.10508572 -0.0702774
-0.09645963 -0.2014732 -0.20142019 -0.20402406 -0.0995856 -0.10749294 -0.14387101 -0.16684859
-0.12318422 -0.11087144 -0.06301516 -0.12773283 -0.2317073 -0.07023908 -0.10382734 -0.1412319
-0.07688938 -0.16199842 -0.2764475 -0.11863569 -0.21416768 -0.14685203 -0.09828337 -0.14196502
-0.07275046 -0.09330876 -0.19785881 -0.14723732 -0.13360572 -0.13680144 -0.26234213 -0.1005305
-0.11303926 -0.09706968 -0.14844224 -0.13038497 -0.08762214 -0.074094035 -0.21443166 0.11381819
-0.045838114 -0.11689314 -0.26044023 -0.41444206 -0.2503105 -0.17453474 -0.2582834 -0.091491975
00000000: 68c8 a1bd 6949 fcbd 1094 0dbe 5e1b 24be
00000010: 116d 103f 3b8e d7bd 526b f0bd 3e15 fbbd
00000020: 8c9a 51be 5c10 98be c596 88be 80f5 debd
00000030: a310 103c 1f47 dcbd 2f37 d7bd 99ed 8fbd
00000040: a08c c5bd fe4e 4ebe 1841 4ebe afeb 50be
00000050: 89f3 cbbd 4225 dcbd ec52 13be 5bda 2abe
00000060: 0248 fcbd 9110 e3bd 180e 81bd 65cc 02be
00000070: ae44 6dbe 82d9 8fbd 6ea3 d4bd 189f 10be
00000080: 2e78 9dbd eae2 25be 878a 8dbe 45f7 f2bd
00000090: c64e 5bbe 6160 16be cb48 c9bd 475f 11be
000000a0: 31fe 94bd aa18 bfbd 809b 4abe 61c5 16be
000000b0: f0cf 08be ad15 0cbe b551 86be efe2 cdbd
000000c0: 2181 e7bd 78cc c6bd 3e01 18be a383 05be
000000d0: 3d73 b3bd 9dbe 97bd f993 5bbe 8319 e93d
000000e0: bfc0 3bbd ac65 efbd 6c58 85be c031 d4be
000000f0: b328 80be 3cb9 32be b93d 84be 2560 bbbd

dense.weight f4 [3, 3200]
-0.006372023 -0.13336216 -0.19885254 0.04379709 -0.043389946 0.057086553 -0.007066199 0.06270076
-0.039140433 0.040375702 0.07735446 0.10580025 0.13509262 0.040263597 -0.04522404 -0.062005267
-0.03403185 0.023119591 0.15519278 0.09895202 0.03754704 -0.09224312 -0.056202605 0.026704706
0.05034979 0.06485752 0.15577123 0.12371084 0.011292801 0.063518 0.075007446 0.15783808
-0.063942865 -0.11623747 -0.04736182 -0.2171541 0.052350137 0.0909494 -0.06455621 0.016616637
-0.019813074 0.13065952 0.030495813 0.105424814 0.1104728 0.115260586 0.12769474 0.06309292
0.04384864 -0.013751187 0.01386382 -0.009331476 0.015056698 0.0028631233 0.0063231555 -0.016747873
-0.0164132 0.0050855014 -0.013674436 0.008528127 0.0010695141 0.026089761 0.026110899 0.025587996
-0.0011067204 -0.002107828 0.00533995 -0.021103615 -0.009840858 -0.03124999 0.007236836 0.015417249
0.015241542 0.008338489 -0.007293104 -0.012472678 0.001266421 0.016258609 -0.0007191411 0.01345331
0.0030447128 0.018232258 0.007680583 -0.014539231 -0.030156964 0.0037353172 -0.021231188 0.015954942
0.019055836 0.019990336 -0.010077555 0.006955377 0.006109793 -0.0016108644 -0.015230519 -0.01458267
-0.0058094924 -0.0031688593 -0.036524806 0.014028162 -0.14748791 -0.12757118 -0.107118584 -0.23789892
-0.02538635 -0.054658893 0.1469076 0.076046735 0.054743107 0.07246721 0.0074109505 -0.19934347
-0.0688183 0.22431348 0.1374229 -0.15853748 -0.032779917 0.03709658 0.30126077 -0.14089055
-0.05664322 -0.16151725 0.06929322 -0.26003757 -0.089459196 0.25610498 -0.03433499 -0.09641683
-0.063238695 0.08453082 0.24951363 0.06261458 -0.077385105 -0.07687534 0.02778833 -0.018038845
-0.110379875 0.11012423 0.017929615 0.119908035 -0.07144064 0.075466245 0.13067496 0.06351146
-0.008171677 0.072876066 0.17238311 -0.19578785 0.0059736148 0.039380085 0.018419592 -0.0025228045
0.025226627 0.041479424 0.07517118 0.019470863 0.020066235 0.014342653 0.08084007 0.0017072791
-0.037273675 -0.010935608 0.0056125405 -0.019887667 -0.037658416 0.023076106 -0.010650729 0.050612435
0.06179683 -0.008515411 -0.013927446 -0.0057206578 0.015279018 0.017450556 0.09760812 0.065871485
0.032567747 0.015776763 -0.027535893 -0.0006236238 0.00086679653 0.0116535025 0.045200307 -0.010384151
-0.038755268 0.00078666967 0.041920617 0.01565656 0.014342216 -0.050406437 0.005679808 -0.02109493
0.022196049 -0.0071372483 0.020647634 -0.00572426 0.024384812 -0.14536266 -0.0061279386 0.011006286
0.025211137 -0.04308725 0.026143005 0.025895039 -0.10095948 0.012589951 -0.012956982 -0.014235587
-0.03603618 -0.07375773 0.03060664 -0.0037064021 -0.032025974 -0.007993816 -0.02083153 -0.047669508
-0.035186913 -0.017927824 -0.014299072 -0.015347045 -0.016642423 -0.048241567 0.0010506685 0.0068232114
0.03057722 0.016808713 -0.02784129 -0.056912694 -0.062842496 -0.033191446 -0.06420842 -0.046235505
-0.028216157 -0.035747435 -0.036128324 -0.06332527 -0.02775848 -0.020624798 -0.00070513936 -0.030364461
-0.03466501 -0.04114814 -0.053185314 -0.01272611 0.019592192 0.10469392 -0.035940368 -0.017261228
0.047613323 -0.35432187 -0.020694442 -0.13074015 -0.03347547 -0.07102572 -0.02237889 0.058318917
00000000: 67cc d0bb 1790 08be 00a0 4bbe 9464 333d
00000010: a8b9 31bd 97d3 693d 938b e7bb 4269 803d
00000020: b851 20bd fe60 253d 046c 9e3d cdad d83d
00000030: b855 0a3e 71eb 243d d83c 39bd 3cf9 7dbd
00000040: fb64 0bbd 4c65 bd3c dbea 1e3e 5ba7 ca3d
00000050: edca 193d f6e9 bcbd b434 66bd d4c3 da3c
00000060: 953b 4e3d 05d4 843d 7e82 1f3e 1c5c fd3d
00000070: 7105 393c ba15 823d 819d 993d 4ea0 213e
00000080: 7af4 82bd e90d eebd 78fe 41bd a55d 5ebe
00000090: 196d 563d ae43 ba3d 0c36 84bd 9d1f 883c
000000a0: 074f a2bc 9ccb 053e 5bd2 f93c f7e8 d73d
000000b0: 903f e23d be0d ec3d 69c2 023e dc36 813d
000000c0: a29a 333d a94c 61bc 1325 633c 0ce3 18bc
000000d0: 5eb0 763c 3da3 3b3b 7932 cf3b d632 89bc
000000e0: fa74 86bc 47a4 a63b be0a 60bc 8fb9 0b3c
000000f0: f02e 8c3a 32ba d53c 86e6 d53c eb9d d13c
00000100: 600f 91ba 7c23 0abb bffa ae3b 7de1 acbc
00000110: 8d3b 21bc fbff ffbc fb22 ed3b a198 7c3c
00000120: a9b7 793c 289e 083c fefa eebb 345a 4cbc
00000130: 0afe a53a c630 853c be84 3cba 466b 5c3c
00000140: ce89 473b d15b 953c 66ad fb3b f435 6ebc
00000150: bd0b f7bc 39cc 743b 07ed adbc f0b3 823c
00000160: fc1a 9c3c c6c2 a33c 541c 25bc eee9 e33b
00000170: a934 c83b a423 d3ba 6d89 79bc 27ec 6ebc
00000180: 8e5d bebb a3ac 4fbb 099b 15bd 60d6 653c
00000190: 1207 17be 05a2 02be fd60 dbbd c69b 73be
000001a0: 09f7 cfbc 01e2 5fbd f26e 163e 64be 9b3d
000001b0: 4f3a 603d b069 943d 8fd7 f23b b220 4cbe
000001c0: 9cf0 8cbd 6fb2 653e 97b8 0c3e a657 22be
000001d0: 3c44 06bd 95f2 173d da3e 9a3e 9d45 10be
000001e0: b902 68bd c764 25be 9be9 8d3d a523 85be
000001f0: 6236 b7bd 3120 833e d9a2 0cbd 3076 c5bd
00000200: 4a83 81bd 7f1e ad3d 8080 7f3e 133c 803d
00000210: 157c 9ebd d170 9dbd 5aa4 e33c 33c6 93bc
00000220: d80e e2bd d088 e13d 21e1 923c 5892 f53d
00000230: 784f 92bd 0c8e 9a3d a8cf 053e 4c12 823d
00000240: 7fe2 05bc 0c40 953d 3385 303e 9c7c 48be
00000250: 50be c33b 034d 213d afe4 963c a355 25bb
00000260: 12a8 ce3c 54e6 293d 59f3 993d 5c81 9f3c
00000270: f261 a43c 72fd 6a3c 7b8f a53d c8c6 df3a
00000280: 48ac 18bd 442b 33bc 67e9 b73b 76eb a2bc
00000290: b63f 1abd 1a0a bd3c 6580 2ebc fc4e 4f3d
000002a0: ac1e 7d3d 3984 0bbc f12f 64bc 5b74 bbbb
000002b0: d954 7a3c 78f4 8e3c c4e6 c73d a1e7 863d
000002c0: c265 053d 453e 813c f492 e1bc af7a 23ba
000002d0: bb39 633a 55ee 3e3c f523 393d 4922 2abc
000002e0: d8bd 1ebd 8238 4e3a f4b4 2b3d 3042 803c
000002f0: 9dfb 6a3c fb76 4ebd af1d ba3b 46cf acbc
00000300: 7dd4 b53c 94df e9bb 3a25 a93c 9392 bbbb
00000310: a8c2 c73c f3d9 14be e0cc c8bb b653 343c
00000320: 9687 ce3c 427c 30bd db29 d63c d521 d43c
00000330: d8c3 cebd 1546 4e3c 8549 54bc 613c 69bc
00000340: ac9a 13bd 4b0e 97bd c7ba fa3c 1ce7 72bb
00000350: ab2d 03bd 7ff8 02bc e3a6 aabc 1a41 43bd
00000360: 2720 10bd 5fdd 92bc a846 6abc 2c72 7bbc
00000370: b155 88bc f398 45bd 96b6 893a 3f95 df3b
00000380: 147d fa3c 6db2 893c 6b13 e4bc 491d 69bd
00000390: 91b3 80bd c1f3 07bd b47f 83bd 7161 3dbd
000003a0: 9225 e7bc e76b 12bd 4bfb 13bd aeb0 81bd
000003b0: c065 e3bc 56f5 a8bc 1ad9 38ba e4be f8bc
000003c0: e6fc 0dbd f48a 28bd d8d8 59bd 2d81 50bc
000003d0: ce7f a03c c469 d63d 3536 13bd 6b67 8dbc
000003e0: 3006 433d ad69 b5be 6487 a9bc bfe0 05be
000003f0: 931d 09bd ef75 91bd ef53 b7bc d1df 6e3d

dense.bias f4 [3]
0.60536766 0.60558593 0.60578614
00000000: 60f9 1a3f ae07 1b3f cd14 1b3f
