dataset_test/TimesNet-for-Time-Series-Prediction/model_saved/sentiment_25.pt (torch, 193539 bytes, 10 tensors)

conv_layers.0.weight f4 [64, 4, 3]
-0.13657837 -0.22833134 0.18486066 -0.14553903 -0.1510007 0.08589752 -0.30666336 -0.9958473
-1.3196218 0.05741121 0.005894241 0.008819129 -0.33591896 -0.05284338 -0.24775888 0.21390429
-0.26819324 -0.15778261 0.02119017 0.020923149 0.14971168 0.16173346 0.19885358 -0.38940358
-0.43495405 0.019546729 -0.035343926 -0.2720996 -0.17117321 0.18960017 -0.25547472 -0.016338188
-0.04146703 0.13678044 -0.04124448 0.1510837 0.09065161 -0.026726684 -0.22840247 -0.040825047
-0.36780196 0.25587136 -0.23796807 -0.81099266 -0.9636163 -0.033320535 -0.04866372 0.0037694802
0.0599315 -0.18282484 0.053821743 -0.10006462 0.100353725 -0.2498657 -0.1838622 0.15779303
-0.1791655 -0.11122341 -0.19818097 0.14183892 -0.89565635 0.49715662 0.17100975 -0.48823825
0.059429802 -0.4779631 -0.56423557 -0.20756793 -0.009534626 -0.81121427 -0.16519618 -0.17337741
-0.0719376 0.2292987 0.2660991 -0.2716616 -0.5001705 -0.37353823 -0.37633437 -0.34939158
-0.52139187 0.025538974 -0.31528503 -0.06517736 0.104329616 -0.2911869 -0.15684202 0.24397734
-0.14470126 -0.042826593 -0.0010265702 -0.0017731223 -0.11776751 0.08503208 -0.3528448 0.2321304
-0.190265 -0.5098412 -0.34876803 -0.13450995 -0.2402635 -0.18671748 0.17097111 0.112265214
-0.15597452 -0.3744113 -0.44581884 0.16527544 0.47256622 0.93555087 0.8374807 0.30367264
0.29489592 -0.26509547 -0.12789151 -0.24356459 -0.066627026 -0.099964604 -0.16485924 -0.05843554
-0.27459988 0.37411568 0.370265 -0.20579782 -0.48245034 -0.330046 0.010537352 -0.40671402
-0.1756213 -0.4630834 -0.5584804 -0.41133854 0.29463515 -0.2251836 0.505702 -0.68777305
-0.87700313 -0.7585262 -0.42324206 -0.5532116 -0.9437735 -0.034145854 -2.592774 0.043255918
-0.06348727 -0.23521204 -0.36207822 -0.66412926 -0.17068008 -0.47058958 -0.46471456 -1.2997309
-0.69347376 -0.044263247 -0.51188445 -0.2873644 -0.29948464 -0.26473832 -0.3184809 -0.20353359
0.16354996 0.10953176 -0.20108901 -0.14560576 0.1313638 -0.34190556 -0.062207386 -0.051520407
0.20896812 0.025928834 -0.056965582 -0.00993311 -0.2985066 0.014213396 -0.116459094 -0.5174936
-0.9958629 -0.0018527745 -0.025711965 0.034132797 -0.59560907 -0.33474365 -0.8396955 0.289734
0.17041516 0.09865218 -0.031133989 0.009203273 0.49441767 -0.47165847 -0.5454508 -0.4205311
-0.088587046 -0.1959031 0.59077096 0.105939336 0.14739598 -0.30751458 0.14161524 0.24793586
-0.51232094 -0.20799588 -0.5377674 0.15014887 -0.48816755 -0.4465444 0.0152652785 -1.2181809
-1.1086162 0.24841654 -0.58118165 -1.2957026 0.00088624633 -0.30167925 -0.42583048 0.005923935
0.033943884 0.0143189635 0.1894211 -0.18650816 -0.40394077 0.13404669 -0.4911624 -0.47227526
-0.32218793 0.06506016 0.10980517 -0.112240255 -0.6179347 -0.5912823 -0.4255288 -0.8185229
-0.5626286 0.07240014 -0.51682186 -1.3499318 0.10370165 -0.25225183 -0.25394908 0.0059334897
-0.17689289 0.057599545 -0.101937674 0.12847997 -0.117597274 -0.12300551 -0.07753038 -0.17175068
0.015405458 -0.90413284 -0.5139297 0.48008016 -0.43134198 -0.5053145 -0.7765209 -1.1584343
00000000: 33db 0bbe b1cf 69be 1d4c 3d3e 2f08 15be
00000010: ed9f 1abe 0aeb af3d fb02 9dbe d9ef 7ebf
00000020: 5ee9 a8bf 0428 6b3d 7a24 c13b 1c7e 103c
00000030: 92fd abbe 4d72 58bd 81b4 7dbe ba09 5b3e
00000040: a050 89be c491 21be 0297 ad3c 0667 ab3c
00000050: 054e 193e 759d 253e 46a0 4b3e e85f c7be
00000060: 4cb2 debe 7620 a03c cbc4 10bd a450 8bbe
00000070: 0848 2fbe 8c26 423e 95cd 82be aad7 85bc
00000080: 55d9 29bd 2c10 0c3e f9ef 28bd afb5 1a3e
00000090: 8da7 b93d ebf1 dabc 56e2 69be 2a38 27bd
000000a0: 8a50 bcbe 9201 833e e7ad 73be 379d 4fbf
000000b0: 8faf 76bf 1d7b 08bd 9c53 47bd 6209 773b
000000c0: bc7a 753d 6f36 3bbe 3074 5c3d aeee ccbd
000000d0: 4186 cd3d cbdc 7fbe 5f46 3cbe 7f94 213e
000000e0: 2977 37be 19c9 e3bd f4ef 4abe 393e 113e
000000f0: bc49 65bf 508b fe3e 2e1d 2f3e 5dfa f9be
00000100: aa6c 733d 94b7 f4be be71 10bf b08c 54be
00000110: 1f37 1cbc bdab 4fbf 3029 29be d989 31be
00000120: 0554 93bd 47cd 6a3e 243e 883e 3b17 8bbe
00000130: 2d0b 00bf 6740 bfbe e6ae c0be 74e3 b2be
00000140: f079 05bf 1c37 d13c 0a6d a1be b57b 85bd
00000150: c4aa d53d 7316 95be 329b 20be 32d5 793e
00000160: 912c 14be f06a 2fbd fb8d 86ba 1d68 e8ba
00000170: 1830 f1bd 4d25 ae3d 13a8 b4be 97b3 6d3e
00000180: d4d4 42be f484 02bf b991 b2be fabc 09be
00000190: a307 76be de32 3fbe 0d13 2f3e 4eeb e53d
000001a0: c9b7 1fbe d7b2 bfbe 5e42 e4be f73d 293e
000001b0: 33f4 f13e 4380 6f3f 2365 563f fb7a 9b3e
000001c0: 99fc 963e 98ba 87be fef5 02be ff68 79be
000001d0: c073 88bd 3eba ccbd dcd0 28be 1b5a 6fbd
000001e0: 5b98 8cbe 178c bf3e 6093 bd3e aabc 52be
000001f0: bb03 f7be cafb a8be dca4 2c3c d23c d0be
00000200: 12d6 33be 4419 edbe 92f8 0ebf f79a d2be
00000210: 6bda 963e 8896 66be b075 013f e511 30bf
00000220: 4783 60bf c62e 42bf 2fb3 d8be 479f 0dbf
00000230: 249b 71bf 86dc 0bbd 02f0 25c0 1e2d 313d
00000240: 9d05 82bd 6ddb 70be 5162 b9be 6004 2abf
00000250: c2c6 2ebe 1ef1 f0be 11ef edbe 955d a6bf
00000260: 7f87 31bf 614d 35bd dc0a 03bf 6d21 93be
00000270: 0d56 99be c88b 87be ee0f a3be 1c6b 50be
00000280: a479 273e 3052 e03d 47ea 4dbe ad19 15be
00000290: 3b84 063e 3f0e afbe 2ccd 7ebd 1007 53bd
000002a0: bdfb 553e b568 d43c be54 69bd 7cbe 22bc
000002b0: dbd5 98be 4edf 683c 1b82 eebd 767a 04bf
000002c0: dff0 7ebf ccd8 f2ba e6a1 d2bc d5ce 0b3d
000002d0: d679 18bf 8563 abbe 49f6 56bf 0458 943e
000002e0: 5081 2e3e 270a ca3d b50c ffbc 53c9 163c
000002f0: 5024 fd3e 387d f1be aaa2 0bbf da4f d7be
00000300: 206d b5bd d29a 48be c43c 173f b9f6 d83d
00000310: f9ee 163e 8d72 9dbe 9603 113e e6e2 7d3e
00000320: 7727 03bf dffc 54be 20ab 09bf a0c0 193e
00000330: 19f1 f9be 78a1 e4be 381b 7a3c 5aed 9bbf
00000340: 23e7 8dbf e860 7e3e 52c8 14bf 95d9 a5bf
00000350: fc52 683a b475 9abe 7406 dabe 921d c23b
00000360: be08 0b3d 169a 6a3c 9bf7 413e fffb 3ebe
00000370: 53d1 cebe 8943 093e a379 fbbe 10ce f1be
00000380: d1f5 a4be 433e 853d 88e1 e03d 38de e5bd
00000390: f830 1ebf 475e 17bf e9de d9be b78a 51bf
000003a0: 6e08 10bf 8646 943d 704e 04bf 91ca acbf
000003b0: 8861 d43d 2727 81be 9d05 82be b86d c23b
000003c0: 6923 35be 80ed 6b3d b3c4 d0bd 4190 033e
000003d0: d7d6 f0bd 50ea fbbd 3fc8 9ebd 69df 2fbe
000003e0: 2d67 7c3c 4075 67bf e690 03bf 11cd f53e
000003f0: dbd8 dcbe 4b5c 01bf 13ca 46bf 9347 94bf

conv_layers.0.bias f4 [64]
1.3324231 -0.4702753 -0.23846695 1.3298347 -0.16519447 -0.47797793 -0.24468426 -0.25698668
-0.04938412 -0.6600437 -0.33011526 0.18763915 0.4589089 -0.21812248 1.2527621 -0.49028948
-0.53425246 0.22811714 -0.25607145 0.40504307 -0.35237563 0.5658832 -0.047805738 -0.40773562
-0.14386046 -0.37120515 -0.7892918 -0.042134527 0.29995638 0.37626597 -0.1683717 -0.32273316
-0.24991146 1.0130584 0.6915328 -0.44175497 -0.18374269 -0.13857707 -0.02386177 0.78637064
-0.134018 -0.45823115 -0.02631862 0.21447219 -0.26540712 -0.24913275 -0.3262859 -0.84036314
-0.09928523 -0.24263936 1.0047604 1.3384476 0.021380851 -0.19947661 -0.0545825 0.048200026
-0.2400133 0.8630678 -1.1200355 -0.90637094 -0.16947946 -1.1401782 -0.7625243 -0.15937226
00000000: d78c aa3f edc7 f0be ae30 74be 0638 aa3f
00000010: bd28 29be 86b9 f4be 838e 7abe c293 83be
00000020: 0147 4abd a0f8 28bf de04 a9be 7a24 403e
00000030: 1bf6 ea3e 805b 5fbe 825a a03f 3907 fbbe
00000040: c5c4 08bf 8a97 693e cc1b 83be ce61 cf3e
00000050: 946a b4be b9dd 103f f3cf 43bd b9c2 d0be
00000060: 2850 13be 9a0e bebe 070f 4abf 4195 2cbd
00000070: e293 993e efa5 c03e a269 2cbe 483d a5be
00000080: cae8 7fbe e6ab 813f 4b08 313f b52d e2be
00000090: 0b27 3cbe 26e7 0dbe c279 c3bc 964f 493f
000000a0: 043c 09be 469d eabe 269a d7bc 999e 5b3e
000000b0: 71e3 87be a81c 7fbe f20e a7be 0a22 57bf
000000c0: 0e56 cbbd 7476 78be fd9b 803f 4052 ab3f
000000d0: e526 af3c 9943 4cbe e691 5fbd 646d 453d
000000e0: 0cc6 75be 03f2 5c3f 535d 8fbf ed07 68bf
000000f0: 068c 2dbe 5cf1 91bf cb34 43bf 7b32 23be

conv_layers.1.weight f4 [64, 64, 3]
-0.08221615 0.033110876 -0.061577078 0.050336003 -0.018573267 0.03105919 -0.058841944 0.012973661
0.01914349 -0.08855352 -0.013836346 -0.14438 -0.034199208 0.01733054 -0.01540765 -0.044087656
0.0014565674 -0.041120544 0.026599038 -0.047254357 0.06510855 0.057605702 0.011853188 -0.06557814
-0.033632066 -0.020779662 0.0048497077 0.05584843 0.05985713 -0.044420302 -0.028014615 -0.06844323
-0.017024824 -0.052106865 0.044473294 -0.05229783 0.0194816 -0.161044 -0.010520194 0.047439527
0.031446982 0.06497403 -0.07009689 -0.08130044 -0.027819673 0.033488452 0.035428908 -0.073317185
-0.02499129 0.041072197 -0.03127828 -0.0701289 0.01152406 -0.11157174 -0.049110167 -0.035630826
0.038624823 -0.06170388 -0.06981938 0.0278363 -0.069265775 -0.005045165 0.011541172 -0.0046906816
-0.06509632 -0.09244236 -0.090861425 -0.019002708 -0.019322973 -0.006188644 -0.045403846 0.007649041
0.049121127 -0.059676442 0.049363855 -0.0019146256 0.014871714 0.024772622 -0.062434524 0.024977475
-0.070373416 0.039067894 -0.08177943 -0.04667023 -0.013716808 -0.06389403 -0.004899941 -0.1487764
-0.11120306 -0.049188673 -0.05743459 0.022085737 0.06952776 0.012483841 0.04175134 -0.0044494574
-0.022098014 -0.049320467 0.0626917 -0.042773414 -0.025276775 -0.061869074 0.04043006 0.01426666
-0.02680951 -0.054163262 0.058026947 -0.047945227 -0.044459622 0.06518792 -0.0042125084 0.034055423
0.021028947 -0.06680764 -0.06815925 -0.09715991 -0.028318478 0.0061214776 -0.012796729 0.029899515
0.029629033 -0.017234115 0.012326236 -0.039045352 -0.037106387 0.014797243 0.036940183 -0.011670627
-0.04673708 -0.021061376 -0.04065746 -0.030318482 0.009489404 0.005498952 -0.05309157 -0.06278698
0.0506523 0.031630054 -0.07281566 0.022104071 0.040310863 -0.06599689 -0.026111113 0.026261028
-0.062279396 -0.0031471606 -0.022168355 0.040000554 -0.025423551 0.042482246 -0.019017085 0.039839912
0.017303199 -0.06916132 0.029480422 -0.024585126 -0.0045608087 0.039011456 0.030217601 0.012182521
-0.064315885 0.06864828 0.01871243 -0.008063999 0.0039083627 0.04566752 -0.074297145 -0.06874902
0.012489502 0.0062632617 -0.05627428 -0.034125235 -0.15320297 -0.015062184 -0.018226318 -0.058887716
-0.06726619 -0.045085996 0.0007129367 0.030744229 -0.046080146 0.018085083 0.037393823 -0.075026534
0.05347267 -0.055802684 -0.05382334 0.013529347 -0.052485712 -0.07920062 -0.0016922762 -0.11109511
-0.016079208 -0.10211614 -0.030469509 0.004481277 -0.12863453 0.04656148 0.037418082 -0.019551802
0.02627038 -0.122453414 -0.08685177 -0.05205347 0.019969104 0.019690335 -0.07007209 0.07492727
0.016668757 0.05406595 0.0702931 0.003960231 -0.04418823 0.039738152 0.06720894 0.04565111
0.04956586 -0.04743689 0.06903433 0.043984585 -0.04788683 -0.058178682 0.028689886 -0.024280721
-0.025537198 -0.02733706 -0.058777038 -0.053543642 0.0017535553 -0.0302376 -0.04082505 -0.048167102
-0.028632551 0.061940245 -0.21595453 -0.045797676 -0.17278183 -0.032655653 0.09907013 -0.032237936
0.012685856 -0.21203704 -0.0727809 0.0005622165 -0.17811233 0.011342219 0.018769225 -0.027511228
0.020203076 -0.12412666 -0.10319591 -0.08465772 -0.06584768 -0.022914499 -0.010740686 -0.059738357
00000000: f160 a8bd 459f 073d 3f38 7cbd 202d 4e3d
00000010: f726 98bc d86f fe3c 4004 71bd 7a8f 543c
00000020: cfd2 9c3c 8c5b b5bd d7b1 62bc 5ad8 13be
00000030: 7814 0cbd c7f8 8d3c 5e70 7cbc 4295 34bd
00000040: 4bea be3a 046e 28bd 3ae6 d93c c98d 41bd
00000050: a257 853d f5f3 6b3d e033 423c d54d 86bd
00000060: c7c1 09bd 1c3a aabc 4cea 9e3b 53c1 643d
00000070: c02c 753d 10f2 35bd e87e e5bc f72b 8cbd
00000080: a577 8bbc 026e 55bd a129 363d 4036 56bd
00000090: e097 9f3c b8e8 24be e45c 2cbc f34f 423d
000000a0: 8dce 003d 1b11 853d f58e 8fbd d880 a6bd
000000b0: 15e6 e3bc 302b 093d e71d 113d 5227 96bd
000000c0: 89ba ccbc 523b 283d a71d 00bd be9f 8fbd
000000d0: 69cf 3c3c b97f e4bd be27 49bd a1f1 11bd
000000e0: 1035 1e3d 35bd 7cbd 77fd 8ebd f408 e43c
000000f0: 37db 8dbd e951 a5bb 2f17 3d3c 4ab4 99bb
00000100: 3851 85bd 6c52 bdbd 8e15 babd 91ab 9bbc
00000110: 364b 9ebc 1cca cabb 62f9 39bd cea4 fa3b
00000120: 3c33 493d 496f 74bd c131 4a3d 2df4 faba
00000130: 7da8 733c f4ef ca3c 58bb 7fbd 909d cc3c
00000140: f01f 90bd a805 203d f97b a7bd 4829 3fbd
00000150: 76bc 60bc e0da 82bd af8f a0bb d758 18be
00000160: 6ebe e3bd 107a 49bd 8840 6bbd 26ed b43c
00000170: 9264 8e3d 0689 4c3c 7403 2b3d c1cc 91bb
00000180: e506 b5bc 4204 4abd 8264 803d 2d33 2fbd
00000190: 3d11 cfbc 6d6a 7dbd fe99 253d b6be 693c
000001a0: 9e9f dbbc 4cda 5dbd aaad 6d3d 3762 44bd
000001b0: 4b1b 36bd 3f81 853d 1509 8abb b37d 0b3d
000001c0: e644 ac3c 72d2 88bd 1497 8bbd c6fb c6bd
000001d0: 27fc e7bc ad96 c83b 5fa9 51bc d4ef f43c
000001e0: 96b8 f23c 8f2e 8dbc fbf3 493c 05ee 1fbd
000001f0: defc 17bd 2370 723c 974e 173d 2836 3fbc
00000200: 616f 3fbd e888 acbc 7088 26bd 775e f8bc
00000210: 7279 1b3c 8e30 b43b 8c76 59bd 7696 80bd
00000220: c978 4f3d 848e 013d 6020 95bd 9913 b53c
00000230: 011d 253d 6129 87bd f9e6 d5bc 5e21 d73c
00000240: ae18 7fbd 9840 4ebb 699a b5bc 9fd7 233d
00000250: 0d45 d0bc dd01 2e3d b8c9 9bbc 2d2f 233d
00000260: 70bf 8d3c 73a4 8dbd ed80 f13c bf66 c9bc
00000270: d672 95bb 7aca 1f3d e78a f73c 3299 473c
00000280: 0cb8 83bd 7897 8c3d cf4a 993c dd1e 04bc
00000290: b911 803b de0d 3b3d 1a29 98bd 49cc 8cbd
000002a0: c5a0 4c3c 0c3c cd3b dc7f 66bd e7c6 0bbd
000002b0: 3de1 1cbe 61c7 76bc 5c4f 95bc 3f34 71bd
000002c0: dbc2 89bd 18ac 38bd 5fe4 3a3a 52db fb3c
000002d0: 89be 3cbd 2b27 943c 442a 193d 83a7 99bd
000002e0: 2906 5b3d 5b91 64bd dd75 5cbd 32aa 5d3c
000002f0: 42fb 56bd ef33 a2bd 5ecf ddba d585 e3bd
00000300: 8bb8 83bc 4422 d1bd 319b f9bc add7 923b
00000310: c5b8 03be 40b7 3e3d b443 193d 1a2b a0bc
00000320: fb34 d73c dbc8 fabd 57df b1bd 0536 55bd
00000330: 3f96 a33c a04d a13c f581 8fbd 7873 993d
00000340: eb8c 883c 4274 5d3d d4f5 8f3d d3c4 813b
00000350: b8fe 34bd 79c4 223d d7a4 893d a9fc 3a3d
00000360: 9205 4b3d 2f4d 42bd df61 8d3d 2e29 343d
00000370: fb24 44bd c54c 6ebd 0d07 eb3c 5de8 c6bc
00000380: 6333 d1bc f8f1 dfbc 31c0 70bd 9450 5bbd
00000390: 8dd7 e53a d8b4 f7bc 2b38 27bd de4a 45bd
000003a0: d08e eabc 0eb5 7d3d 2f23 5dbe 5896 3bbd
000003b0: b8ed 30be efc1 05bd 48e5 ca3d ed0b 04bd
000003c0: 56d8 4f3c 3d20 59be 270e 95bd b661 133a
000003d0: 1463 36be b7d4 393c ebc1 993c 3a5f e1bc
000003e0: ec80 a53c 1e36 febd 6158 d3bd 0761 adbd
000003f0: 26db 86bd 30b7 bbbc b4f9 2fbc 35b0 74bd

conv_layers.1.bias f4 [64]
-0.121325985 -0.1328956 -0.13777904 -0.03278738 -0.10383538 -0.0645159 -0.2003981 -0.19945338
-0.32282054 -0.09242453 -0.13817655 -0.15234801 -0.15968017 -0.23055758 -0.20351106 0.27907923
-0.41270795 -0.036369283 -0.12524396 -0.29285157 -0.061901607 -0.3535642 -0.094186455 -0.15639451
-0.049174644 0.7882557 -0.30293512 -0.19340967 -0.060534198 -0.22762547 -0.06134003 -0.07186408
-0.17357373 -0.10951468 -0.107269585 -0.356814 -0.115886 -0.069084674 -0.03989994 -0.2935892
-0.41836914 -0.11608911 -0.08530715 -0.06395315 0.14442001 -0.16911629 -0.07314407 -0.114326626
-0.32870993 -0.18890549 -0.33991018 -0.29637426 -0.41906917 -0.32952112 -0.12858024 -0.072402604
-0.20560943 -0.47413483 -0.09819054 -0.30763766 -0.11393798 -0.10158015 -0.071923405 -0.09149583
00000000: c279 f8bd c915 08be f315 0dbe 0f4c 06bd
00000010: a5a7 d4bd ea20 84bd 2935 4dbe 823d 4cbe
00000020: bc48 a5be 1249 bdbd 277e 0dbe 1e01 1cbe
00000030: 3383 23be 4917 6cbe 3465 50be 79e3 8e3e
00000040: 754e d3be f5f7 14bd f43f 00be a4f0 95be
00000050: 8a8c 7dbd 5e06 b5be d4e4 c0bd e225 20be
00000060: 5a6b 49bd 20cb 493f 501a 9bbe 2f0d 46be
00000070: b5f2 77bd a716 69be af3f 7bbd 7a2d 93bd
00000080: 50bd 31be 3c49 e0bd 28b0 dbbd 53b0 b6be
00000090: a455 edbd 447c 8dbd 1f6e 23bd 5351 96be
000000a0: 7b34 d6be 21c0 edbd 84b5 aebd def9 82bd
000000b0: d7e2 133e d22c 2dbe 8fcc 95bd 1424 eabd
000000c0: ab4c a8be 7170 41be b508 aebe 5ebe 97be
000000d0: 3c90 d6be feb6 a8be 8aaa 03be d147 94bd
000000e0: 478b 52be cdc1 f2be 1f18 c9bd af82 9dbe
000000f0: 5158 e9bd 4109 d0bd 944c 93bd 2a62 bbbd

conv_layers.2.weight f4 [64, 64, 3]
0.013414657 0.021073414 0.04716133 -0.0015098901 -0.13257879 0.06394565 -0.08595921 -0.004178752
-0.006116085 -0.35462072 -0.015740607 0.15361479 -0.043952163 0.05795489 -0.011527089 -0.061126914
0.06901206 -0.025016846 -0.14819239 -0.44489008 0.07030656 0.8355964 0.5190608 -0.14117855
-0.32433814 -0.3591422 0.55928046 -0.0025537547 0.055899683 0.0030800719 -0.19321409 0.08988393
0.06859304 -0.51552564 -0.76299447 -0.9043639 -0.0018469461 -0.00066177396 -0.034483053 -0.21946177
-0.0035412235 -0.011864085 -0.0068552834 0.13499814 0.15446165 0.056997605 -0.03676587 -0.060776547
-0.16121227 0.33608136 -0.6899047 -0.013193481 0.053361032 0.04253947 -0.23860873 0.16486275
-0.036426317 -0.7107209 -0.74975765 0.064106345 0.024497325 -0.0072898883 -0.060726836 -0.2531635
0.27413446 0.21639073 0.035108577 0.15662834 0.11018725 -0.07762602 -0.81757045 -0.19004144
-0.011637661 -0.024144981 -0.012549222 -0.9810517 0.030236315 -0.39989537 0.59870386 0.08341719
0.029577542 -0.70045966 -0.6797376 0.0014946251 -0.032582995 -0.03954558 -0.047835354 0.04677729
0.08097922 0.07444306 0.029092448 -0.026821576 0.02202711 -0.044717558 -0.010763287 0.0396343
-0.66814154 -0.55063087 0.31668654 -0.04071519 0.0038956408 -0.021841144 -0.026292117 0.06417041
0.109112106 0.090972215 0.42288017 -0.8116491 0.40317184 0.0071852887 0.2808208 -0.093275234
0.09665352 0.05353927 0.056821566 0.009449418 -0.021344021 -0.13202861 -0.08705565 0.089771986
-0.2774115 0.29781803 -0.051009167 -0.5537343 0.11473154 0.22026558 -0.40388227 -0.11486186
-0.81035537 0.049982257 -0.0031301794 0.056463175 -0.21892738 -0.52523667 0.25434035 0.1919644
-0.27702338 0.270405 0.06566659 -0.04975946 0.053663913 0.017332584 -0.047721084 0.06387056
-0.16875319 -0.014210513 0.5651097 -0.86071616 -0.7185651 -0.16400953 -0.91837627 -1.0483471
0.1013926 0.111320496 0.5141579 0.14013962 0.06412934 0.4944601 0.37924412 -0.682839
0.05449004 0.44804502 -0.2183004 -0.044796955 -0.75869834 -0.028116172 0.010388614 0.061456893
-0.46588495 -1.3044745 -0.37293062 -0.87360847 0.07214008 0.088585 -0.044043966 -0.024083905
0.071733385 -0.15644836 -0.2574608 -0.20270549 0.055006236 -0.030713024 -0.029960433 0.05787566
-0.04812212 -0.0019320096 -0.055290222 -0.06262723 0.040949214 0.021111716 -0.026870633 -0.03986774
0.06653522 -0.031415988 -0.01330565 0.06668103 -0.03475864 -0.05331862 -0.014638297 -0.112667955
0.020855494 0.05913526 0.1406053 -0.0013756296 0.010309391 -0.067282796 0.0076997937 0.033242304
-0.06858878 0.0046291016 -0.0027016627 0.03156611 0.063776314 0.15971252 0.019894985 -0.08648459
-0.30945873 -0.0072760833 0.1813312 -0.0076015973 -0.03352184 -0.0639376 0.049406826 -0.0007108318
0.058387358 -0.38206115 0.09195368 -0.02983535 0.046698123 -0.06522341 0.059968915 0.07386658
-0.116969615 -0.08081073 0.056724943 0.052056704 0.0066148373 0.2292876 0.07884426 0.10257161
-0.3866095 -0.15187241 0.2228543 0.051553413 -0.0040436885 -0.030577766 0.051201224 0.08504681
-0.024656832 -0.13129458 -0.14515272 0.12728551 -0.014049169 -0.10647537 -0.04241825 0.054906342
00000000: 26c9 5b3c 27a2 ac3c 3d2c 413d 81e7 c5ba
00000010: bcc2 07be f0f5 823d 620b b0bd eaed 88bb
00000020: 7169 c8bb d990 b5be 72f2 80bc 324d 1d3e
00000030: 2f07 34bd 1b62 6d3d 1edc 3cbc 3760 7abd
00000040: 3256 8d3d 21f0 ccbc bfbf 17be a2c8 e3be
00000050: e3fc 8f3d a5e9 553f 2be1 043f 1c91 10be
00000060: a60f a6be 7de1 b7be 012d 0f3f e55c 27bb
00000070: 11f7 643d 08db 493b ead9 45be 1115 b83d
00000080: 827a 8c3d 7df9 03bf 9b53 43bf 6484 67bf
00000090: 3a15 f2ba e67a 2dba 1a3e 0dbd 96ba 60be
000000a0: df13 68bb 9461 42bc 49a2 e0bb f43c 0a3e
000000b0: 322b 1e3e 5276 693d cf97 16bd d4f0 78bd
000000c0: d414 25be db12 ac3e 989d 30bf 7829 58bc
000000d0: 1991 5a3d de3d 2e3d d955 74be c8d1 283e
000000e0: c333 15bd cef1 35bf 1ef0 3fbf 304a 833d
000000f0: 9dae c83c 04e0 eebb b4bc 78bd a59e 81be
00000100: 5a5b 8c3e 8895 5d3e 03ce 0f3d 2e63 203e
00000110: daa9 e13d 64fa 9ebd 4c4c 51bf 399a 42be
00000120: e3ab 3ebc b2cb c5bc 419b 4dbc 3426 7bbf
00000130: 26b2 f73c 16bf ccbe a844 193f a2d6 aa3d
00000140: 9a4c f23c 5351 33bf 4903 2ebf 4ce7 c33a
00000150: bf75 05bd 8cfa 21bd 01ef 43bd 8b99 3f3d
00000160: 6fd8 a53d 9a75 983d 4953 ee3c ecb8 dbbc
00000170: 3372 b43c c229 37bd 7f58 30bc 9357 223d
00000180: 530b 2bbf 25f6 0cbf bd24 a23e f9c4 26bd
00000190: 024e 7f3b 33ec b2bc 9162 d7bc c76b 833d
000001a0: 2b76 df3d a44f ba3d c083 d83e 3cc8 4fbf
000001b0: 8a6c ce3e 9272 eb3b bec7 8f3e 1607 bfbd
000001c0: 48f2 c53d fe4b 5b3d bbbd 683d bbd1 1a3c
000001d0: a8d9 aebc 8232 07be 3c4a b2bd 60da b73d
000001e0: e108 8ebe 9b7b 983e fdee 50bd 88c1 0dbf
000001f0: 5ff8 ea3d 4d8d 613e a8c9 cebe b23c ebbd
00000200: 7373 4fbf 32ba 4c3d b223 4dbb ee45 673d
00000210: 802e 60be e975 06bf e638 823e 5192 443e
00000220: 02d6 8dbe 8672 8a3e 357c 863d 93d0 4bbd
00000230: b1ce 5b3d 10fd 8d3c 2f77 43bd 91ce 823d
00000240: a3cd 2cbe 36d3 68bc 08ab 103f e557 5cbf
00000250: e2f3 37bf 1df2 27be b51a 6bbf 3d30 86bf
00000260: eca6 cf3d 00fc e33d da9f 033f c380 0f3e
00000270: 3e56 833d e029 fd3e 492c c23e 89ce 2ebf
00000280: f330 5f3d 2866 e53e 248a 5fbe 037d 37bd
00000290: 0e3a 42bf e353 e6bc 0135 2a3c 39ba 7b3d
000002a0: 7988 eebe 05f9 a6bf c3f0 bebe cea4 5fbf
000002b0: 2ebe 933d 0d6c b53d 7267 34bd 9c4b c5bc
000002c0: f4e8 923d 0034 20be e7d1 83be 0792 4fbe
000002d0: 384e 613d e199 fbbc 956f f5bc 070f 6d3d
000002e0: b31b 45bd 7c3b fdba 0078 62bd b542 80bd
000002f0: 5dba 273d 7af2 ac3c cd1f dcbc 5b4c 23bd
00000300: 9e43 883d 0dae 00bd f1ff 59bc 1090 883d
00000310: 135f 0ebd a064 5abd 78d5 6fbc 75be e6bd
00000320: 24d9 aa3c d037 723d d6fa 0f3e 784e b4ba
00000330: b8e8 283c 90cb 89bd 8d4e fc3b 1529 083d
00000340: 4678 8cbd b8af 973b 610e 31bb 774b 013d
00000350: 289d 823d ae8b 233e cffa a23c d51e b1bd
00000360: 6071 9ebe 366c eebb e3ae 393e d216 f9bb
00000370: 324e 09bd b7f1 82bd d05e 4a3d 1d57 3aba
00000380: 9527 6f3d 859d c3be 3652 bc3d 4469 f4bc
00000390: 8846 3f3d da93 85bd f7a1 753d 5d47 973d
000003a0: c48d efbd 1980 a5bd 6a58 683d 6939 553d
000003b0: 47c1 d83b 5eca 6a3e 1979 a13d 1011 d23d
000003c0: aef1 c5be 7184 1bbe eb33 643e ac29 533d
000003d0: eb80 84bb 397e fabc 60b8 513d 062d ae3d
000003e0: 20fd c9bc 1672 06be eaa2 14be 2257 023e
000003f0: 7c2e 66bc c20f dabd c2be 2dbd 79e5 603d

conv_layers.2.bias f4 [64]
-0.35953838 -0.16483293 -0.25039938 -0.014062413 -0.33806095 -0.16102205 -0.13306543 -0.16756453
-0.8675477 -0.25645313 -0.1707548 -0.00027350284 0.25711927 -0.19618332 -0.17231448 -0.103990324
-0.4231896 -0.18115172 0.13008514 -0.10643091 -0.15295126 -0.4551155 -0.27627122 -0.5198825
-0.3019778 -0.4030789 -0.104001775 -0.18221277 -0.13259262 -0.09621037 -0.072589986 -0.17146794
-0.3242475 -0.342366 -0.18215421 -0.63989943 -0.25338292 -0.3446703 -0.15968941 -0.54842734
-0.08872953 -0.60667825 -0.49288383 -0.6152669 -0.11819431 -0.11731325 -0.24317603 -0.07122622
-0.3735955 -0.15382572 -0.21173556 -0.54416233 -0.2988059 -0.1406413 -0.12669595 -0.061885655
-0.108230546 -0.11205624 -0.6053909 0.23494455 -0.2525666 -0.2529924 -0.13787994 0.08671965
00000000: 6a15 b8be f7c9 28be 5934 80be 0966 66bc
00000010: 5316 adbe f7e2 24be 4e42 08be 0996 2bbe
00000020: 9b17 5ebf d34d 83be 59da 2ebe ee64 8fb9
00000030: 23a5 833e 48e4 48be 3573 30be e1f8 d4bd
00000040: 4fac d8be d67f 39be 0a35 053e 73f8 d9bd
00000050: 419f 1cbe e604 e9be 6c73 8dbe 0517 05bf
00000060: d69c 9abe 5c60 cebe e2fe d4bd fc95 3abe
00000070: 5cc6 07be f109 c5bd 0faa 94bd 4b95 2fbe
00000080: c503 a6be 994a afbe a286 3abe 73d0 23bf
00000090: 68bb 81be a078 b0be 9f85 23be bc65 0cbf
000000a0: d4b7 b5bd 444f 1bbf 455b fcbe 2282 1dbf
000000b0: dc0f f2bd ee41 f0bd 2303 79be 0ddf 91bd
000000c0: e947 bfbe 7d84 1dbe 35d1 58be 394e 0bbf
000000d0: 16fd 98be 4604 10be 95bc 01be d07b 7dbd
000000e0: faa7 ddbd be7d e5bd e6fa 1abf 4e95 703e
000000f0: 6950 81be 3888 81be 6630 0dbe 129a b13d

conv_layers.3.weight f4 [64, 64, 3]
-0.06781239 -0.14298885 -0.16673262 0.03371411 0.0057116346 -0.06597577 -0.08346712 -0.10535158
-0.054550778 -0.07307127 -0.018651262 -0.058314987 0.08287062 0.06478053 -0.0068769436 0.04141965
-0.009319903 -0.021239089 -0.01057139 -0.05161108 0.0016743217 -0.097459346 -0.119586326 -0.14646548
0.17891921 -0.02133651 -0.33098695 -0.03986569 0.09215 0.05312923 -0.055194627 -0.022534298
-0.07094586 -0.023939839 -0.062727876 0.06283341 -0.22185744 -0.23553666 0.066361144 -0.054614335
-0.0943683 -0.07106065 0.08461686 -0.03606194 0.058042444 -0.050838944 -0.04620288 -0.048339482
0.025286399 0.024148878 -0.020945733 0.1216575 0.1614514 -0.023615595 -0.15469722 0.035888422
-0.01533313 0.029132085 0.05548203 0.0462095 -0.060201313 -0.10872877 -0.06975144 0.006226868
-0.020823214 -0.052623104 -0.040790383 -0.078664094 -0.07083769 -0.06976364 -0.07097772 0.19326821
-0.09250197 0.023177255 -0.013570995 -0.027523443 -0.015192861 0.20663702 0.01568027 -0.08981887
-0.07757488 0.008989314 -0.042510327 -0.05476579 0.04316415 0.03452469 0.03712781 -0.24668176
0.15360224 -0.059674107 0.023880504 -0.058395915 0.045654424 -0.04307758 -0.05430668 0.051267564
-0.09311359 -0.24261051 -0.13013768 -0.056445863 -0.09784963 0.0033764935 0.0038901472 -0.01095149
0.008777817 -0.073867045 -0.09536553 -0.029969377 0.051516917 -0.06880157 -0.056792993 0.04558387
-0.0071199 0.076192096 -0.07108741 0.03794358 0.039101426 -0.07746022 -0.048548818 0.090560764
0.05773856 -0.06339131 -0.03149973 -0.09164661 -0.06737915 -0.09524574 -0.053098287 -0.06431479
-0.50195426 0.031214325 -0.03370489 -0.07562755 -0.0014493711 -0.051259868 0.03826394 -0.060340226
0.050072808 0.01601375 0.13987625 -0.21941592 -0.25021705 -0.03279765 0.06022863 0.020316394
0.08980405 -0.15489326 -0.123211585 0.020940274 0.041748423 -0.0609851 -0.12942055 -0.11122447
-0.06646671 -0.028723584 -0.13569595 -0.100127086 -0.19648123 -0.0795484 -0.44726086 -0.0059967972
-0.024833148 0.13174517 -0.061879717 -0.10142531 -0.0169259 0.05268761 0.04043853 -0.02206203
0.020033982 -0.07304136 0.04564983 -0.042731397 0.024840565 -0.004322977 0.012648685 0.07861615
-0.008485242 -0.13338338 -0.34951377 -0.346978 -0.06755302 -0.36041808 -0.13660645 -0.049637914
-0.117655486 -0.0680439 -0.12997231 -0.062248684 0.038013007 -0.13346453 -0.22690117 0.21590939
0.0347333 -0.014126743 -0.021048505 -0.2110936 -0.11088899 -0.12997907 0.042924065 0.039407033
-0.1827974 -0.13766132 -0.26434532 -0.30665797 -0.038673628 0.2261732 -0.04932876 0.033699878
0.041368857 -0.047504663 0.0062089204 -0.003904717 -0.03617927 -0.122988276 -0.16505685 -0.2916812
0.052696966 0.006487271 0.0246931 0.064666614 0.0031970877 -0.031063806 -0.0064653214 -0.04700589
-0.024644775 0.0075490572 -0.21719883 -0.13874857 0.25295892 -0.43270487 0.3042434 -0.015323845
0.009510756 0.0408385 -0.006901402 -0.03778539 0.036806136 -0.0103684515 -0.031486157 0.029076016
0.030095818 -0.068034254 -0.025941905 -0.045376953 -0.019004995 -0.05476015 -0.27324656 0.1434223
0.14130212 -0.037115574 -0.016227668 -0.09178661 -0.33019975 0.022718804 -0.21089529 0.023698118
00000000: 39e1 8abd ab6b 12be f5bb 2abe ce17 0a3d
00000010: aa28 bb3b 4e1e 87bd cff0 aabd 92c2 d7bd
00000020: a370 5fbd 64a6 95bd 88ca 98bc b2db 6ebd
00000030: 12b8 a93d a8ab 843d fc57 e1bb a7a7 293d
00000040: 82b2 18bc 99fd adbc a033 2dbc 2466 53bd
00000050: ea74 db3a c498 c7bd ade9 f4bd 0cfb 15be
00000060: 9936 373e e8c9 aebc 1f77 a9be 354a 23bd
00000070: 24b9 bc3d 099e 593d c313 62bd d999 b8bc
00000080: 104c 91bd 7b1d c4bc 7977 80bd ceae 803d
00000090: 992e 63be 8630 71be 5ae8 873d 48b3 5fbd
000000a0: 2b44 c1bd 3f88 91bd 9b4b ad3d afb5 13bd
000000b0: eabd 6d3d 7f3c 50bd 3b3f 3dbd 9fff 45bd
000000c0: 6c25 cf3c ded3 c53c 6396 abbc 9127 f93d
000000d0: 8453 253e 7e75 c1bc f368 1ebe bdff 123d
000000e0: cf37 7bbc 69a6 ee3c 2041 633d 2c46 3d3d
000000f0: a795 76bd 30ad debd d8d9 8ebd c10a cc3b
00000100: 7295 aabc 538b 57bd d113 27bd a41a a1bd
00000110: 5a13 91bd 3de0 8ebd c45c 91bd 1ae8 453e
00000120: ac71 bdbd 3ade bd3c e158 5ebc d878 e1bc
00000130: 7aeb 78bc a898 533e e973 803c f5f2 b7bd
00000140: 94df 9ebd ea47 133c 4f1f 2ebd 1852 60bd
00000150: e4cc 303d c369 0d3d 5513 183d 259a 7cbe
00000160: e849 1d3e d66c 74bd 0ca1 c33c 8e30 6fbd
00000170: 2200 3b3d 1e72 30bd ae70 5ebd f0fd 513d
00000180: 56b2 bebd e46e 78be d042 05be c733 67bd
00000190: 6365 c8bd 2948 5d3b d7f1 7e3b e16d 33bc
000001a0: d5d0 0f3c 9b47 97bd 014f c3bd 5782 f5bc
000001b0: 6703 533d d6e7 8cbd c59f 68bd 27b6 3a3d
000001c0: 0d4e e9bb 9a0a 9c3d 4796 91bd ba6a 1b3d
000001d0: d128 203d 77a3 9ebd 20db 46bd ec77 b93d
000001e0: 457f 6c3d 4ed3 81bd dc05 01bd 38b1 bbbd
000001f0: 14fe 89bd 3310 c3bd 977d 59bd 79b7 83bd
00000200: 1380 00bf 2fb5 ff3c 240e 0abd 9ee2 9abd
00000210: d3f8 bdba def5 51bd a6ba 1c3d 5027 77bd
00000220: 2519 4d3d 452f 833c b83b 0f3e 91ae 60be
00000230: 731c 80be d456 06bd 4cb2 763d 916e a63c
00000240: 30eb b73d 579c 1ebe 5b56 fcbd f08a ab3c
00000250: 6500 2b3d 83cb 79bd d286 04be a8c9 e3bd
00000260: b31f 88bd b94d ebbc e1f3 0abe 6e0f cdbd
00000270: 6032 49be 46ea a2bd 60ff e4be c880 c4bb
00000280: e36e cbbc 35e8 063e 9675 7dbd 13b8 cfbd
00000290: 2fa8 8abc f7ce 573d dfa2 253d 6ebb b4bc
000002a0: 4e1e a43c b596 95bd 51fb 3a3d 1e07 2fbd
000002b0: 717e cb3c c2a7 8dbb 6e3c 4f3c 8101 a13d
000002c0: af05 0bbc a795 08be 78f3 b2be 1aa7 b1be
000002d0: 3d59 8abd b888 b8be 90e2 0bbe 2051 4bbd
000002e0: 5cf5 f0bd 9a5a 8bbd 7617 05be 7af8 7ebd
000002f0: 87b3 1b3d edaa 08be c858 68be 5a17 5d3e
00000300: 8144 0e3d db73 67bc ea6d acbc ec28 58be
00000310: c419 e3bd 3c19 05be 25d1 2f3d 4569 213d
00000320: 3e2f 3bbe 17f7 0cbe 4558 87be 4602 9dbe
00000330: 3d68 1ebd f399 673e f40c 4abd e208 0a3d
00000340: 6472 293d 4094 42bd 3374 cb3b 48e6 7fbb
00000350: b730 14bd 47e1 fbbd aa04 29be 3d57 95be
00000360: c6d8 573d 2c93 d43b 2f49 ca3c ee6f 843d
00000370: 3b86 513b 8679 febc 0cdb d3bb 4089 40bd
00000380: d7e3 c9bc 155e f73b 5f69 5ebe 1b14 0ebe
00000390: d583 813e 7e8b ddbe cac5 9b3e dd10 7bbc
000003a0: 00d3 1b3c 4546 273d 2825 e2bb dac4 1abd
000003b0: 08c2 163d 70e0 29bc a1f7 00bd d330 ee3c
000003c0: 818b f63c 8b55 8bbd 1e84 d4bc 2fdd 39bd
000003d0: 5db0 9bbc 2e4c 60bd f9e6 8bbe 4cdd 123e
000003e0: 81b1 103e 8006 18bd e3ef 84bc 9efa bbbd
000003f0: f10f a9be c91c ba3c eff4 57be 8e22 c23c

conv_layers.3.bias f4 [64]
-0.11597183 -0.091229506 -0.15453142 -0.15917575 -0.12072589 -0.073925346 -0.11466725 -0.27741906
-0.17781869 -0.04937849 -0.31089917 -0.10935715 -0.11406815 -0.2003171 -0.1633314 -0.09383451
-0.3339876 -0.15573107 -0.40809745 -0.20628701 -0.27927187 -0.20228907 -0.3998784 -0.14175911
-0.08994745 -0.23102324 -0.09921808 -0.13436367 -0.25121316 -0.34912246 -0.13823408 -0.11659412
-0.12512274 -0.2022092 -0.082569 -0.19982213 -0.2038609 -0.64634866 -0.22174896 -0.076726295
-0.275821 -0.21608941 -0.07342609 -0.1673771 -0.18089582 -0.051863566 -0.19799282 -0.41288283
-0.21896291 -0.119632505 -0.30319723 -0.2308136 -0.11151112 -0.21121523 -0.13128582 0.22032806
-0.12609898 0.38598794 -0.16198474 -0.13879885 -0.42464778 0.08066593 -0.31896085 -0.12662947
00000000: a482 edbd 89d6 babd 7c3d 1ebe f8fe 22be
00000010: 233f f7bd 2c66 97bd aad6 eabd df09 8ebe
00000020: 1a16 36be 1941 4abd 2d2e 9fbe a4f6 dfbd
00000030: 909c e9bd ed1f 4dbe 5940 27be 4f2c c0bd
00000040: 6c00 abbe f777 1fbe 26f2 d0be e73c 53be
00000050: b9fc 8ebe de24 4fbe ddbc ccbe 4d29 11be
00000060: 5e36 b8bd 5b91 6cbe d932 cbbd a196 09be
00000070: 039f 80be 2ec0 b2be 3c8d 0dbe e6c8 eebd
00000080: 2d20 00be ee0f 4fbe f019 a9bd 2c9e 4cbe
00000090: e9c0 50be 1b77 25bf 2912 63be ad22 9dbd
000000a0: 6938 8dbe 8b46 5dbe 6b60 96bd e764 2bbe
000000b0: c13c 39be e46e 54bd a1be 4abe 6165 d3be
000000c0: d037 60be e301 f5bd ab3c 9bbe 665a 6cbe
000000d0: f15f e4bd ce48 58be ca6f 06be ae9d 613e
000000e0: 1720 01be 36a0 c53e 54df 25be 4921 0ebe
000000f0: 6f6b d9be 2e34 a53d d64e a3be 28ab 01be

dense.weight f4 [3, 3200]
0.09899177 0.03890495 0.08671257 -0.034037642 0.07937053 -0.04700144 0.089476734 -0.042291988
0.03616027 0.11219947 -0.08691457 0.03259635 0.043152057 -0.0088508 0.13093442 -0.069826506
0.056722164 0.1153576 0.0049140775 -0.009766872 0.09573343 0.038951002 0.011267678 0.07930328
0.009737761 0.19038287 -0.0038141662 0.12647468 -0.14082347 0.088333115 0.17152375 -0.10110044
0.13685496 -0.06507762 0.13655405 -0.11074805 -0.052567817 -0.018590113 -0.08009523 0.1367016
-0.3140587 0.18250611 -0.26495686 0.021658657 0.19432378 -0.15334915 -0.089289196 0.17907962
-0.06831289 0.10085653 -0.112319894 -0.02831395 0.059322078 0.0555047 0.13019818 0.03434182
0.06312797 0.0049525676 -0.013708253 0.12871447 0.053936623 -0.016806884 0.03064896 0.16783291
-0.0458468 -0.07974177 0.124216504 -0.1618345 -0.0029543308 -0.011371993 -0.039642736 -0.02982416
0.04093095 0.0039992547 0.03034673 0.025436714 0.035856567 -0.040116638 0.118740216 0.04800512
0.15800461 -0.038211923 -0.03597461 -0.011724471 0.038308118 0.019317396 0.024647702 -0.19632837
-0.092268065 0.07595897 -0.06687694 0.12705715 0.078644276 0.080100246 0.0065529984 -0.007336062
0.18912837 0.098780535 -0.09777469 0.013026244 -0.01699492 -0.039387107 -0.019424127 -0.01040998
-0.0242887 -0.020463832 -0.027339598 -0.035541553 -0.022126362 0.007050413 -0.026907587 -0.0067968075
-0.027427828 -0.024689551 0.020058565 0.023299115 -0.013207 -0.014559579 -0.0015211416 -0.0118774725
-0.023819422 0.0010127048 -0.014166209 -0.033654284 -0.023897527 -0.034892667 0.0022216646 -0.014830897
-0.006356724 -0.030845966 -0.020499963 0.02728445 -0.019015172 0.0074980618 0.00496919 0.010485
0.008218926 -0.0002842882 -0.024686791 -0.010472164 -0.03409834 -0.027109899 -0.016879167 -0.016025873
-0.011232691 -0.023612596 0.02760009 -0.023112638 -0.031397916 -0.012223746 0.021199945 0.03170765
0.024581831 0.022897014 0.02427308 0.046881963 0.0039676693 0.016925901 0.01639582 0.013711923
0.013093508 0.017018555 -0.009382472 0.0038683682 -0.0012122876 0.019319767 0.017705226 0.006285847
0.008701503 0.0036670074 0.018569207 -0.00023630826 -0.00037948336 0.042024236 -0.0025972552 0.010412536
0.020341672 0.019641655 0.031312034 0.015338926 0.01118236 0.021362867 0.013571733 0.03173182
-0.0044026305 0.04257677 0.031266652 0.030202907 0.009446462 0.038755495 0.014978981 0.01868583
0.033614233 0.02817561 0.036986746 0.04391719 0.051553234 0.03427234 0.06801213 0.03121073
-0.007800303 -0.0070927427 0.0092190625 -0.0004121254 0.0024092197 -0.004700905 -0.018416382 0.0022039656
-0.011810312 -0.011122443 0.008642149 -0.019518929 -0.0011396966 0.002309997 0.0032155851 0.0064571127
-0.005792386 -0.0104165785 -0.0014523505 0.0027462714 -0.023332596 -0.0052501257 -0.023286384 -0.0064653903
-0.0118407775 0.011031464 -0.018322838 0.005546308 0.0015765594 0.006541616 -0.007159173 0.004229233
1.2776235e-05 -0.004118529 0.0022244188 0.007454875 -0.011855443 0.004872662 -0.020267064 -0.01363022
-0.016501885 -0.008335657 -0.021788882 -0.012357607 -0.020998036 -0.007380288 0.002504332 0.01944602
-0.01390424 -0.009083505 0.084780306 0.010954833 0.011913764 0.017470269 0.010631523 0.0014793482
00000000: 32bc ca3d cc5a 1f3d 5c96 b13d 0e6b 0bbd
00000010: 048d a23d 9584 40bd 943f b73d 5d3a 2dbd
00000020: cb1c 143d d6c8 e53d 4400 b2bd c083 053d
00000030: 36c0 303d f202 11bc ac13 063e 3301 8fbd
00000040: 8055 683d 9b40 ec3d 4506 a13b 3b05 20bc
00000050: e30f c43d 168b 1f3d 119c 383c c269 a23d
00000060: 218b 1f3c baf3 423e 17f7 79bb 9482 013e
00000070: 0734 10be fee7 b43d eca3 2f3e bf0d cfbd
00000080: b523 0c3e 6a47 85bd d3d4 0b3e e0cf e2bd
00000090: 5a51 57bd 4b4a 98bc f808 a4bd 81fb 0b3e
000000a0: 4dcc a0be e2e2 3a3e 6da8 87be 7f6d b13c
000000b0: d0fc 463e 8f07 1dbe 41dd b6bd a660 373e
000000c0: a1e7 8bbd de8d ce3d f907 e6bd a8f2 e7bc
000000d0: b5fb 723d e558 633d ac52 053e 02aa 0c3d
000000e0: 3d49 813d 2649 a23b 9598 60bc bacd 033e
000000f0: a6ec 5c3d 97ae 89bc 8713 fb3c 64dc 2b3e
00000100: dbc9 3bbd a74f a3bd 3965 fe3d f1b7 25be
00000110: 729d 41bb 9951 3abc 6c60 22bd cc51 f4bc
00000120: 36a7 273d 2e0c 833b b599 f83c a860 d03c
00000130: 56de 123d 5851 24bd 122e f33d 04a1 443d
00000140: f6cb 213e 1b84 1cbd 1d5a 13bd ff17 40bc
00000150: f9e8 1c3d 843f 9e3c fae9 c93c 4e0a 49be
00000160: 0af7 bcbd 6090 9b3d c7f6 88bd 451b 023e
00000170: 4010 a13d 990b a43d 89ba d63b 5963 f0bb
00000180: deaa 413e 734d ca3d 193e c8bd 076c 553c
00000190: ee38 8bbc 6054 21bd 591f 9fbc 9f8e 2abc
000001a0: 19f9 c6bc c4a3 a7bc 4bf7 dfbc 0594 11bd
000001b0: 5842 b5bc 2707 e73b 4d6d dcbc c1b7 debb
000001c0: 53b0 e0bc be41 cabc dc51 a43c c9dd be3c
000001d0: 2c62 58bc 4d8b 6ebc 0b61 c7ba bb99 42bc
000001e0: f320 c3bc bcbc 843a 6319 68bc 13d9 09bd
000001f0: bfc4 c3bc 9deb 0ebd 5999 113b 4afd 72bc
00000200: 114c d0bb aeb0 fcbc 8aef a7bc a483 df3c
00000210: b5c5 9bbc 4db2 f53b 96d4 a23b 47c9 2b3c
00000220: ada8 063c 840c 95b9 f43b cabc 7093 2bbc
00000230: b3aa 0bbd 9415 debc 2e46 8abc b148 83bc
00000240: 5209 38bc 346f c1bc 9519 e23c b756 bdbc
00000250: 1a9b 00bd 1b46 48bc 82ab ad3c e1df 013d
00000260: d65f c93c 8592 bb3c 57d8 c63c 4d07 403d
00000270: 3903 823b 30a8 8a3c 8750 863c f9a7 603c
00000280: 2786 563c 7f6a 8b3c f1b8 19bc 7384 7d3b
00000290: 9fe5 9eba 7d44 9e3c 8d0a 913c 82f9 cd3b
000002a0: c090 0e3c 2d52 703b 731e 983c 84c9 77b9
000002b0: 65f5 c6b9 9b21 2c3d b636 2abb 5799 2a3c
000002c0: 94a3 a63c 89e7 a03c 0c41 003d 1e50 7b3c
000002d0: 3836 373c 2e01 af3c f95b 5e3c 3af9 013d
000002e0: f143 90bb fb64 2e3d 7611 003d 166c f73c
000002f0: 55c5 1a3c 15be 1e3d 666a 753c 0713 993c
00000300: 14af 093d 89d0 e63c 6a7f 173d 83e2 333d
00000310: 7c29 533d 2761 0c3d f249 8b3d a5ad ff3c
00000320: af99 ffbb 3d6a e8bb 8d0b 173c 8912 d8b9
00000330: 00e4 1d3b 0d0a 9abb f4dd 96bc 6870 103b
00000340: 0a80 41bc e83a 36bc cd97 0d3c 29e6 9fbc
00000350: df61 95ba 5263 173b 91bc 523b 3096 d33b
00000360: 0ece bdbb 4caa 2abc cc5c beba cafa 333b
00000370: 0024 bfbc 3f09 acbb 16c3 bebc a0db d3bb
00000380: d2ff 41bc 50bd 343c c719 96bc cebd b53b
00000390: 8ea4 ce3a 0d5b d63b 7f97 eabb 6195 8a3b
000003a0: 8359 5637 baf4 86bb 8ec7 113b 0648 f43b
000003b0: 553d 42bc daaa 9f3b 1d07 a6bc 4951 5fbc
000003c0: f62e 87bc 4892 08bc 997e b2bc 8f77 4abc
000003d0: 1304 acbc 58d6 f1bb b81f 243b 424d 9f3c
000003e0: 9cce 63bc fbd2 14bc 4ca1 ad3d e67b 333c
000003f0: f331 433c cf1d 8f3c d72f 2e3c b0e6 c13a

dense.bias f4 [3]
0.69480747 0.6935968 0.69348764
00000000: e7de 313f 8f8f 313f 6888 313f
